model/verify/Amazon_Musical_Instruments/recommendation_ndcg_recommendation_drop_best.model (torch, 245335 bytes, 6 tensors)

weight f4 [2, 100]
0.2097162 0.5432193 -0.26495063 -0.501356 -0.31063285 0.28796348 0.40199828 0.3957525
0.3511344 -0.42086193 0.36775783 0.31872693 -0.71640915 0.4117721 0.36432812 0.28174025
-0.039165553 -0.24103697 0.3534729 0.4156467 0.14671402 -0.39371747 -0.1718215 0.3218024
0.4480047 0.17011993 0.30596322 -0.4937536 0.45086396 0.1252588 0.061383754 0.74912226
-0.34385347 0.21157107 -0.19792303 0.4604709 -0.34869564 0.8770673 0.45371628 -0.51215744
0.36779118 0.07644828 -0.8682855 -0.2840554 0.2552723 -0.39303514 0.11293197 0.23776592
-0.29412276 -0.6099727 0.3592999 -0.45178986 -0.4566341 0.7192896 0.43465105 -0.13870591
0.39242026 -0.2649751 -0.45938003 -0.24198851 -0.3889952 0.3390583 0.2642064 0.24423279
-0.3949349 -0.10582426 0.1185768 0.33118197 0.30263174 0.45016286 -0.2841968 -0.39504948
0.25093704 -0.30257025 -0.37099516 -0.43064108 0.32698423 -0.6179132 0.4392313 0.28258213
-0.27195182 -0.27052706 0.5032361 -0.48213693 0.12196723 0.13791178 -0.6124353 0.4376977
0.32515925 0.408501 -0.30805907 -0.40789923 -0.40183848 0.2235576 0.11538634 -0.38799334
-0.16886464 0.08261491 0.23242785 -0.4043275 -0.3119389 -0.47078615 0.25726315 0.47817853
0.35227022 -0.28543288 -0.397847 -0.45875004 -0.43722352 0.43248275 -0.49446929 -0.33559847
0.7229573 -0.50466937 -0.20479049 -0.3136249 0.1741347 0.17193387 -0.25202715 -0.35376495
-0.30603465 0.36935648 0.25082317 -0.33234304 -0.36188555 -0.21105786 -0.29891035 0.5018643
-0.46801615 -0.19490618 -0.21071975 -0.69284976 0.3143715 -0.14655995 0.32450464 -0.4211964
0.26155758 -0.86880386 -0.3637344 0.53242606 -0.31754404 0.012894001 0.7668529 0.22596401
-0.43729484 0.555174 -0.3011598 -0.17338936 0.45499033 0.44442177 -0.35526603 0.5009561
0.5395536 -0.62397856 -0.32614043 -0.0028410375 -0.38770613 0.15489808 0.5637762 0.4093056
0.45969012 -0.3369235 -0.39518332 -0.27566168 0.3590477 0.2740714 -0.055248532 -0.3298804
-0.38345313 -0.39217234 0.3810451 0.26074195 -0.29314956 0.3563092 0.28716058 0.33936515
-0.35166028 0.6259505 -0.4496077 -0.27004787 0.3015546 0.24095815 -0.3342875 0.6110743
-0.015523324 -0.15589361 0.7272039 -0.53950167 -0.4038303 -0.3982719 0.2657651 0.29090974
0.44146577 -0.15426077 -0.07587308 0.2763955 0.095401034 -0.07525626 -0.2424858 0.41037232
00000000: d8bf 563e 6c10 0b3f 9ca7 87be de58 00bf
00000010: 450b 9fbe f36f 933e b8d2 cd3e 12a0 ca3e
00000020: e3c7 b33e 377b d7be c14a bc3e 2d30 a33e
00000030: 9766 37bf cbd3 d23e 3789 ba3e 4240 903e
00000040: 0f6c 20bd 65d2 76be 66fa b43e a5cf d43e
00000050: 333c 163e 5695 c9be faf1 2fbe 49c3 a43e
00000060: df60 e53e eb33 2e3e 36a7 9c3e 46cd fcbe
00000070: a4d7 e63e d843 003e 886d 7b3d 7ac6 3f3f
00000080: 900d b0be 16a6 583e 56ac 4abe d8c2 eb3e
00000090: 3c88 b2be 7c87 603f 804d e83e c01c 03bf
000000a0: 204f bc3e ea90 9c3d f547 5ebf b66f 91be
000000b0: 0db3 823e e73b c9be e048 e73d e978 733e
000000c0: 4297 96be 2c27 1cbf 28f6 b73e 0051 e7be
000000d0: f2cb e9be 5d23 383f 958a de3e ec08 0ebe
000000e0: 4feb c83e d1aa 87be dc33 ebbe d6cb 77be
000000f0: 612a c7be 0d99 ad3e 1046 873e 2918 7a3e
00000100: e834 cabe 64ba d8bd 65d8 f23d af90 a93e
00000110: 8cf2 9a3e bf7b e63e 3e82 91be ed43 cabe
00000120: d27a 803e 7dea 9abe 14f3 bdbe fd7c dcbe
00000130: 7a6a a73e 8f2f 1ebf ede2 e03e 9bae 903e
00000140: 453d 8bbe 8682 8abe 15d4 003f a7da f6be
00000150: f5c9 f93d bf38 0d3e 8fc8 1cbf ea19 e03e
00000160: 467b a63e 0b27 d13e ebb9 9dbe 2bd8 d0be
00000170: c6bd cdbe 49ec 643e ac4f ec3d 10a7 c6be
00000180: daea 2cbe 0232 a93d 9101 6e3e 0404 cfbe
00000190: 75b6 9fbe e20a f1be ffb7 833e d1d3 f43e
000001a0: c35c b43e 4224 92be 9ab2 cbbe 49e1 eabe
000001b0: c3db dfbe 616e dd3e 142b fdbe 90d3 abbe
000001c0: bb13 393f 0332 01bf 99b4 51be 7193 a0be
000001d0: 5e50 323e 6f0f 303e b409 81be ae20 b5be
000001e0: 93b0 9cbe 4b1c bd3e e56b 803e de28 aabe
000001f0: 1049 b9be 8d1f 58be c70a 99be 2e7a 003f
00000200: d09f efbe 7c95 47be ebc6 57be 9a5e 31bf
00000210: 4df5 a03e d013 16be 7925 a63e 0ea7 d7be
00000220: e0ea 853e ee69 5ebf 653b babe 134d 083f
00000230: 2295 a2be 5c41 533c 7950 443f 1c63 673e
00000240: 1ce5 dfbe e21f 0e3f 9e31 9abe fb8c 31be
00000250: 7ef4 e83e 408b e33e 6ee5 b5be a93e 003f
00000260: 2f20 0a3f 0fbd 1fbf e1fb a6be b330 3abb
00000270: 6b81 c6be 9a9d 1e3e a353 103f 8190 d13e
00000280: 815c eb3e 3d81 acbe 7855 cabe 8723 8dbe
00000290: 1ad5 b73e 1653 8c3e 494c 62bd 15e6 a8be
000002a0: f853 c4be d0ca c8be 5818 c33e f87f 853e
000002b0: b317 96be 296e b63e b606 933e 45c1 ad3e
000002c0: d10c b4be 4b3e 203f fb32 e6be b743 8abe
000002d0: 5d65 9a3e bcbd 763e bb27 abbe 5e6f 1c3f
000002e0: 8a55 7ebc 93a2 1fbe 092a 3a3f c81c 0abf
000002f0: d8c2 cebe 4bea cbbe 5d12 883e 1ff2 943e
00000300: cd07 e23e 89f6 1dbe 5863 9bbd b683 8d3e
00000310: 9e61 c33d f41f 9abd 334e 78be 521c d23e

bias f4 [2]
-0.23608017 0.1803567
00000000: 00bf 71be 6daf 383e

weight f4 [100, 100]
-4.112713 0.6282254 0.44588816 0.31172943 0.3712984 0.6207924 -0.24376528 -0.27018535
0.16853048 0.27738172 -0.15891866 -0.10449414 0.27148637 -0.18020815 0.21473192 0.2444325
0.7078274 0.21347074 0.106256 0.23716533 -0.44943604 0.11967078 -0.4263116 -0.3291972
-0.24014631 -0.2434523 0.040115774 0.043131854 -0.15636726 0.48551828 -0.11159476 0.19533573
0.4444101 0.20806156 -0.6234644 -0.5208695 -0.46637046 0.34517473 -0.060552847 -0.20690556
0.3072686 0.697655 -0.13790813 -0.69984615 -0.25443962 -0.46626657 0.42978585 0.5057875
-0.41679817 0.23066862 0.013497176 -0.5203738 0.13609263 -0.64909405 -0.4957615 -0.07035921
-0.82296693 0.36293778 0.0022240053 -0.020828823 0.08064118 0.17483011 -0.37001958 0.42133224
-0.050975133 -0.43550012 -0.18651524 -0.015408022 0.19524172 -0.33685896 -0.13223296 0.106874645
0.18538208 0.107918546 0.035633363 -0.60841155 -0.37718135 0.22709063 -0.6517363 -0.4557424
0.010869237 -0.24243954 0.4011714 0.29320642 -0.19748084 0.65607965 0.009002739 0.05260609
-0.20793508 0.348894 0.25990456 -0.2594476 -0.66666406 0.09822759 0.79164565 -0.4474319
0.032194644 0.1389957 -0.10010048 0.02413191 -0.2577779 -3.6132362 -0.012047809 0.28458804
0.31558958 0.28132734 0.26423496 -0.59396565 0.51659995 0.13201147 -0.050709665 -0.073598735
0.17611079 -0.11898446 0.68699676 -0.1838168 0.35136494 -0.061749313 0.15909633 -0.5736519
-0.75873595 0.4899113 -0.41725558 -0.01779108 -0.25416324 0.43985456 0.21940011 0.40704477
0.29242653 -0.7314449 0.14307101 0.257522 -0.29634005 -0.09325038 -0.041296892 0.20139444
0.52065295 0.43994734 -0.0545786 -0.016669877 0.027465263 0.04986991 0.47605687 0.25469875
0.3171846 0.23134525 0.4925505 0.3087542 -0.63027376 0.20392369 0.85823774 0.8418582
0.24506646 0.82715946 0.2036953 0.33209935 -0.104324505 0.2226716 0.18962549 0.43465018
0.14416371 0.15552329 0.1946949 0.05803507 -0.32606894 0.30835894 -0.5041294 0.2044279
-0.0106712775 -0.028136931 -0.1958607 0.23179969 -0.09168093 0.13990419 0.5157402 -0.094977744
0.52075857 0.6719173 -0.059320267 -0.4629113 0.119524695 -0.32342458 -0.53186476 -0.23960637
0.3096213 0.15307838 -0.26174396 0.41095123 0.18471964 -0.03375243 0.062512025 0.29334065
-0.03946622 -0.090966396 -0.1581628 -0.2668281 0.20905344 -0.27391315 0.5329493 0.4686394
0.050039534 -0.0035877775 -3.3252592 0.5523843 -0.3401897 -0.14875138 -0.1293899 0.055873517
0.18141116 0.20143662 -0.8192498 0.5459695 -0.343108 0.4793419 0.22943082 0.3728325
0.6521831 -0.18084039 0.23577435 0.17439514 -0.1710822 0.51829815 0.17426746 -0.06206156
0.38222104 -0.8448435 0.30016178 0.47010577 0.20113626 0.08377301 0.22162715 0.25759238
-0.7652112 0.027082402 -0.19839603 0.018325314 -0.26265025 0.41246277 -0.18344283 -0.31741944
-0.4313686 0.064839534 -0.10988149 0.64479846 0.29158658 0.1098235 0.26340264 0.6758388
-0.010980932 0.7023162 0.29938304 0.46780935 0.87967396 0.49438918 0.4600251 -0.3780508
00000000: 589b 83c0 61d3 203f 744b e43e 009b 9f3e
00000010: d31a be3e 40ec 1e3f 9b9d 79be bc55 8abe
00000020: 4193 2c3e fa04 8e3e 93bb 22be 0601 d6bd
00000030: 4300 8b3e 7c88 38be afe2 5b3e 834c 7a3e
00000040: 2d34 353f 1398 5a3e bf9c d93d 78db 723e
00000050: 7b1c e6be f415 f53d 8445 dabe 898c a8be
00000060: eae8 75be 8f4b 79be 7050 243d 07ab 303d
00000070: bd1e 20be da95 f83e cb8b e4bd 1706 483e
00000080: b889 e33e 170e 553e 5d9b 1fbf b457 05bf
00000090: 1cc8 eebe beba b03e 4306 78bd 0ddf 53be
000000a0: 4f52 9d3e 8599 323f ca37 0dbe 1e29 33bf
000000b0: e945 82be 7eba eebe e40c dc3e 4a7b 013f
000000c0: 9266 d5be 6534 6c3e 4223 5d3c 3837 05bf
000000d0: de5b 0b3e 072b 26bf 74d4 fdbe 7d18 90bd
000000e0: f6ad 52bf fbd2 b93e 9ec0 113b 35a1 aabc
000000f0: 3427 a53d aa06 333e 3573 bdbe dcb8 d73e
00000100: 4dcb 50bd dff9 debe dafd 3ebe ee71 7cbc
00000110: 72ed 473e c778 acbe 1468 07be 18e1 da3d
00000120: cdd4 3d3e 6604 dd3d 4af4 113d dcc0 1bbf
00000130: ea1d c1be 728a 683e 31d8 26bf 1157 e9be
00000140: e214 323c 1242 78be 5666 cd3e 271f 963e
00000150: 6b38 4abe d6f4 273f 3980 133c 7c79 573d
00000160: efec 54be 3ca2 b23e 3612 853e 51d6 84be
00000170: 7faa 2abf 8c2b c93d 4aa9 4a3f cb15 e5be
00000180: 88de 033d e454 0e3e 7b01 cdbd 49b0 c53c
00000190: 77fb 83be 433f 67c0 2c64 45bc 86b5 913e
000001a0: f594 a13e 230a 903e ce49 873e 220e 18bf
000001b0: e53f 043f 042e 073e f0b4 4fbd efba 96bd
000001c0: 6356 343e 20ae f3bd 05df 2f3f 793a 3cbe
000001d0: 1be6 b33e d9ec 7cbd 26ea 223e dada 12bf
000001e0: 853c 42bf a7d5 fa3e 86a2 d5be 99be 91bc
000001f0: af21 82be 9e34 e13e 6caa 603e 2c68 d03e
00000200: eeb8 953e f93f 3bbf 3581 123e ecd9 833e
00000210: e2b9 97be 0efa bebd ee26 29bd 583a 4e3e
00000220: 8349 053f c740 e13e cf8d 5fbd 448f 88bc
00000230: d5fe e03c 6444 4c3d babd f33e e067 823e
00000240: 0566 a23e c5e5 6c3e 942f fc3e 0815 9e3e
00000250: 9f59 21bf 5fd1 503e 78b5 5b3f 0584 573f
00000260: b4f2 7a3e b9c0 533f 8095 503e ed08 aa3e
00000270: 16a8 d5bd 0604 643e 2f2d 423e 788a de3e
00000280: a79f 133e 7f41 1f3e 1a5e 473e 2eb6 6d3d
00000290: 82f2 a6be 39e1 9d3e a00e 01bf 8c55 513e
000002a0: 95d6 2ebc 6c7f e6bc b58f 48be e65c 6d3e
000002b0: 36c3 bbbd 0b43 0f3e 8d07 043f b183 c2bd
000002c0: 6f50 053f c602 2c3f cff9 72bd b602 edbe
000002d0: 5dc9 f43d e897 a5be 4a28 08bf 5f5b 75be
000002e0: af86 9e3e 94c0 1c3e 4e03 86be 3368 d23e
000002f0: 2527 3d3e fd3f 0abd 4e06 803d bf30 963e
00000300: 55a7 21bd 974c babd 6ef5 21be b19d 88be
00000310: 1b12 563e 583e 8cbe 5e6f 083f 81f1 ef3e
00000320: 41f6 4c3d eb20 6bbb 0cd1 54c0 0f69 0d3f
00000330: 582d aebe 4852 18be c97e 04be a1db 643d
00000340: d9c3 393e 6745 4e3e 5bba 51bf a8c4 0b3f
00000350: daab afbe 4d6c f53e eaef 6a3e e7e3 be3e
00000360: 79f5 263f 392e 39be d56e 713e a494 323e
00000370: 2c30 2fbe 30af 043f 2b73 323e 4334 7ebd
00000380: 7ab2 c33e aa47 58bf ceae 993e b4b1 f03e
00000390: aaf6 4d3e 2f91 ab3d 3af2 623e 26e3 833e
000003a0: e2e4 43bf eadb dd3c 5428 4bbe f81e 963c
000003b0: 187a 86be 522e d33e 70d8 3bbe cd84 a2be
000003c0: 58dc dcbe 97ca 843d 8c09 e1bd 8311 253f
000003d0: d64a 953e 25eb e03d b6dc 863e c603 2d3f
000003e0: 5ee9 33bc ffca 333f bc48 993e b584 ef3e
000003f0: 5032 613f 9420 fd3e 6988 eb3e e08f c1be

weight f4 [100, 200]
0.36944386 0.3098277 -1.4847691 1.4516737 1.8146615 -1.3778844 -0.8134233 1.4267808
0.03491666 -0.3298461 -0.61305934 -2.4101899 2.0968432 0.84737056 -2.0228095 -2.4877179
-1.154524 1.5753512 -1.2758218 1.028797 0.8427525 -2.178421 -1.0030468 -1.4728433
0.50856304 0.8137666 0.4933003 -1.4394935 0.8926396 1.2252535 -0.17447478 0.7880332
0.01625636 -1.8233265 1.4891824 2.360987 1.8587687 -1.6230742 0.16397595 -1.9525465
1.3139596 -2.6203406 -1.44773 -1.2090868 2.4289935 1.8304639 -1.3740836 2.8339741
0.28957704 -2.4458723 0.10329579 -1.7112939 0.424118 -1.6623605 -0.28370783 -0.28470895
0.15546654 -0.48258907 0.45125556 -0.5469972 -1.116315 0.1168214 2.581362 0.5438126
-0.56696516 0.10981816 0.49252546 -3.0679483 -1.5778424 0.50188684 1.0803553 -2.516751
-0.1033589 0.06247825 -0.9136022 1.6153312 0.6602737 1.5382977 -0.44933772 1.5711508
-0.61700505 -0.50310796 -0.6953207 -2.092191 -1.1471407 0.6085858 -0.8120124 -0.5535704
2.3975315 -3.4950664 -0.2521455 -1.5953335 -1.5293885 -1.213071 1.1296002 -1.3554561
2.7464664 1.0209197 0.9502111 -1.6558642 0.035316404 0.5542155 0.20938373 -0.30857447
-0.70670974 0.2565466 0.3299606 -0.08936736 -0.065181606 -0.099959664 0.14956202 0.30965623
-0.22855829 -0.674406 0.017183965 -0.37458393 0.54865843 -0.013121276 0.19166787 -0.54084736
-0.42057306 0.43282387 0.035890248 -0.07962824 0.19296335 -0.16155708 -0.42160672 0.1336268
-0.8927992 -0.38300475 0.3617728 0.5363888 0.36989132 -0.1543515 0.004456372 -0.78528607
0.016960915 0.045631774 0.19614206 0.31363603 -0.36510485 0.013154133 0.3120203 -0.10282502
0.6768156 -0.28414074 -0.1457536 0.17397483 0.27908146 0.85197604 -0.86362094 0.21993755
0.21493085 -0.22733419 -0.23666069 0.06670592 0.57856685 0.5260788 -0.14966562 -0.2150505
-0.2852509 -0.356801 -0.5590039 -0.46931377 0.34352708 -0.094041966 -0.5129645 0.51327163
-0.17434002 0.111195825 -0.29136193 1.2611295 0.18481638 0.14707267 0.42277384 0.11825376
-0.5534053 0.02848719 0.45622835 -0.6889013 0.36857232 0.05852527 -0.03245611 -0.45318344
0.087928094 0.5202136 0.8817282 -0.059167225 -0.27565598 0.56051356 0.14761682 0.11143461
0.38436478 0.15644206 -0.48718742 0.48432097 -0.049826235 -0.006617443 -1.4156556 0.16266571
-2.178466 -3.7316298 -0.82788193 0.2572517 -1.336384 -0.22771165 -2.9391615 0.97290695
-0.82537115 -4.6726785 1.135356 -1.0394286 -2.2857966 -1.4815944 -4.0476503 0.78459084
-1.4633468 1.9598552 -2.60591 -1.6604121 4.11177 -1.4887725 -0.104406536 -0.88888794
1.4961752 2.6205723 -0.038506422 -0.23949596 -1.7991142 2.054835 1.0521754 3.1944056
3.4631693 0.20147271 3.8775465 1.6421998 0.24110325 -4.382807 0.6030776 -1.6234446
0.3419976 -4.0052433 -2.3130229 -2.3511858 0.9049296 1.7732748 -0.43868113 2.6433926
-2.8108182 0.8258631 -3.177563 -1.4890094 -0.4172086 0.8556196 0.47044584 1.3016024
00000000: bf27 bd3e bca1 9e3e ea0c bebf 72d0 b93f
00000010: d446 e83f 845e b0bf 823c 50bf c1a0 b63f
00000020: c604 0f3d 97e1 a8be 75f1 1cbf 8d40 1ac0
00000030: ae32 0640 47ed 583f b675 01c0 c536 1fc0
00000040: 71c7 93bf 1ca5 c93f 214e a3bf 9faf 833f
00000050: a1be 573f 406b 0bc0 d663 80bf 2186 bcbf
00000060: 3031 023f 0253 503f db91 fc3e 5341 b8bf
00000070: 0784 643f 1bd5 9c3f 84a9 32be 8bbc 493f
00000080: 0f2c 853c c362 e9bf 879d be3f 691a 1740
00000090: 22ec ed3f e5c0 cfbf 50e9 273e 0bed f9bf
000000a0: d42f a83f a9b3 27c0 374f b9bf 5bc3 9abf
000000b0: a174 1b40 a44c ea3f f9e1 afbf d55f 3540
000000c0: 7143 943e 2c89 1cc0 be8c d33d ae0b dbbf
000000d0: ff25 d93e 3bc8 d4bf 2742 91be 5fc5 91be
000000e0: 9f32 1f3e ea15 f7be f80a e73e 0208 0cbf
000000f0: 69e3 8ebf 0f40 ef3d 0935 2540 4d37 0b3f
00000100: a124 11bf 58e8 e03d 4c2c fc3e 4459 44c0
00000110: bdf6 c9bf a87b 003f 1549 8a3f 7312 21c0
00000120: d5ad d3bd 32e9 7f3d d5e1 69bf 2cc3 ce3f
00000130: b207 293f f0e6 c43f 980f e6be 781b c93f
00000140: 0bf4 1dbf afcb 00bf 8a00 32bf 75e6 05c0
00000150: 82d5 92bf 47cc 1b3f 0be0 4fbf cab6 0dbf
00000160: 2871 1940 2baf 5fc0 3719 81be e333 ccbf
00000170: 01c3 c3bf e945 9bbf bd96 903f 967f adbf
00000180: 1bc6 2f40 7fad 823f 0941 733f 5cf3 d3bf
00000190: efa7 103d 11e1 0d3f b068 563e 79fd 9dbe
000001a0: eeea 34bf 135a 833e 99f0 a83e 3c06 b7bd
000001b0: ef7d 85bd a7b7 ccbd c926 193e 438b 9e3e
000001c0: 2f0b 6abe dfa5 2cbf 63c5 8c3c 77c9 bfbe
000001d0: e174 0c3f 9ffa 56bc 9544 443e f974 0abf
000001e0: 5a55 d7be 179b dd3e a701 133d 2114 a3bd
000001f0: 2f98 453e 386f 25be d6dc d7be 77d5 083e
00000200: 7d8e 64bf 3319 c4be 493a b93e c750 093f
00000210: 6562 bd3e 520e 1ebe c206 923b 8208 49bf
00000220: 9ef1 8a3c 62e8 3a3d 77d9 483e e794 a03e
00000230: 06ef babe 6f84 573c 20c1 9f3e ed95 d2bd
00000240: ca43 2d3f e57a 91be 6f40 15be 7526 323e
00000250: c4e3 8e3e 1a1b 5a3f 4316 5dbf 4f37 613e
00000260: d516 5c3e 4bca 68be 2e57 72be 1d9d 883d
00000270: f51c 143f 1aad 063f f241 19be 3336 5cbe
00000280: 680c 92be 9fae b6be e11a 0fbf e549 f0be
00000290: c8e2 af3e 1399 c0bd a451 03bf c565 033f
000002a0: 3186 32be a3ba e33d 642d 95be b16c a13f
000002b0: 8140 3d3e 389a 163e d075 d83e 072f f23d
000002c0: f8ab 0dbf f85d e93c c396 e93e d65b 30bf
000002d0: 83b5 bc3e 32b8 6f3d b3f0 04bd a907 e8be
000002e0: a513 b43d b82c 053f f0b8 613f 5559 72bd
000002f0: c822 8dbe d17d 0f3f dd28 173e d437 e43d
00000300: 76cb c43e 5932 203e a170 f9be ebf8 f73e
00000310: 9816 4cbd 23d7 d8bb 3434 b5bf d791 263e
00000320: fd6b 0bc0 06d3 6ec0 12f0 53bf 7fb6 833e
00000330: a20e abbf 3e2d 69be 391b 3cc0 6e10 793f
00000340: 864b 53bf 9586 95c0 5853 913f ff0b 85bf
00000350: 7e4a 12c0 e3a4 bdbf 5a86 81c0 f2da 483f
00000360: f34e bbbf 89dc fa3f 3bc7 26c0 6288 d4bf
00000370: 9f93 8340 1990 bebf 18d3 d5bd 298e 63bf
00000380: ab82 bf3f 75b7 2740 e9b8 1dbd 6e3e 75be
00000390: 6049 e6bf 6b82 0340 afad 863f 2471 4c40
000003a0: 91a4 5d40 dd4e 4e3e b929 7840 9a33 d23f
000003b0: c5e3 763e f43f 8cc0 4b63 1a3f 08cd cfbf
000003c0: 4f1a af3e f42a 80c0 9108 14c0 d479 16c0
000003d0: 77a9 673f abfa e23f d09a e0be 582d 2940
000003e0: 72e4 33c0 c46b 533f 315d 4bc0 dc97 bebf
000003f0: 5e9c d5be e309 5b3f 47de f03e e89a a63f

weight f4 [100, 100]
0.09847549 0.028095568 0.045538045 0.056052234 -0.0136290435 -0.034730423 0.070413865 0.057486236
-0.025014866 -0.09491875 0.017835988 0.059165325 -0.017432868 -0.04423089 0.06610968 -0.068229966
-0.033880115 0.045249224 0.025117243 0.0048154714 -0.04926274 -0.06346853 0.062914304 0.05484277
0.07710272 0.003016126 -0.09165656 0.08795619 -0.034102228 0.03825102 0.05261692 0.056513477
0.00067116023 0.023413455 -0.012358797 0.087357394 0.07272651 0.087438226 0.08437902 0.002690208
0.069610775 0.013557709 -0.016426254 -0.07809051 -0.010561371 -0.0017313361 0.061790895 -0.035794046
-0.07936015 -0.009259343 -0.023613347 -0.027219092 0.05796182 -0.0050003887 0.07711315 0.098069705
0.003975499 -0.009071839 -0.04076569 -0.003455937 0.053501762 -0.022953296 0.03391677 -0.0171829
-0.07656312 -0.047508646 -0.090892546 -0.092959404 0.03107903 0.034045137 0.025508737 0.05542469
-0.06125095 -0.003968966 0.007145846 -0.07997844 0.05116117 -0.008108342 -0.0710656 -0.031313576
-0.04696704 -0.0920397 -0.054799616 -0.048204746 0.08377715 0.009571862 -0.008072472 -0.09888679
0.011150408 -0.05081482 0.090417676 0.029780423 0.09186708 -0.09387248 -0.07021638 -0.046504356
0.035448123 -0.06987015 -0.015220726 0.09423312 0.0416674 -0.04451969 0.0060793757 0.014982021
-0.0039589405 0.09484615 0.017062558 0.039572727 -0.053613033 -0.024303555 -0.009477413 0.067794815
-0.012822593 -0.07832457 -0.033635747 0.052888837 -0.0598088 -0.057848167 0.09119071 -0.046398737
-0.095016204 0.07434042 0.083388686 -0.07691401 0.05824658 0.047192693 -0.03947283 0.07378606
-0.068211906 -0.091664985 -0.05263832 -0.08881535 0.011298335 -0.038227092 0.031897176 -0.08437931
-0.09624137 -0.014006639 0.09730343 -0.06981851 -0.0686868 -0.084470145 0.09425689 -0.008840538
0.009500563 -0.034662284 -0.048393417 0.027948713 0.033936955 0.07672625 0.082483225 0.035270404
0.06413491 0.009822214 -0.097874165 -0.06526233 -0.058747936 0.02596506 -0.05876367 -0.053200413
-0.059534848 0.0295321 0.07227751 0.0052359225 0.05260196 0.062033426 0.084471084 -0.0051084757
0.07748425 0.036005616 -0.09885712 0.040003803 -0.030780101 -0.056173123 -0.03366213 0.008196604
0.054577854 -0.06616583 -0.054336596 -0.07450967 -0.062188018 0.055057775 -0.060013678 -0.010546279
0.081438795 0.026716614 -0.04086063 -0.013158155 0.05417644 -0.09744847 -0.04234115 0.068336666
0.065424375 -0.009135055 -0.058072757 -0.005932176 0.09943117 0.043154456 -0.023730172 -0.099636935
0.052428555 -0.082588114 0.085579135 -0.01135453 0.09204244 0.019985676 0.03916948 0.023363197
-0.0055949925 -0.08786442 -0.03504206 0.07872651 0.022676338 -0.06974899 0.027675463 -0.031813264
0.0035865188 -0.09650804 0.03426672 0.06321316 -0.095249884 0.029687537 0.08854624 0.042127967
0.013378632 0.0113021135 0.043827392 -0.046471607 -0.03202034 -0.035924125 0.05210134 -0.05828632
-0.018246973 0.061274745 -0.012815416 0.017407252 -0.09776918 -0.07524585 -0.06904198 0.04014156
-0.031024445 -0.020723606 -0.09537443 0.032356072 0.08303516 0.0029854656 0.0038947107 0.034991827
0.02304927 -0.09161844 0.04131633 -0.028402364 -0.06083825 -0.09955235 -0.05725434 -0.063742064
00000000: 85ad c93d ad28 e63c 1a86 3a3d 0797 653d
00000010: 5a4c 5fbc 7d41 0ebd 2535 903d b076 6b3d
00000020: faeb ccbc c364 c2bd c71c 923c 5757 723d
00000030: 60cf 8ebc 732b 35bd 8364 873d 27bc 8bbd
00000040: e0c5 0abd 4057 393d adc2 cd3c 1acb 9d3b
00000050: bac7 49bd cafb 81bd 37d9 803d d0a2 603d
00000060: 08e8 9d3d 33aa 453b 6fb6 bbbd 6022 b43d
00000070: c7ae 0bbd 1aad 1c3d d784 573d ad7a 673d
00000080: cdf0 2f3a 93cd bf3c 8d7c 4abc 6fe8 b23d
00000090: a3f1 943d d012 b33d e8ce ac3d 334e 303b
000000a0: 1890 8e3d 2721 5e3c 5a90 86bc ebed 9fbd
000000b0: 9a09 2dbc 00ee e2ba 7318 7d3d c79c 12bd
000000c0: 9387 a2bd 80b4 17bc c770 c1bc 93fa debc
000000d0: 6069 6d3d 4dda a3bb 80ed 9d3d c5d8 c83d
000000e0: e744 823b 0da2 14bc edf9 26bd 007d 62bb
000000f0: aa24 5b3d 8d08 bcbc 50ec 0a3d 27c3 8cbc
00000100: 20cd 9cbd 6d98 42bd df25 babd 8061 bebd
00000110: 7399 fe3c ea72 0b3d b3f7 d03c 0005 633d
00000120: 47e2 7abd 1a0e 82bb b327 ea3b bdcb a3bd
00000130: 608e 513d dad8 04bc d78a 91bd aa42 00bd
00000140: 8360 40bd 4f7f bcbd 9075 60bd 5772 45bd
00000150: 5b93 ab3d 4dd3 1c3c 6742 04bc 2885 cabd
00000160: 33b0 363c 3323 50bd e72c b93d 13f6 f33c
00000170: cf24 bc3d 3740 c0bd 9bcd 8fbd 5a7b 3ebd
00000180: 0d32 113d 1518 8fbd 5a60 79bc 4bfd c03d
00000190: 70ab 2a3d 475a 36bd 8035 c73b 2777 753c
000001a0: 00ba 81bb b33e c23d c7c6 8b3c 0317 223d
000001b0: 5799 5bbd 4018 c7bc 2747 1bbc 02d8 8a3d
000001c0: da15 52bc a268 a0bd a3c5 09bd f7a1 583d
000001d0: 13fa 74bd 33f2 6cbd 32c2 ba3d 9a0c 3ebd
000001e0: db97 c2bd ca3f 983d b0c7 aa3d 1885 9dbd
000001f0: f793 6e3d 204d 413d 43ae 21bd 251d 973d
00000200: afb2 8bbd daba bbbd 479b 57bd d2e4 b5bd
00000210: a71c 393c 0394 1cbd 9da6 023d 0fcf acbd
00000220: 321a c5bd 1a7c 65bc 0547 c73d 02fd 8ebd
00000230: aaab 8cbd affe acbd c209 c13d e7d7 10bc
00000240: 40a8 1b3c 0afa 0dbd 2d38 46bd b3f4 e43c
00000250: 7a01 0b3d a722 9d3d f7ec a83d b377 103d
00000260: 2a59 833d 5aed 203c 4072 c8bd 42a8 85bd
00000270: ada1 70bd adb4 d43c 2db2 70bd ade8 59bd
00000280: d0da 73bd 4ded f13c 3b06 943d 1a92 ab3b
00000290: 2775 573d c316 7e3d 2dff ac3d 0065 a7bb
000002a0: 10b0 9e3d a07a 133d 9a75 cabd 07db 233d
000002b0: 8d26 fcbc ca15 66bd 4de1 09bd 0d4b 063c
000002c0: 078d 5f3d f381 87bd 0d90 5ebd 8798 98bd
000002d0: ddb8 7ebd 4384 613d e7d0 75bd 4dca 2cbc
000002e0: 62c9 a63d cddc da3c 7a5d 27bd 4d95 57bc
000002f0: 1de8 5d3d 1093 c7bd ea6d 2dbd 18f4 8b3d
00000300: 37fd 853d 33ab 15bc b3dd 6dbd b362 c2bb
00000310: 92a2 cb3d bac2 303d c765 c2bc 730e ccbd
00000320: 53bf 563d f523 a9bd 1d44 af3d 5a08 3abc
00000330: bf80 bc3d 00b9 a33c 2d70 203d 2d64 bf3c
00000340: 3356 b7bb 43f2 b3bd 4388 0fbd 5d3b a13d
00000350: bac3 b93c 8fd8 8ebd a7b7 e23c a04e 02bd
00000360: cd0b 6b3b 02a6 c5bd 435b 0c3d e775 813d
00000370: 5f12 c3bd 4733 f33c bb57 b53d 608e 2c3d
00000380: 0d32 5b3c 802c 393c 5a84 333d 0359 3ebd
00000390: c327 03bd 2d25 13bd 3768 553d a3bd 6ebd
000003a0: ad7a 95bc 3afb 7a3d c0f7 51bc a799 8e3c
000003b0: 353b c8bd 7f1a 9abd e265 8dbd 7a6b 243d
000003c0: fa26 febc 8dc4 a9bc ab53 c3bd cd87 043d
000003d0: 570e aa3d cda7 433b 673e 7f3b 9753 0f3d
000003e0: d3d1 bc3c 73a2 bbbd 503b 293d 13ac e8bc
000003f0: 8731 79bd 1ae2 cbbd 8783 6abd 338b 82bd

weight f4 [100, 200]
0.056863923 -0.048882388 0.06147768 0.03474841 -0.06930543 0.06467148 -0.07036698 0.03233798
-0.014633715 0.05237739 -0.03213404 0.05772135 0.053161696 -0.04930958 0.05347987 -0.014498213
-0.051419217 0.020452635 -0.052558903 -0.008672346 -0.038002845 -0.06220158 0.0658455 -0.030233318
-0.06289859 0.033986192 0.027091904 0.019889925 -0.030951906 -0.064285345 0.06505886 0.04404249
-0.022240093 0.02742252 -0.024505628 0.008468061 0.065659955 -0.00931657 0.015958855 -0.026157085
0.019850316 -0.02347304 0.05077575 0.0104031665 -0.030020434 -0.06618836 0.043743752 0.015492365
0.0020557211 0.0029326116 0.06561933 -0.062037937 0.008819371 -0.025544591 -0.017602986 -0.035875257
0.041054346 0.00803056 -0.015502278 0.017289076 -0.05391649 -0.00080937124 -0.026010271 -0.017384615
-0.03549226 0.057879917 -0.05486586 -0.036555286 0.032488342 0.054484483 0.026497599 0.013245415
0.034230027 0.030878527 -0.05611537 0.012136725 0.010127838 0.0021619648 0.06279211 -0.060807083
-0.038415875 0.06317812 0.07042142 -0.05782215 0.05327275 -0.016875431 -0.025840791 0.017424367
-0.0017599345 -0.048516233 0.05141029 -0.060120467 -0.02671157 0.050228864 -0.0407409 0.059800413
-0.063012965 0.05626799 0.0017402855 -0.02717252 -0.021020338 0.05411905 0.031467132 0.015834766
-0.013365719 0.031492926 -0.0049871355 -0.03405507 -0.02849976 0.049257252 0.007593126 0.0065904944
0.069786906 -0.05778468 0.055206195 -0.06409008 -0.008530902 -0.023521112 0.038859345 -0.060178876
-0.03476209 0.06754469 0.043419003 -0.064564355 0.04871034 0.007825971 -0.007896035 0.021630304
0.032920837 0.06398152 -0.006608584 0.023216685 -0.06636809 0.052482143 -0.022221632 0.0010630784
0.0060927067 -0.05307853 0.009364213 -0.031945493 0.038667493 0.030787954 -0.03519075 -0.03589268
0.0211941 -0.040962838 0.0063164304 0.058113467 -0.023981566 -0.064859495 0.06403277 -0.055295605
0.011969798 0.06639208 0.029392784 -0.017241139 0.0079750605 -0.004671995 0.043031655 0.026323523
0.037220135 0.018709097 0.04812334 -0.034778494 -0.031641927 0.021522263 -0.026765939 0.055315737
0.04423943 0.018171877 0.012060785 -0.025599154 -0.029976476 -0.020036781 -0.051470432 -0.00856392
-0.03590368 -0.067577735 -0.034706347 0.00888271 0.03391032 0.013965932 0.018596295 -0.0033043637
-0.030297609 0.039849855 -0.062055286 -0.051294006 0.05960228 -0.035244748 -0.029149344 -0.04406058
-0.020848555 0.006150507 0.016788153 0.022459712 0.019788234 0.014471702 0.040633112 -0.02084628
0.05687677 -0.019653253 0.06642167 -0.04610367 -0.00912358 0.0082331095 0.0014462102 -0.068250455
-0.026912045 -0.045600463 -0.047270693 0.064650305 -0.03646119 -0.036953885 0.023120733 0.009274094
0.05953358 0.03786453 0.045953058 -0.054324094 -0.06724003 0.04081303 0.015941195 -0.0061451625
0.032672036 -0.0023599034 0.048320152 0.039737288 0.044090807 0.0049780235 0.05467926 -0.035719987
-0.014947237 -0.06534453 0.018803338 0.022994976 -0.029923033 -0.036137383 0.04130688 0.050011512
0.06866465 -0.04219526 0.003129547 -0.02769386 -0.039929498 -0.01929353 0.04397525 0.024704156
0.054500144 -0.0017787657 -0.006268307 -0.02803369 -0.030867452 -0.06281293 0.06458846 -0.0038427138
00000000: 25ea 683d e638 48bd 05d0 7b3d 5954 0e3d
00000010: 01f0 8dbd 7b72 843d 901c 90bd d474 043d
00000020: 40c2 6fbc ad89 563d fc9e 03bd 396d 6c3d
00000030: 14c0 593d d8f8 49bd b50d 5b3d ea89 6dbc
00000040: f59c 52bd 498c a73c 0148 57bd 7516 0ebc
00000050: dfa8 1bbd 15c7 7ebd 01da 863d ddab f7bc
00000060: fad0 80bd 1b35 0b3d d7ef dd3c 32f0 a23c
00000070: da8e fdbc 09a8 83bd 943d 853d e665 343d
00000080: db30 b6bc 31a5 e03c 07c0 c8bc 9fbd 0a3c
00000090: ba78 863d 87a4 18bc 25bc 823c 6247 d6bc
000000a0: 219d a23c 884a c0bc 3cfa 4f3d 0b72 2a3c
000000b0: 6aed f5bc c38d 87bd a62c 333d b0d3 7d3c
000000c0: 47b9 063b 0f31 403b 6d63 863d 7e1b 7ebd
000000d0: 207f 103c e442 d1bc 2334 90bc eff1 12bd
000000e0: 9a28 283d 9c92 033c 44fd 7dbc d2a1 8d3c
000000f0: 8ad7 5cbd fc2b 54ba 7e13 d5bc 2e6a 8ebc
00000100: 5560 11bd 7e13 6d3d 06bb 60bd ffba 15bd
00000110: 7f12 053d 1f2b 5f3d 7e11 d93c 4c03 593c
00000120: c934 0c3d f7f4 fc3c 3bd9 65bd 1dd9 463c
00000130: 3bef 253c c0af 0d3b 2699 803d d910 79bd
00000140: f759 1dbd 8863 813d 1b39 903d ebd6 6cbd
00000150: 8734 5a3d 583e 8abc 11b0 d3bc 8cbd 8e3c
00000160: 9aad e6ba f5b8 46bd 9993 523d e140 76bd
00000170: 39d2 dabc c8bc 4d3d eedf 26bd 47f1 743d
00000180: f10c 81bd 4479 663d 4b1a e43a e898 debc
00000190: d832 acbc f0ab 5d3d aee3 003d e9b7 813c
000001a0: e3fb 5abc bafe 003d 206b a3bb 547d 0bbd
000001b0: 5478 e9bc f9c1 493d c2cf f83b 13f5 d73b
000001c0: 70ec 8e3d a1af 6cbd e41f 623d a941 83bd
000001d0: 32c5 0bbc 59af c0bc fa2a 1f3d 207e 76bd
000001e0: b162 0ebd df54 8a3d 20d8 313d 513a 84bd
000001f0: 7e84 473d 8038 003c 5f5e 01bc 0932 b13c
00000200: 00d8 063d be08 833d d28c d8bb eb30 be3c
00000210: feeb 87bd 84f7 563d 240a b6bc fe56 8b3a
00000220: 54a5 c73b df68 59bd 5b6c 193c 47d9 02bd
00000230: ce61 1e3d 0537 fc3c 2d24 10bd 3404 13bd
00000240: 409f ad3c a6c8 27bd 0ffa ce3b 6308 6e3d
00000250: fd74 c4bc 0ed5 84bd 9d23 833d a57d 62bd
00000260: f91c 443c 92f8 873d 23c9 f03c 4a3d 8dbc
00000270: d4a9 023c 8917 99bb f641 303d 6ea4 d73c
00000280: 2474 183d d243 993c fb1c 453d e573 0ebd
00000290: f79a 01bd 754f b03c 3e44 dbbc c192 623d
000002a0: 6834 353d 30dd 943c 999a 453c 51b5 d1bc
000002b0: 3a91 f5bc 2d24 a4bc a9d2 52bd af4f 0cbc
000002c0: bd0f 13bd 3266 8abd 3e28 0ebd c988 113c
000002d0: 8ce5 0a3d 5dd1 643c 4257 983c 068e 58bb
000002e0: b132 f8bc 9a39 233d af2d 7ebd aa19 52bd
000002f0: 8521 743d cc5c 10bd 9bca eebc de78 34bd
00000300: 97ca aabc 318a c93b 4f87 893c 6efd b73c
00000310: ef1a a23c b81a 6d3c e86e 263d d1c5 aabc
00000320: 9ef7 683d dcff a0bc 1608 883d 34d7 3cbd
00000330: 117b 15bc 2ae4 063c c38e bd3a e5c6 8bbd
00000340: a676 dcbc 8dc7 3abd ea9e 41bd 6167 843d
00000350: 5458 15bd f55c 17bd b167 bd3c 5ff2 173c
00000360: 7cd9 733d d617 1b3d 4639 3c3d f182 5ebd
00000370: 24b5 89bd 902b 273d 1c97 823c 5c5d c9bb
00000380: 1dd3 053d 9ca8 1abb 5aeb 453d 91c3 223d
00000390: 9098 343d b01e a33b 5cf7 5f3d 1f4f 12bd
000003a0: 42e5 74bc 5ad3 85bd 7509 9a3c f65f bc3c
000003b0: 2621 f5bc cb04 14bd 6731 293d dfd8 4c3d
000003c0: 0da0 8c3d f0d4 2cbd 1619 4d3b 3cde e2bc
000003d0: 1d8d 23bd 770d 9ebc 641f 343d 5f60 ca3c
000003e0: 8b3b 5f3d 7925 e9ba 5f66 cdbb e9a6 e5bc
000003f0: bddd fcbc 11a4 80bd f446 843d 0ad6 7bbb
