model/verify/Amazon_Musical_Instruments/recommendation_hit_normal.model (torch, 245223 bytes, 6 tensors)

weight f4 [2, 100]
000000 69 e1 3f 3e e3 72 95 be 13 56 a9 3e df 6f 87 be
       0.18738331 -0.29189214 0.33073482 -0.26452538
000010 83 6f 9d 3e cd b1 d7 3e 60 13 d9 3e 6b e8 b4 3e
       0.3074914 0.4212784 0.42397594 0.3533357
000020 c7 a0 a9 3e c1 f3 54 3e 94 34 56 3e a5 df 57 be
       0.33130476 0.2079611 0.20918494 -0.21081407
000030 be 94 0e be b7 f7 44 3e 9c 99 09 bf 52 41 4e bf
       -0.13923928 0.1923512 -0.53750014 -0.8056842
000040 0e ed 87 be 6a d4 aa 3e 4d f2 b0 ba 8b a3 82 3e
       -0.26548046 0.33365184 -0.0013499946 0.25515398
000050 1c 66 bb be 21 95 74 3e b0 8c d9 3e 7c a5 68 3e
       -0.3660134 0.23885013 0.4249015 0.22719377
000060 fd 2d 8c be 87 07 ff bc e1 ca d4 bc f8 32 28 3e
       -0.27378836 -0.031131519 -0.025975646 0.16425693
000070 da fd bf bd d6 bc 8f be 8d c2 15 bd 6d b9 83 3e
       -0.0937459 -0.28073758 -0.03656249 0.25727406
000080 cd eb b4 bd 86 53 0c 3e 0c 8b a9 3e c1 32 d6 be
       -0.08834038 0.13703737 0.33113897 -0.41835597
000090 16 fc 89 3e 83 d6 55 be a1 6d 8d be 3a 1b 07 3f
       0.2695014 -0.20882611 -0.27622703 0.5277592
0000a0 26 83 56 be 73 ef a2 be cc 40 50 be ce 7f 91 be
       -0.20948467 -0.3182331 -0.20337218 -0.2841782
0000b0 36 2b 7b 3e f6 d9 74 3e d2 50 bd be 82 9c 62 3e
       0.24528202 0.2391127 -0.36975724 0.22130015
0000c0 a7 c5 a7 be 11 e7 84 be 79 7f 65 3e 6d 16 d2 be
       -0.32767984 -0.2595754 0.22411908 -0.41032735
0000d0 cc c0 30 bf ff b2 64 be c4 65 8b 3e 1a ba 4c 3e
       -0.69044185 -0.22333907 0.2722608 0.19992867
0000e0 16 73 ba 3e 60 4d 8e 3e 61 bc c4 be f8 fd 9a 3d
       0.3641593 0.27793407 -0.38424972 0.07567972
0000f0 c4 1e e5 3e e2 3a 04 be 2c 05 a9 3e 6c 0f 4f be
       0.44750035 -0.12913087 0.33011758 -0.20220727
000100 a2 fa cc be 89 ff 18 bc 6c be 86 bc c6 03 a4 3d
       -0.40034968 -0.009338268 -0.016448222 0.08008532
000110 97 4a cc 3d 17 12 db 37 95 94 32 3e 71 f5 d4 3e
       0.099751644 2.6115258e-05 0.17439492 0.41593507
000120 87 10 b2 bd c3 e6 03 be 1b c1 cd 3e c9 09 23 be
       -0.086945586 -0.12880997 0.4018639 -0.15921701
000130 9f b7 da bc 6f 6f ab be 61 a9 8e bd 06 2d 86 be
       -0.026698885 -0.33483455 -0.069659 -0.26206225
000140 70 d0 8c 3e f6 d2 f6 bd ce 11 72 be 40 fd c2 3e
       0.27502775 -0.12051956 -0.23639604 0.3808384
000150 fb 4e df bd c1 45 f8 3e 02 06 11 3e ad b8 24 3e
       -0.10903736 0.48490718 0.14162448 0.16086073
000160 86 70 44 be b8 35 5d 3e 3b d5 81 be 61 9a e8 bb
       -0.1918355 0.21602523 -0.25357994 -0.0070984815
000170 9a d0 68 3e 02 1e 8e be 36 46 55 be 81 92 0b 3f
       0.22735825 -0.2775727 -0.20827565 0.5452042
000180 ab 82 82 3b ba 40 c0 3e b9 a0 d1 3e 91 ff a6 be
       0.003982862 0.37549382 0.40942934 -0.32616857
000190 b1 0b 89 be 1a b3 2a 3e 66 86 6a be 12 e4 1c 3e
       -0.26766732 0.16669884 -0.22902831 0.15321377
0001a0 aa 2e 95 be 58 11 a7 be 5e d8 b7 be 76 1f b6 be
       -0.29137164 -0.3263042 -0.35907263 -0.35570878
0001b0 52 16 96 be 7f b4 71 be d4 6a 1e be bc da c4 3e
       -0.29313904 -0.2360401 -0.15470439 0.3844813
0001c0 a5 d5 2c 3d 36 a3 89 be ef 70 00 3f b6 bd 36 3f
       0.042195935 -0.26882333 0.50172323 0.71383226
0001d0 9d e2 9d 3e b1 85 28 be 97 db cf bd 42 04 79 be
       0.30836955 -0.16457249 -0.10149305 -0.2431803
0001e0 c1 16 a2 3e 15 a2 56 be bd 03 b5 be 7a 0e 72 be
       0.31657985 -0.20960267 -0.35354415 -0.23638335
0001f0 dc 1a bc 3e 9c 0c f2 bc 63 38 8e 3d f9 5a 67 bd
       0.36739242 -0.029547028 0.06944349 -0.056483243
000200 b3 ed 5a 3e c4 be fc 3d 12 70 56 bc ee 62 9d be
       0.21379738 0.12341073 -0.013088243 -0.3073954
000210 a7 6f 35 bd 9d 5d 5b be d2 e4 d9 be e4 0f a1 3e
       -0.044295933 -0.2142243 -0.4255739 0.31457436
000220 b9 19 66 be 34 5b 23 3e dc 2d be 3e b6 b6 e3 be
       -0.2247075 0.1595276 0.37144363 -0.44475335
000230 3a 94 8a 3e 4d 8b 4b 3e 1e e5 07 3e 09 3b c2 3e
       0.27066213 0.19877358 0.13270995 0.37935665
000240 84 91 3d be 24 8e a4 be 91 2d 82 3e 08 15 0c bd
       -0.18512541 -0.32139695 0.2542539 -0.034199744
000250 8a 32 e6 3e 9e 19 20 3e 56 2d 37 be 5a e1 db 3e
       0.44960433 0.15634772 -0.17888388 0.42945367
000260 25 6e 2e 3f a4 4e ef 3d c9 02 92 be 3d ff d4 bd
       0.6813682 0.116849214 -0.2851775 -0.10400245
000270 0d b2 4e be d6 a9 8f be 15 f8 92 3e 92 cd a9 3c
       -0.20185108 -0.28059262 0.28704897 0.020727906
000280 be f6 d9 be 4d 83 02 3e 25 87 68 be d1 cc 8c 3e
       -0.42571062 0.127454 -0.22707804 0.27500013
000290 30 63 e6 3e 52 3b 4d bc 8f a2 81 bc eb 90 41 be
       0.4499755 -0.01252635 -0.015824584 -0.18902938
0002a0 82 e9 88 bd 87 de 13 3c 9d 95 06 be 84 cf b6 be
       -0.06685163 0.009025223 -0.1314301 -0.35705197
0002b0 cf 85 8f 3c 04 5f 5f 3e 50 0b 7c be 36 e2 79 3e
       0.01751986 0.2181359 -0.2461369 0.24402699
0002c0 a6 1e 24 bd 47 1b 5d 3e 93 8f 17 3d f3 d8 b5 3e
       -0.04006829 0.21592437 0.037002157 0.35517082
0002d0 90 9f 9f be b2 d0 f9 3d 22 51 bc 3e 58 ae 72 be
       -0.31176424 0.121980086 0.3678065 -0.2369932
0002e0 e5 a9 60 3e af 44 f8 be 90 be 20 be 68 5b 96 be
       0.2193981 -0.484899 -0.15697694 -0.29366612
0002f0 88 44 94 3e 4c ff 84 be e0 61 74 3e fc 30 09 bd
       0.28958535 -0.25976026 0.23865461 -0.03349398
000300 b0 d5 a4 be 8b 4f a3 3e 9d d0 b3 3d 73 64 ec be
       -0.3219428 0.31896624 0.08780024 -0.46170387
000310 34 5b 31 bd 27 1c eb be b5 82 f2 be 06 c8 89 3e
       -0.04329987 -0.45919916 -0.47365347 0.26910418

bias f4 [2]
000000 92 87 e5 bd ed 8f bc 3d
       -0.112074986 0.09207139

weight f4 [100, 100]
000000 e4 e8 1c c0 1d 62 b1 3e da 3e a9 3d a9 8c e1 3d
       -2.4517145 0.34645167 0.08263941 0.11013157
000010 4e 84 2d 3e 07 89 0d 3f 25 ee 36 be 4d 23 25 be
       0.16945001 0.5528721 -0.17864282 -0.16126747
000020 1c 7e c3 3d 5a b9 98 3e c1 13 84 be 9c 2d 1d 3e
       0.09545538 0.29828912 -0.2579632 0.1534943
000030 34 5b 89 3d fa 6c 3c bd aa 33 ff 3d 69 e6 2c bd
       0.06706849 -0.046002366 0.12461026 -0.042211924
000040 26 7d e7 3e 79 c3 99 3e aa a4 86 3e 38 fc 28 3e
       0.45212668 0.30031946 0.26297504 0.16502464
000050 2a 73 28 be 06 9a 1f bd 19 75 cc be f6 4f aa be
       -0.16450182 -0.038965248 -0.39933088 -0.3326413
000060 d0 4a d6 bd dc fd 47 be cb dc 88 be 5c 80 61 3d
       -0.10463488 -0.19530433 -0.26730952 0.055054054
000070 c5 3a 30 bd df 55 38 3e 35 a9 f2 3d b0 dc 34 3d
       -0.043024797 0.18001507 0.1184868 0.044155777
000080 0a d0 d2 3d b7 9c 21 3e d6 f3 f3 be 7c ae 64 be
       0.102935866 0.15782438 -0.4764697 -0.22332186
000090 d1 22 80 be 26 e7 87 3e 0b c5 9f bd 5c ce 2e bd
       -0.25026563 0.2654354 -0.07801255 -0.04267727
0000a0 ba 4c 11 3e bc 86 d1 3e 53 e9 b7 3d d1 69 92 be
       0.14189425 0.40923107 0.0898005 -0.28596357
0000b0 01 31 dc 3d ea 65 53 be bc 60 1d 3e 0c 52 61 3e
       0.10751534 -0.20644346 0.15368932 0.22003955
0000c0 cc c5 97 bd 18 db 9e 3e 5f 17 24 be a8 21 23 bc
       -0.07410774 0.3102653 -0.1602454 -0.009956755
0000d0 12 4e 07 be 22 0b 68 be df ab bb be f3 76 a5 3d
       -0.13213375 -0.22660497 -0.36654565 0.080793284
0000e0 b9 75 3d be 91 0a 0d 3e c1 9d 3c be cd f4 16 be
       -0.18501939 0.13773562 -0.18419553 -0.14741822
0000f0 0a 26 81 3e 04 9b 1d 3e 60 21 73 be 5c 4e ac 3d
       0.25224334 0.15391165 -0.237432 0.08413383
000100 b0 f1 85 bd 26 9d 28 be 41 13 e8 3d 42 b0 cb bb
       -0.06540239 -0.16466197 0.113317974 -0.00621608
000110 c0 c4 c3 3c 4c 0b 3f bc 8b 08 0d be e1 42 9f 3d
       0.023897529 -0.011660408 -0.1377279 0.07776428
000120 90 94 0a be b3 08 12 3e d7 04 8b bd 9c 9b 05 bf
       -0.13533235 0.14261131 -0.067880325 -0.52190566
000130 a5 b5 61 bd 22 e8 c0 3b ba 07 d4 be 90 99 29 be
       -0.05510487 0.0058870474 -0.41412145 -0.16562486
000140 bb 48 00 bd 2d e0 0f be 43 c9 a2 3e 89 3e 58 bd
       -0.03131936 -0.1405036 0.31794176 -0.052794013
000150 4b 0d 35 be e4 01 b6 3e 63 07 29 be 0e 67 0e 3e
       -0.17680852 0.35548317 -0.16506724 0.139065
000160 c9 74 2f be 24 a5 8b 3e fa 26 95 3d 6f 1f 39 be
       -0.17134394 0.2727443 0.07282825 -0.18078397
000170 7b 00 10 bf 08 b9 22 3d d4 25 bc 3e 90 ee b5 be
       -0.56250733 0.03972724 0.3674761 -0.3553357
000180 a9 66 1d bc 18 5e 5c 3c 53 5a 8d bd bf b4 af 3d
       -0.009606996 0.013450168 -0.069019936 0.085793965
000190 c5 ae 8b bd c4 e7 12 c0 f0 93 7f 3d 0e 0c 95 3e
       -0.06820444 -2.2953959 0.062396944 0.2911076
0001a0 fc c1 75 3e 97 57 72 3e 8f 70 13 3e cf f0 a0 be
       0.2399978 0.23666225 0.14398406 -0.31433722
0001b0 f2 84 be 3e 1f 5e 8e 3c dd 79 51 3d b3 24 21 3c
       0.37210804 0.017378865 0.05114161 0.00983541
0001c0 e9 76 0a 3e a5 ac a5 be 67 61 68 3e 5a 7b 9f be
       0.13521923 -0.3235828 0.22693406 -0.31148797
0001d0 59 50 65 3e 93 3f 77 be ce a9 2c 3e 2e 51 bb be
       0.22393931 -0.24145345 0.1686165 -0.36585373
0001e0 99 4d 17 bf 14 e8 bd 3e 56 94 9e be 4d dd 63 bc
       -0.5910278 0.37091124 -0.30972546 -0.013907743
0001f0 b6 da b7 bc 7d 34 7c 3e 3c fa 0c 3e d8 8b a6 3d
       -0.022443157 0.24629398 0.13767332 0.08132142
000200 d3 65 c3 bc 7f 9b e2 be a1 5b b9 3d dd 10 5e 3d
       -0.023852265 -0.4425926 0.0905068 0.0542153
000210 e1 44 68 3d f9 ec da 3b 79 e5 3e 3d f8 98 97 3c
       0.056706313 0.0066810814 0.04660556 0.018505558
000220 a0 51 39 3e 57 be 69 3e c4 50 d2 bd 08 18 8e 3d
       0.18097544 0.22826515 -0.10269311 0.06938177
000230 9b 37 dd bd 4f f8 c7 3c d9 6d d0 3e 75 81 70 3d
       -0.108016215 0.024410395 0.40708807 0.05871721
000240 81 58 96 3e 24 81 95 3e c8 77 ad 3e 78 40 5b 3e
       0.29364398 0.2920009 0.33880448 0.21411312
000250 18 28 39 be 73 ce 91 3d 8f c2 d5 3e 7f 16 d4 3e
       -0.18081701 0.07119455 0.4175 0.41423413
000260 ca b3 40 3e fd 41 50 3e ee 07 84 3d 94 17 7c 3e
       0.18818584 0.20337673 0.06446825 0.2461837
000270 42 99 7b bd 97 b9 ef 3d 61 d4 28 3e 99 37 b7 3e
       -0.061425455 0.1170532 0.16487266 0.35784605
000280 ae 96 44 3e 94 36 a8 bd ad f9 1d 3d 11 22 a2 bc
       0.19198105 -0.08213535 0.038568188 -0.019791635
000290 01 e3 3d bd e4 0b d4 3e 2a a4 ae be 37 93 99 3e
       -0.046359066 0.41415322 -0.34109622 0.2999513
0002a0 97 92 94 3d 1e d8 19 3e a4 66 33 bd ff b0 99 3e
       0.07254522 0.15023848 -0.043799058 0.3001785
0002b0 86 40 93 3d 31 97 10 be ed 1a b1 3e 5e ad 5b be
       0.07190041 -0.14120175 0.34590855 -0.21452853
0002c0 1a c9 9d 3d cf 55 94 3e 1d 63 a6 bc e4 1f 37 be
       0.07704373 0.28971717 -0.020310933 -0.17883259
0002d0 61 7b 45 3e b4 e8 e3 bd f5 21 14 be 31 15 95 be
       0.19285347 -0.11128369 -0.14466079 -0.2911773
0002e0 4e 71 b0 3e 14 85 5f 3e 48 59 8e bd 67 23 fc 3d
       0.34461445 0.21828109 -0.06950623 0.1231144
0002f0 92 17 20 3c a1 c4 0a 3d c2 05 22 bd 07 ac cb 3e
       0.009771245 0.033878926 -0.039556272 0.39779684
000300 5a 60 68 bd 64 a6 a9 3b 2a 9b cf bc 29 87 e5 bc
       -0.056732513 0.005177306 -0.025342543 -0.028018551
000310 91 31 88 3e b7 d2 a4 be 5b 8f c0 3e 5d 33 a7 3d
       0.26600316 -0.32192013 0.37609372 0.08164094
000320 c7 b8 e0 bd 72 c5 11 bc 30 5f 00 c0 01 00 8d 3e
       -0.109727435 -0.008897172 -2.0058098 0.27539065
000330 c7 04 7d bd c4 13 c6 bc b4 55 8e bd b8 94 35 bc
       -0.061772134 -0.024179347 -0.0694994 -0.011082821
000340 73 6a 50 3e 28 a9 2e 3e 47 bf cc be 4b 36 28 3e
       0.20353107 0.17056715 -0.39989683 0.16426961
000350 c4 ee f2 be 86 f0 bb 3e 25 02 3a 3e a7 9a c1 3e
       -0.4744779 0.36706942 0.1816488 0.37813303
000360 7c 45 53 3e 4c d7 56 bc 6b c8 c5 3c 5d 84 9b 3e
       0.20631975 -0.013112854 0.024143418 0.30374423
000370 b2 2b 94 3b df f2 c7 3e 6f 31 b8 bc f2 b2 9a 3c
       0.0045218104 0.39052483 -0.02248451 0.018884156
000380 74 3a 1f 3e 3f 98 10 bf 24 76 9b 3e bc 1b a5 3e
       0.15549642 -0.5648231 0.30363572 0.32247722
000390 40 dc c7 3d 9c bb e1 bb 5f 02 30 3e 5b 18 d1 3d
       0.09758806 -0.00688882 0.17188405 0.102097236
0003a0 17 85 e8 be d8 50 d9 3d e1 e6 0b be 8e f4 a7 bb
       -0.4541404 0.10611123 -0.13662292 -0.0051255887
0003b0 9a fc 3a 3d 74 35 96 3e 16 a9 9b bc 17 ee 01 be
       0.045651056 0.29337656 -0.019001525 -0.1268848
0003c0 9d 5f d8 bd 22 dd f4 3d 83 27 c7 bc 70 a9 19 3f
       -0.10565112 0.1195624 -0.024310833 0.60024166
0003d0 7d b7 1a 3d 0d 5c 48 bd 50 c5 eb 3d f7 b0 f8 3e
       0.037772644 -0.04891591 0.11512244 0.48572513
0003e0 16 f7 8c be a1 72 e0 3e 48 bc e6 3d 0a 6a 79 3e
       -0.27532262 0.43837455 0.112663805 0.24356857
0003f0 e2 c7 1a 3f 88 bc 3d 3e 87 8e 85 3e 19 d8 76 be
       0.60461247 0.1852895 0.26085302 -0.24105872

weight f4 [100, 200]
000000 86 b9 1d be 1a 87 56 3e 6a 4e 23 3f 3e f3 74 be
       -0.15402803 0.20949975 0.63791525 -0.23920915
000010 31 de 92 be ce e1 f6 3e 51 d1 b5 3c 10 e5 d3 be
       -0.28685144 0.4821915 0.022194536 -0.41385698
000020 5f 11 a9 3e 0d e0 5b bf a1 ae e3 bd 83 1f 14 3f
       0.33021066 -0.8588875 -0.11117292 0.57860583
000030 de 0f 98 be a9 cb 9e 3e 2b 4f 75 3e 43 34 b5 3e
       -0.29699606 0.31014755 0.23955981 0.35391435
000040 91 33 1e 3d aa f6 82 3e 96 21 8d bd 54 6e 15 be
       0.038623396 0.25578815 -0.06891172 -0.14592868
000050 a4 fa a5 3e 09 37 f8 3e 63 ce a6 be 8f 90 97 3d
       0.32417786 0.48479488 -0.32579336 0.07400619
000060 64 8b 73 be e3 eb b0 bf 4f 90 f8 3e 4f 3c b7 bd
       -0.23783642 -1.3821987 0.485476 -0.0894705
000070 a4 a4 8c bd cc b1 23 be 64 64 30 be 57 0c 39 be
       -0.0686734 -0.15985793 -0.17225796 -0.18071114
000080 ae 03 1b 3f 3a 70 5e 3e 07 31 d8 bd bd 7a aa be
       0.6055249 0.21722499 -0.10556226 -0.33296767
000090 a8 0c 6d 3e 44 9d ed 3e 20 a3 5a bd a0 2b f4 bd
       0.23149359 0.46409047 -0.053378224 -0.11922383
0000a0 81 2e 86 be 04 53 e9 3e b2 b8 91 3e c6 5c 44 3e
       -0.26207355 0.45571148 0.28461224 0.19176015
0000b0 46 f3 99 bc 65 8f 0b 3f b1 2f 05 3f 09 7f 6e be
       -0.01879276 0.5451568 0.52025896 -0.23290648
0000c0 dd d9 a7 bc 82 58 cf bd 12 af 07 bf 18 76 fa 3d
       -0.020489627 -0.101243034 -0.5300151 0.12229556
0000d0 fc 7f 0a 3f 6d 69 05 3f 67 a4 23 be ff b0 b5 be
       0.5410154 0.5211399 -0.15980683 -0.354866
0000e0 48 e1 d2 3e 70 18 bf be 2f cc 4b bf 46 19 90 3f
       0.411875 -0.37323332 -0.79608434 1.1257713
0000f0 1f fe 6a be c5 2f f4 3d f4 dd 80 3f b1 8c 99 3d
       -0.22948502 0.11923174 1.0067735 0.07497538
000100 11 4e a0 be 8d 52 1e bf ac 23 78 3e 4b 28 94 3f
       -0.3130956 -0.6184471 0.24232358 1.1574796
000110 d3 3b 4f be 41 3b 46 bc 58 4b 3b be c2 6f db bd
       -0.20237665 -0.012099088 -0.1829046 -0.107146755
000120 e5 f9 45 bf 90 05 ea bd 97 15 51 3d 76 a3 54 be
       -0.77334434 -0.11426842 0.05104598 -0.2076548
000130 43 21 e7 be 94 08 2a 3f 56 48 3b bd 24 f8 ff 3c
       -0.45142564 0.6641934 -0.04572328 0.031246252
000140 45 f9 e3 be 61 85 7d be 69 e1 06 3d 04 af 49 3f
       -0.44526115 -0.24757911 0.03292981 0.7878268
000150 70 6a 79 be 37 5a 6e 3d c0 7f 1a bf 08 4d 32 3e
       -0.24357009 0.058191504 -0.6035118 0.17412198
000160 4a ec 66 be 9d 99 36 3f aa 23 a0 be 6a eb 2a 3e
       -0.22551075 0.71328145 -0.3127721 0.16691366
000170 b9 a9 2b 3f b1 93 8d bf fb 5a a0 be 9b 9d 8b 3e
       0.6705585 -1.1060697 -0.31319413 0.2726868
000180 3c 8f e4 bd 53 46 b5 be 39 2f a1 3e 43 7f c0 be
       -0.11160132 -0.35405216 0.3148134 -0.37597093
000190 4a e9 29 3e fe 66 e8 bd 62 18 2e be 39 24 f5 be
       0.16592899 -0.11347769 -0.17001489 -0.47879198
0001a0 b2 38 b2 be e9 8f ab be 2a a0 e6 bd 55 18 04 3e
       -0.3480888 -0.33508232 -0.112610176 0.12899907
0001b0 45 c3 1d 3e 05 2a c0 3e f7 83 8c 3e 68 64 33 3c
       0.1540652 0.37532058 0.2744443 0.010949232
0001c0 95 8a 22 3f 56 f8 26 be 55 92 42 3e be 71 87 3e
       0.6349271 -0.1630567 0.19001134 0.26453966
0001d0 ce 31 50 3f 56 9a 4b bd 91 d2 3a be 4a e9 ec 3e
       0.81325996 -0.049707733 -0.18244387 0.46271735
0001e0 ef 91 16 be bf 0b d8 3d 40 da f1 3d cd 36 de be
       -0.14704107 0.105491154 0.11809206 -0.43401185
0001f0 3b 4a 71 bd b0 c5 8b 3e 56 63 1e 3f e0 ff f8 3e
       -0.058908682 0.2729926 0.61870325 0.48632717
000200 98 85 00 be 55 08 04 3e 51 27 23 3e 5d b5 07 3e
       -0.12550962 0.12893803 0.15932967 0.13252778
000210 4c 2a b2 3d 8e 35 f4 bc d4 fa 37 3c c6 4d 02 bd
       0.08699474 -0.029810693 0.011229236 -0.03181245
000220 2c 08 fb 3d b3 34 a9 3d a5 35 f2 3d d3 84 1a be
       0.12257418 0.08262005 0.11826638 -0.15089731
000230 45 d4 8d 3d fe a4 8d be 4e dc 9e 3e 30 5c f5 3e
       0.06925253 -0.27664942 0.31027454 0.47921896
000240 ef 0a bd 3c 5f 27 13 3e fc 9a 87 be e6 0b 87 3d
       0.023076503 0.14370488 -0.2648543 0.06594066
000250 7c b9 be 3e 60 60 84 3e 2d 86 b3 3d d6 61 b1 3e
       0.37250888 0.25854778 0.087658264 0.34644955
000260 e0 45 bc bd ba cb ac 3e 4b 1e ad bd bc 3e c7 be
       -0.09193015 0.3374918 -0.084530436 -0.3891505
000270 3c f8 3d bf 2b f0 c4 3d 5b 1c f8 3e af c0 65 be
       -0.742069 0.09616121 0.48459134 -0.22436784
000280 22 11 77 3d eb 8a f0 3e 8a ee d9 3d 5c 4e af be
       0.060319073 0.46980986 0.10641201 -0.3423947
000290 80 65 3b 3e 50 58 fa 3e 2f 20 06 3f cb 48 25 be
       0.18300438 0.48895502 0.5239286 -0.1614105
0002a0 76 14 6d 3e 7f 37 92 3d 64 c8 17 be 91 b0 de be
       0.23152336 0.07139491 -0.14822537 -0.43494084
0002b0 f8 c8 e8 bd 68 d3 37 be 04 58 ef bb 52 01 dc 3e
       -0.11366457 -0.17951739 -0.0073041935 0.42969757
0002c0 0a f1 95 be e7 f8 f9 be c7 5e 67 be 0a 5f c8 3d
       -0.2928546 -0.4882271 -0.22594748 0.09783752
0002d0 01 68 b9 be 0d df 1e 3e a1 ab 13 3e 3f d6 a3 3d
       -0.3621216 0.15514775 0.1442094 0.079998486
0002e0 9f dd cc 3d de 0c 75 bd b8 83 9f be c0 7f 31 be
       0.10003208 -0.059826724 -0.3115518 -0.17333889
0002f0 46 05 bd 3d 4c 32 bb 3e 51 10 cf be 24 70 30 3f
       0.092295215 0.3656181 -0.40442136 0.68921113
000300 a3 3b 14 3d 02 86 59 3e b4 a6 38 3d 3e 5f e0 be
       0.036189687 0.21242526 0.045080855 -0.43822664
000310 af 9c 99 be 39 f6 09 bf 43 96 d2 be 32 67 2e 3e
       -0.30002353 -0.5389133 -0.41130266 0.17031553
000320 4f e3 1b bf e8 70 d7 be 51 53 e8 be 0e 40 75 3e
       -0.6089372 -0.42078328 -0.45376065 0.23950216
000330 6d d3 52 bf b8 26 da 3e 06 72 04 bf d9 3a 94 3e
       -0.8235386 0.42607665 -0.51736486 0.28951147
000340 39 a1 63 be 86 a9 94 be 13 79 d6 3e 5c ab 25 bf
       -0.2222947 -0.29035586 0.41889247 -0.647146
000350 d6 a4 a0 be 18 ad 3b bf 09 9f 81 3d b6 9a a4 3e
       -0.3137576 -0.73310995 0.06329162 0.32149285
000360 95 0e 48 be a7 8f 01 bf cf 25 4f 3d 64 bc c6 bd
       -0.19536813 -0.5060982 0.050573166 -0.097039014
000370 bf f7 36 3e a9 43 18 bf a2 7e 1d bf 44 90 14 bc
       0.17867945 -0.5947824 -0.6152135 -0.009067599
000380 5f 79 e8 3e 6d 49 56 3f 26 e4 7f be 2e a5 c6 3c
       0.454051 0.8370579 -0.24989375 0.024248686
000390 b0 42 ad bd 45 72 89 3e 8a 1f 42 bf 93 04 7e 3f
       -0.08459985 0.26844993 -0.75829375 0.9922573
0003a0 0c 56 bb 3e e7 bf 12 3f 8c 10 c2 3e e0 be 6f bd
       0.36589086 0.5732407 0.3790325 -0.058531642
0003b0 40 4d c2 3e ed 65 21 bf ea d4 ef 3d 5b 0d 84 3f
       0.37949562 -0.6304615 0.11710532 1.0316576
0003c0 bb 77 a7 3d a4 c3 ff bd a7 4d 13 3e ba 88 e1 bd
       0.08177134 -0.12488487 0.14385091 -0.11012407
0003d0 5d 57 19 bc 90 a8 0d be 9c aa d7 3d ff 87 93 3d
       -0.009359208 -0.13833833 0.10530588 0.072036736
0003e0 12 8b ab 3e 34 91 8d be 73 a7 f2 3d fd fd db bd
       0.3350454 -0.27649844 0.11848345 -0.10741804
0003f0 71 02 2b 3f fb f1 75 3e 75 e9 5d be ee 5f dd bd
       0.668006 0.2401809 -0.21671088 -0.10809313

weight f4 [100, 100]
000000 8d 87 bd bd b8 c2 be 3d da 94 57 3c d7 f4 9c bd
       -0.0925437 0.093144834 0.013158048 -0.07663887
000010 b5 27 cb 3d 30 6f ac 3d dd c5 70 bd 43 84 bb bd
       0.09919683 0.08419645 -0.058782447 -0.09156086
000020 a0 b1 d8 bc 9d a1 34 bd 00 17 a4 3d 4a 0f 6a bd
       -0.026451886 -0.04409944 0.080121994 -0.057143487
000030 ed 9b 80 3c 2a dc 9f 3d aa 7d 9c 3d ea 87 76 3d
       0.015699351 0.07805665 0.07641156 0.06018821
000040 bd 0f 85 bd 2d e2 91 bc ef 89 be bd 5a 31 18 3d
       -0.064971425 -0.017808044 -0.093036525 0.03715644
000050 40 09 57 3c dd c9 2c 3d 57 dd 29 3d 3d 43 b2 3d
       0.013124764 0.0421847 0.04147085 0.08704231
000060 67 5a aa 3d 80 3e f9 bb a7 e1 1f 3d f3 4e 77 bc
       0.08318024 -0.0076063275 0.03903356 -0.015094507
000070 aa 0f 07 bd 7a 74 28 bd 27 5d 8c bc 4d 51 84 3d
       -0.032973923 -0.041126706 -0.017134262 0.064608194
000080 b0 29 b6 3d c2 42 8d bd cd 93 c0 3d 3f 4c 8f bd
       0.0889467 -0.06897499 0.09403191 -0.06996965
000090 eb e8 c6 3d 6d 43 a2 3d 4d d1 d4 3c d0 10 30 3d
       0.09712394 0.07923017 0.025978709 0.042984784
0000a0 8b ed bb bd 4d ea 51 bd 07 b9 ac bd 53 67 38 bd
       -0.09176167 -0.051248837 -0.08433729 -0.045020413
0000b0 7a 9e 19 3d bb 34 a9 bd 1a 56 1d bd 1f 0d 93 3d
       0.03750465 -0.08262011 -0.03841219 0.07180237
0000c0 a0 e7 b3 3c 33 77 6b bd 30 af 7a 3d 1d 61 51 bd
       0.021961033 -0.057486724 0.061202228 -0.051118005
0000d0 b3 cd bf bc 67 d2 93 bc b7 33 2a bd 9a 59 88 3c
       -0.023413515 -0.018044664 -0.041553225 0.016644288
0000e0 cd 61 bd 3b 13 3c 69 bd 80 fa b1 bb 63 fb 7d 3d
       0.005779481 -0.056942057 -0.0054314733 0.06200732
0000f0 e7 c4 a8 3b a2 99 98 bd 1d 6e a1 bd 8d 17 53 3d
       0.0051504257 -0.07451178 -0.078823306 0.05153613
000100 e3 39 93 bd fa 22 31 3d eb 10 92 bd 0a 0f 13 3d
       -0.071887754 0.043246247 -0.07132133 0.035903014
000110 20 27 cb bd 4d dc 5a 3d 0a 7d 18 bd ad fb a7 3d
       -0.09919572 0.05343275 -0.03722862 0.082023
000120 5a 46 ab 3d 35 4b c2 bd 20 ae fa 3c 73 b7 60 3d
       0.08363028 -0.09487001 0.030600607 0.05486245
000130 cd b5 22 bd ba f2 84 bc 4f 54 9c bd 03 43 bf 3d
       -0.03972416 -0.016229022 -0.07633268 0.09338953
000140 8d 9e 0b 3c 15 44 84 bd 18 19 c6 bd 53 81 7c bd
       0.008521688 -0.06458298 -0.09672755 -0.06164677
000150 98 35 bf 3d 8f 75 b6 3d 40 68 f3 bc 20 3c ae 3c
       0.09336394 0.08909141 -0.029712796 0.021268904
000160 f0 84 47 bd 6a eb 8c 3d f7 06 cc bd 6a 4a 41 bd
       -0.048710763 0.06880839 -0.09962266 -0.047190107
000170 da 7b 8d bd 00 a6 2d bd 48 16 a6 3d f3 30 5a 3d
       -0.069083884 -0.042394638 0.081097186 0.053269338
000180 e7 c6 62 3c e7 a1 db bb fa e2 72 bd fd e1 79 bd
       0.013841367 -0.00670265 -0.059298493 -0.061006535
000190 08 d8 9c bd f3 1d 92 bd 00 e7 ac 3c 77 17 76 bd
       -0.07658392 -0.071346186 0.021106243 -0.06008097
0001a0 b7 dd a2 3d 13 ad ad bc 80 47 33 3d c3 06 7a bd
       0.07952445 -0.021200692 0.04376936 -0.061041605
0001b0 d3 4e bb bc aa 90 2f bd 9a 87 ef ba c0 3b be bd
       -0.022864735 -0.04286257 -0.0018274665 -0.0928874
0001c0 02 f0 ae bd 2d 69 90 bc e7 6c f2 bb 4d 89 f5 bc
       -0.085418716 -0.017628277 -0.007398236 -0.029972697
0001d0 27 de ae 3c ed 24 8b bc aa 13 a9 bd d2 66 ac 3d
       0.021346165 -0.016985381 -0.08255704 0.08418049
0001e0 3a c4 2c bd cd 9e 83 3a eb 9f 9b 3d a0 e5 5c bd
       -0.042179324 0.0010041833 0.07598861 -0.053929925
0001f0 6f b0 85 3d 4f ac 85 3d 80 a0 71 3c 3a c9 cd bc
       0.06527793 0.06527006 0.014747739 -0.025120366
000200 1f 45 ac bd 47 1f bc 3d c0 8c 16 bc 0f 27 81 bd
       -0.08411621 0.09185653 -0.009188831 -0.06306278
000210 a7 fa 93 3c 7b 5c ba 3d f7 44 a8 bd 07 ea a4 3c
       0.018063856 0.090996705 -0.08216279 0.020131124
000220 ad eb 34 3d 7a 19 93 bd 7a 6e c7 3d 47 47 92 bc
       0.04417007 -0.07182594 0.097378686 -0.017856253
000230 03 ae 48 bd f8 bf 95 bd 8d 0f 18 bd 5d c0 b8 bd
       -0.048994076 -0.07312006 -0.037124205 -0.090210654
000240 1d b6 a1 bd 0d eb b9 bd 77 e8 a6 3d 53 0b 63 bd
       -0.078960635 -0.090780355 0.08149808 -0.05543072
000250 ba 6e b4 3d c7 ba 4f 3d a7 6a 49 bc 4a f0 52 3d
       0.08810182 0.050715234 -0.012293494 0.05149869
000260 93 13 6c bd 47 08 d7 bc 1d 31 89 3d 8a 95 86 bd
       -0.057635855 -0.026249064 0.06698821 -0.06571491
000270 fa 47 88 bd 6d cf 34 bd 6a 30 5e 3d 20 ba 4a 3d
       -0.066543534 -0.04414313 0.05424539 0.04949391
000280 67 a0 5f bd 13 12 e6 3c 07 46 2a 3d fd 5a 29 3d
       -0.05459633 0.02808479 0.04157069 0.04134654
000290 b3 c4 aa bc 4d 2e 81 3d 8a 40 6d 3d b0 50 15 3d
       -0.020845747 0.06307659 0.057922877 0.036453903
0002a0 02 d6 9c 3d b7 29 ad bd 1a a3 a1 3d bb 7b b6 bd
       0.07658006 -0.08455222 0.07892437 -0.089103185
0002b0 02 df 9d 3d 43 35 1a 3d 67 57 17 3d a0 a9 98 3d
       0.07708551 0.03764845 0.036948588 0.074542284
0002c0 33 e3 fd ba 3d ca 58 bd 33 4f 6b bb 27 b7 3d bc
       -0.0019370079 -0.052927244 -0.003590536 -0.011579311
0002d0 ed df bb 3d b3 d2 2e bc 88 e8 b9 3d b3 e8 bb bd
       0.0917357 -0.010670352 0.09077555 -0.09175243
0002e0 d3 f2 58 3d 6a ec 8f 3d 40 4f 69 bd 67 bf 7c bd
       0.05296595 0.07027514 -0.056960344 -0.061705973
0002f0 d0 c2 2b bd f0 cf 56 3d 00 20 75 3c 50 ac 44 3d
       -0.041933835 0.0524444 0.014961243 0.048015893
000300 62 0e b8 bd b5 5f 9c bd cd da b9 ba 60 f2 6f 3d
       -0.08987118 -0.07635442 -0.0014179588 0.058580756
000310 c0 82 36 bc 60 eb 18 bd 0d 60 ac bd f5 e6 c8 3d
       -0.011139572 -0.037333846 -0.08416758 0.098096766
000320 0d 12 48 3c e3 db 2f bd 12 a0 c9 bd f3 c9 7c 3d
       0.012211335 -0.04293431 -0.09844984 0.06171603
000330 8a 6c bc 3d e3 f9 2a bd 5b 87 8f 3d 37 fc b1 bd
       0.0920039 -0.041742217 0.07008239 -0.08690684
000340 23 d0 2d 3d 13 08 fd bc cd 1c 8e 3b 6f 34 a1 3d
       0.042434823 -0.03088764 0.0043369294 0.07871329
000350 c8 34 b9 bd 27 b3 06 3d c7 0d e6 bc 1f f6 ca bd
       -0.0904327 0.032885697 -0.028082741 -0.09910225
000360 ea c4 a1 bd 33 c4 da bc 23 6f 54 bd 0f b4 9a 3d
       -0.078988865 -0.026704883 -0.0518638 0.07553875
000370 43 59 97 3d 8f 14 95 3d 90 26 0f bd e0 ba fe bc
       0.07390072 0.07279312 -0.034948885 -0.031094968
000380 33 20 b3 3c 20 01 30 bd b0 2b 0e 3d 05 1f b9 3d
       0.02186594 -0.042969823 0.034709632 0.0903912
000390 4d c6 cb bd 53 24 a3 3c 57 20 51 bd 5f 12 b8 3d
       -0.09949932 0.019914782 -0.051056232 0.08987879
0003a0 7d dc 0a bd ba 7e b7 bc bd 41 a9 bd 2d 66 c3 3c
       -0.03390168 -0.022399295 -0.08264492 0.023852432
0003b0 03 cf 3a 3d 2f 91 c0 3d 12 8f 96 3d 9a dc d1 3b
       0.045607578 0.094026916 0.07351507 0.0064044716
0003c0 9a 77 96 bc a0 76 b2 bc 17 15 0e 3d b0 48 9e bd
       -0.018367577 -0.02178508 0.03468808 -0.07728708
0003d0 07 b3 43 3d ba 2b 56 3d 5a 15 c2 bc f5 d9 91 bd
       0.047778156 0.052287795 -0.023691822 -0.0712165
0003e0 f8 4f 8d bd fd 53 b3 bd fa 4c 58 bd ef bc 86 3d
       -0.069000185 -0.08756254 -0.052807786 0.06579005
0003f0 c7 f2 89 bd 8d f0 63 3c f5 20 c6 bd c0 39 b4 bc
       -0.06735759 0.013912332 -0.09674255 -0.022000194

weight f4 [100, 200]
000000 d9 05 5c bd c4 42 5a 3d 9f ed d1 bc 20 29 c5 bc
       -0.053716514 0.05328633 -0.025626002 -0.024067461
000010 b3 c9 bd 3c 9b a5 b5 39 e3 3f 84 3d 33 0f c8 3c
       0.023167467 0.00034646396 0.06457498 0.02442131
000020 d2 6c 1e ba ee 6e 8a bd ea 89 b4 bb d5 4f 2f 3d
       -0.0006043437 -0.067594394 -0.0055096047 0.042800743
000030 27 b9 72 39 54 82 83 bc 6c b4 07 3d 13 93 bf bc
       0.00023147893 -0.016053356 0.033131048 -0.02338556
000040 ca 96 da bc ce 00 8a 3c c7 72 05 3d b2 ae 86 bd
       -0.02668323 0.016846087 0.032580163 -0.06576289
000050 c4 a2 fc 3c 9c a7 fa bc 28 76 7b bd a7 65 04 bd
       0.030839331 -0.0305975 -0.06139198 -0.032323506
000060 4d 44 15 3c 1e 93 5f 3d 3a 36 d9 bc 11 64 40 bd
       0.009110522 0.05458366 -0.026515115 -0.04697043
000070 e7 02 14 3d 96 12 0d bd 27 6d 87 3d 95 48 53 b8
       0.03613558 -0.034441553 0.06612616 -5.0373917e-05
000080 26 91 7d bc 19 6d 4e 3c 44 aa 34 bd 33 4e 3e bd
       -0.015476501 0.012599253 -0.04410769 -0.046461295
000090 2f fb 94 bc e3 ee db 3c 1c a3 85 bd b7 3a ad bc
       -0.01818618 0.026847309 -0.06525251 -0.021146161
0000a0 6d fb ff bc 60 31 8d bc 46 7c 84 bc e1 b9 03 bd
       -0.031247819 -0.017235458 -0.01617254 -0.03215969
0000b0 62 82 ca bb a4 76 10 bc 34 6f a0 bc 22 d8 26 bd
       -0.0061800936 -0.008817349 -0.019584276 -0.040733464
0000c0 68 c1 7f bd 3b 57 ed 3c a5 37 f6 bb ac ed 51 3b
       -0.062440306 0.028972259 -0.0075139576 0.0032032533
0000d0 d3 49 28 3d 93 f6 83 bd 9e 53 2a bd ae e5 e9 bc
       0.04108603 -0.06443515 -0.04158365 -0.028551903
0000e0 42 35 86 bc 2e e9 b6 b9 af 3e 66 bd 69 68 5c 3d
       -0.016382817 -0.00034887478 -0.056212123 0.05381051
0000f0 56 61 00 3c d7 09 8b 3d bb ae 73 bc ba cf 72 bd
       0.007835707 0.06788986 -0.014873202 -0.059280135
000100 a8 68 85 3c 29 4c 25 3d ea 39 42 bc 76 c5 e3 3c
       0.016285256 0.040355835 -0.011854628 0.027804118
000110 9b 4f c9 3c d9 b9 0b 3d aa e8 3a 3d eb 86 09 bd
       0.024574092 0.034112785 0.045632042 -0.033575933
000120 fd 1c c8 3c eb c9 2b bd 7b a5 19 bd f2 d9 4f bd
       0.024427885 -0.04194061 -0.03751133 -0.05074496
000130 ff 1d 90 bd 5a 4b 0b 3d 18 ae b1 bc 7c 35 85 3d
       -0.07036971 0.034007408 -0.02168946 0.06504342
000140 7e 93 05 bd 57 44 f2 3b 2f d4 89 3d 4a be e4 bc
       -0.032611363 0.0073934007 0.06729924 -0.027922768
000150 ef a6 7f 3d a0 27 ed b9 d3 6f 09 3d 04 88 5d 3d
       0.06241506 -0.00045233686 0.03355391 0.054084793
000160 a1 42 2c 3d e4 08 3b 3d 3b d0 27 3d ac 31 46 3c
       0.04205573 0.045662776 0.04097007 0.012096804
000170 38 dc 78 bd 47 f4 50 bd 0b 09 83 3c 6d f1 84 3d
       -0.060756892 -0.05101421 0.015995523 0.06491361
000180 38 ae 1d bd 8c 02 0d bc 2b 81 a5 bc 3b f1 8b bd
       -0.038496226 -0.008606564 -0.020203194 -0.068331204
000190 54 81 2f bd 09 a1 e2 bc 54 4a 69 bd 81 46 3c 3d
       -0.042847946 -0.027664678 -0.05695565 0.045965675
0001a0 fd 01 4f bd d6 b8 8f 3d 20 22 18 bd 39 5c 8d bd
       -0.050539006 0.070176765 -0.03714192 -0.06902356
0001b0 5a 80 6a 3d ab 2d ba bc 8a 31 d0 3c 77 6b 4d 3d
       0.05725131 -0.022726854 0.025414247 0.050151315
0001c0 fa 72 ee 3c 76 33 62 bd de 91 4c 3d bd 20 59 bd
       0.02910756 -0.05522486 0.049943797 -0.053009737
0001d0 7e 45 80 3d 4e b2 97 b9 52 69 30 3c 7c 7a 31 3d
       0.062632546 -0.00028933812 0.010767298 0.0433297
0001e0 c1 68 33 3d 95 40 fe 3c 28 26 3a bd 04 a5 6a 3d
       0.043801073 0.031036654 -0.045446545 0.057286277
0001f0 63 e6 09 3d bc fb 33 bd 85 76 e2 bc d9 99 64 bd
       0.03366698 -0.043941244 -0.027644405 -0.055810783
000200 27 df 7c bd b5 c1 09 bd 03 f6 8c 3c d2 13 c7 bc
       -0.061736252 -0.033632 0.017207151 -0.024301443
000210 89 aa 79 3d f7 5e 01 bd 97 08 87 bd e1 85 e8 bc
       0.06095365 -0.031584706 -0.06593435 -0.028384151
000220 c2 ab 0c 3d 19 f1 ab bc ae 84 ed bb 13 03 80 3d
       0.03434349 -0.020988988 -0.0072484827 0.06250586
000230 f6 0a 82 bd 0f 4c 8c bd 17 d1 f2 bc 1e 9d c4 bc
       -0.06349747 -0.068504445 -0.029640717 -0.0240007
000240 4f a9 38 bc d1 1e df 3c 1c e7 4e 3d b7 d7 74 3d
       -0.011270835 0.027236374 0.05051337 0.059776034
000250 92 0d 85 bd 27 ed 71 3c 82 9b 67 bd fa 42 b2 3b
       -0.06496729 0.014766014 -0.05654479 0.005440113
000260 e6 c2 2a bd e3 38 6e bc 5d 9e 4e bd 5e b2 b9 bb
       -0.041689776 -0.01453993 -0.050443996 -0.005667015
000270 54 ba 84 bd a5 96 82 bd b0 26 ef bc 98 c8 e6 bc
       -0.06480852 -0.063763894 -0.029193252 -0.028171822
000280 db 94 79 bd 4d 84 63 bd 33 45 85 3d 3c 80 2c 3a
       -0.060932975 -0.055546094 0.06507339 0.00065803877
000290 47 cb 41 bd 8f e6 3c 3d fb 7d 6f 3c 69 07 69 bd
       -0.047313 0.046118315 0.014617438 -0.056891833
0002a0 a8 53 7e bd dc 91 44 bd 68 77 de bc d5 ae 39 bc
       -0.0620915 -0.047990665 -0.027156547 -0.011333187
0002b0 45 fa 7a 3b 53 be af 3c b7 a4 d3 3c 57 90 14 bd
       0.0038296145 0.021453058 0.025835378 -0.036270466
0002c0 ae ec 8a bc 78 2e bf bc eb 83 63 3d 2e 98 21 3d
       -0.01695856 -0.023337588 0.05554573 0.03945177
0002d0 32 76 09 bd 79 1d aa 3c 78 63 f2 3c a1 1e 37 bd
       -0.033559985 0.020766007 0.029588446 -0.044706944
0002e0 c5 35 0a bd a8 2a ae 3c 82 4e 96 bc 51 a4 21 bb
       -0.033742685 0.021260574 -0.018347982 -0.002466459
0002f0 7c 47 91 3c 01 53 a6 bc 23 9b 11 3c bf da 57 bd
       0.017734282 -0.020303251 0.008887085 -0.052698847
000300 aa fd a2 3b f4 52 61 bd 5f bd 44 3d 31 85 17 bd
       0.004974087 -0.05501075 0.04803216 -0.036992256
000310 d1 31 42 bc 1e 05 8a 3d 1d 66 90 3c f7 d2 d8 bc
       -0.0118526975 0.06739257 0.017626816 -0.026467783
000320 b4 3f f6 3a 80 3b 69 3c b5 ba 5f bd ea 1a 0d 3d
       0.0018787296 0.014235377 -0.054621417 0.034449495
000330 a4 0f 7f 3d 94 45 58 3d 0d 45 d4 3c 87 ae 7c 3d
       0.062270775 0.05280073 0.025911832 0.06168988
000340 ee ba 69 bd cb eb c3 bb ad 48 a8 3c 79 a5 83 bc
       -0.057063036 -0.0059790364 0.020542467 -0.016070114
000350 63 c0 ac 3c d1 ff 40 3c 44 6a 48 3d d4 14 9f 39
       0.02108783 0.011779741 0.048929468 0.0003034236
000360 d7 97 11 3d 89 f2 03 3d 45 21 ac bc 75 3e 4d 3c
       0.035545196 0.03221372 -0.021011958 0.012527098
000370 d6 2a a8 bc 2d a8 4d 3d 29 f0 fa 3b 47 81 21 3c
       -0.020528238 0.050209213 0.007658024 0.009857482
000380 dc ee 31 3d 66 ba 72 bd 0b 73 5b bd 56 74 25 3d
       0.043440685 -0.059259795 -0.05357651 0.04039415
000390 88 96 b3 bc bb d1 ea bc 18 eb 8f 3d 4d 92 57 3d
       -0.021922365 -0.02866446 0.070272624 0.052629758
0003a0 26 89 1a bd 9b 46 17 bd 4c d3 86 bb 6b b0 82 3d
       -0.03772845 -0.03693257 -0.004114544 0.06381305
0003b0 cd 79 8e bd 9b 74 81 bd d3 4c 8a 3d 79 3b 1a 3d
       -0.069568254 -0.06321069 0.06752934 0.037654374
0003c0 bc f1 0b 3d a1 f7 02 bd 5b a1 8d bd 91 4a 34 bd
       0.034166083 -0.03197444 -0.06915542 -0.044016425
0003d0 4d 2a 5a bc 11 5d 40 bd 83 1a 8c 3d 82 fa 5c 3d
       -0.013315749 -0.046963755 0.06840994 0.05394984
0003e0 34 aa 1f 3d 59 7c aa bc f2 08 89 bd 3a 8d e3 3c
       0.038980678 -0.020811247 -0.06691159 0.027777303
0003f0 24 3e 82 3d 0b 9f 70 bb 93 90 0f bd ff 84 46 bd
       0.06359509 -0.003671589 -0.035049986 -0.04846668
