model/verify/Amazon_Musical_Instruments/recommendation_ndcg_normal.model (torch, 245231 bytes, 6 tensors)

weight f4 [2, 100]
00000000: 18f5 9d3e 2849 f7be be14 c33e 258a d6be
00000010: 8a41 653e 4d4b ca3e ca0d 193f 5b82 9d3e
00000020: 6569 073f 51ec ff3d 934a c03e 001d 85be
00000030: 4d11 a9be 330f 983e 0c72 12bf dd6a 9fbf
00000040: 03ca b9be 1a16 fd3e 81f9 903f 666f ff3e
00000050: 9cca d4be ddce ac3e edae 143f 7477 2e3e
00000060: 6b05 6fbe 06cd a13e 669c 2bbe d26c e03e
00000070: 7ec9 a8be bc50 a1be f1e4 8ebe 6693 293f
00000080: ef10 c6be 220a be3e 7e08 b63e 3590 d0be
00000090: 6102 ab3e 3e68 bdbe aee9 d8be 120e 613f
000000a0: e750 92be 24d4 20bf a163 9cbe a0b3 afbe
000000b0: f98d bb3e 7912 953e 4716 bebe 3e09 7b3e
000000c0: 042f 12bf aa92 ccbe 6f34 063f d5c2 efbe
000000d0: b8d1 69bf 30e5 78be d16d c33e 2981 33bc
000000e0: 0017 c83e 0cc5 683e 49a9 b1be 8caa a13e
000000f0: 6756 e33e 01ca d0be 9133 0f3f bb98 b9be
00000100: 40b0 d8be 57fa 783e 22c6 84be a6f0 a03e
00000110: 7c92 fe3e 694c 6b3e 25e6 873e 185b 8a3e
00000120: 6f1a bebe cefb 57be dc61 fb3e 814e 33be
00000130: 92a8 ab3e d3a2 31bf fbf2 6fbe dd79 87be
00000140: b16b a43e 8c32 c0be 1a34 41be e24e 943e
00000150: 7691 e8be 9fe3 143f 4236 8e3e e1ec 8e3e
00000160: 579d 0cbf ab1e 423e cd5f 83be 237e 5f3e
00000170: 82d6 383e 0ff3 c1be 8348 babe 1d34 e03e
00000180: 49e6 a13e 50e3 e93e 7288 153f bbc1 ccbe
00000190: dd0f c7be fb30 b73e 8702 8fbe cb8b 9d3e
000001a0: 90bf 54be e7aa 99be 0770 08bf 59b9 9ebe
000001b0: 0147 fbbe bab7 1cbe 8065 a4be 4c07 de3e
000001c0: a3c1 6e3e 0136 bfbe 8649 093f 0fa9 933f
000001d0: b8bf cf3e 0e84 a6be 0f24 9ebf 3d4e f9be
000001e0: c17a bb3e 25d5 9dbe 966b 02bf 06e1 37be
000001f0: b26f a73e 44dd c0be 4e1f 583e e83e a9be
00000200: 1940 e63e d487 213e b3f2 6a3e 6f67 36bf
00000210: 7528 823e cd8e e5be b463 e6be 906b 9b3e
00000220: ba13 94be eb29 a43e 1bd6 043f 0bce 4bbf
00000230: 78a3 b13e e53f 023f 426b 703e 9b6f e03e
00000240: 11c1 9cbe 3c33 bfbe b2f3 823e dfcb 6dbd
00000250: 1167 313f 15b8 973e ec3e f5be 378e f93e
00000260: 117f 673f b5d9 0b3e d10a cabe 33e3 da3d
00000270: a6f6 69be 4b7d 6bbe 74c9 7f3e 119e 60be
00000280: ec2d d8be 33ee cf3e 7ea5 e9be c2dd de3e
00000290: 9117 f23e ddae 87be 397f 683e 2fb9 d8be
000002a0: ddb9 edbe be07 62be becd 63be e869 58be
000002b0: d08e 9a3e e4b9 993e bfa7 abbe 3813 853e
000002c0: 46d8 cdbe 5131 133f 7182 4e3e 0426 b73e
000002d0: 463a b7be f7f1 c03e aae2 a33e 7452 15be
000002e0: e089 103f 15e3 14bf 3013 96be f9eb d2be
000002f0: 62a3 253f 45e7 6ebe f477 773e 1687 84be
00000300: 00da 8cbe 4524 d73e 3838 793e cf74 b5be
00000310: ee07 b6be 405f 0abf 2bf9 25bf 278a af3e
0.30851054 -0.48298 0.38101763 -0.4190227 0.22388282 0.39510575 0.59786665 0.30763516
0.52895194 0.12496246 0.37556896 -0.25998688 -0.33021012 0.29699096 -0.5720527 -1.2454487
-0.36286935 0.49430925 1.1326143 0.49889678 -0.4156083 0.33751574 0.58079416 0.17037755
-0.2334191 0.31601733 -0.1675888 0.43833023 -0.32966226 -0.31506908 -0.27909043 0.6624054
-0.38684794 0.37117106 0.35553354 -0.4073502 0.33400252 -0.36993593 -0.42365783 0.87912095
-0.2857735 -0.628237 -0.3054476 -0.3431673 0.36631754 0.29115656 -0.3712637 0.24515244
-0.5710299 -0.39955646 0.5242376 -0.46828333 -0.9133563 -0.24306178 0.3816972 -0.010956087
0.39080048 0.22731417 -0.34699467 0.3157543 0.44401857 -0.40779117 0.5593806 -0.36249337
-0.42321968 0.24314247 -0.25932413 0.314336 0.49721134 0.22978367 0.26542774 0.27022624
-0.37129542 -0.2109215 0.49098098 -0.17510416 0.33527046 -0.69389075 -0.23432533 -0.26460162
0.32113412 -0.37538564 -0.18867531 0.28966433 -0.45423478 0.5815982 0.2777577 0.279151
-0.5492758 0.18957011 -0.25659028 0.21825461 0.18050578 -0.37880751 -0.36383447 0.4378976
0.31621006 0.45681238 0.58411324 -0.39991555 -0.3887929 0.35779557 -0.27931616 0.30770716
-0.207762 -0.300132 -0.5329594 -0.31000784 -0.4907761 -0.15304461 -0.32108688 0.43364942
0.23316054 -0.3734589 0.5362781 1.1535968 0.40575957 -0.32522625 -1.2354754 -0.48692504
0.3661709 -0.3082668 -0.50945413 -0.17956933 0.32702404 -0.37668812 0.21105692 -0.33055806
0.44970778 0.1577447 0.22944145 -0.7125158 0.2542149 -0.4483551 -0.44997942 0.303555
-0.289213 0.3206323 0.518892 -0.7961127 0.3469503 0.50878745 0.23478416 0.43835148
-0.30616048 -0.37343776 0.2557655 -0.058055755 0.6929789 0.2963263 -0.47899568 0.48741314
0.9042826 0.13657267 -0.39461377 0.10687866 -0.22847995 -0.22997014 0.24979192 -0.21935298
-0.42222536 0.4061142 -0.45634073 0.43528563 0.47283605 -0.26500598 0.22704782 -0.42328784
-0.46430865 -0.22073266 -0.22246453 -0.2113415 0.30187082 0.30024636 -0.33526418 0.25991225
-0.40204066 0.57497126 0.20166947 0.3577119 -0.35786647 0.37684605 0.32008868 -0.14582235
0.5646038 -0.58159 -0.29311514 -0.41195658 0.6470243 -0.2333041 0.24166852 -0.25884312
-0.2751007 0.4201986 0.24337852 -0.3544068 -0.35552925 -0.5405159 -0.64833325 0.3428509

bias f4 [2]
00000000: ecd8 6cbe f25c 583e
-0.23129624 0.21129206

weight f4 [100, 100]
00000000: 8512 9cc0 5add 303f 8969 1b3f 0c56 5cbd
00000010: fbba 0f3e f470 773f e4e0 ddbe 6faf d6be
00000020: 6cdd 333e 1844 be3e b8bf e6be d2b9 b03e
00000030: 7e3f 7d3e cc2e 27be 91d1 4a3e 6259 8abe
00000040: 951d 703f fd97 323f 91b0 893e 615f a43e
00000050: 0175 efbe 8bd3 53be 572a 06bf c0ee 1bbf
00000060: 7cf1 efb8 5475 28bf 78de c5be e138 05be
00000070: 8e9d 9dbe dd6a 173f bbd8 583e e8eb 473d
00000080: 7c60 813e 69c1 423f b083 9ebf 2beb f4be
00000090: d3c1 d5be 6574 683e ad6f eebe 664f 903e
000000a0: 77aa 913e 139b 0f3f 4271 243e 06cf 1ebf
000000b0: e127 be3e 15a7 02bf fc2e e13e 1330 fa3e
000000c0: 578f 46bd 2228 a43e d95f 1b3e 0d21 3d3d
000000d0: 390c 75be 96f3 40bf 22ba 05bf 7ed9 a33e
000000e0: 941f b9be 15db 743e 5ec7 f5be f412 8fbe
000000f0: 5844 083e 0263 253f 5158 e9be 4170 903e
00000100: 0cab 203e 93c2 1dbf fdce 283e 5bf0 f5be
00000110: 4ace 983e 37b1 8dbe 7996 a8be 19be f23e
00000120: 593e 003d 2b4c bd3e 2bad c2bd ebd7 8ebf
00000130: 2183 93be 761f 5b3e a0b2 25bf ac8c a2be
00000140: 75d2 8a3d 1dbd d7be 3be4 333f 4951 103d
00000150: 6d54 6dbe 1183 1a3f fab2 abbe f273 70bb
00000160: 9b82 e7bd a420 d13e 4c65 443e 5b01 26be
00000170: 34e9 52bf 94aa 4dbd 530a 123f d20b dabe
00000180: 70a5 0bbe 4b8d 003f 9da4 eabd b516 b63e
00000190: 093f d6be b893 93c0 3e6b 8c3d 51d8 743e
000001a0: e7ce dc3e d6c8 a93e 5ab8 c83e 9089 48bf
000001b0: d5bc 923f 96de 753d db00 793d fde0 923c
000001c0: c852 eb3e 5cc0 3cbe 5d9a 033f 5a5d d4be
000001d0: b0ec 5d3e f44c 1abf f353 913d 1fe0 21bf
000001e0: e794 8dbf 6a9c 553f 13d5 17bf 1842 56bd
000001f0: 2108 2c3d e592 443f 84a5 a63d b52d 9ebc
00000200: 6650 bc3c 7b72 8ebf a3a1 8b3d b305 673e
00000210: 5a01 8dbe b842 573d 0bdd acbd 4703 b8bd
00000220: e277 1f3f 29c7 033f b4c0 dcbe d851 24bd
00000230: f38d 62bd 5a3b 323d c3ea 7b3f 7905 4f3e
00000240: 857f 173f 6aa0 af3e 2ba3 1b3f 0fc5 2d3f
00000250: c405 70be 7b50 1e3f 01d4 8d3f d0a9 4f3f
00000260: 4e01 e73e 1e40 0e3f aa9d 093e 6763 943e
00000270: 0468 d2bd 160f 58bd 294f de3e 086a 403f
00000280: f88a 1d3f 58f3 7ebe 2b6d d83d 765f a93e
00000290: ab19 54be 2e73 e23e b026 dbbe 0131 8e3e
000002a0: acf0 11be dbba 023d 8a86 12be c7d9 153f
000002b0: 6e0c 083e 2e48 b5be db28 123f 611c f4be
000002c0: c448 553e 2ef2 493f a83f 3abd 2dac 8ebe
000002d0: c66d 8b3e 0546 8bbe 1117 55bd 6683 fbbe
000002e0: 9f27 2f3f f8f5 a13d 6f63 593d 7cdb c23e
000002f0: 5b0a 883d c866 8c3c c07f 70bd 16db 4d3f
00000300: dce2 3dbe 91b9 52be 832a 83bb 017d 233d
00000310: 050a 783e 7c5f 46bf d2f6 833f a5b8 703e
00000320: e579 b7be 6a2c b0bd a908 83c0 87b9 0b3d
00000330: 4ef2 4bbe 8017 e33c d841 87be 250e 093d
00000340: a93e 6f3e ee3f 0b3f 5d02 91bf 65ab 32bd
00000350: dead 44bf f625 523f 5b1b eb3e bfa3 0b3f
00000360: ca4a 0f3f 8f23 97be e0d5 113e d54d c33e
00000370: 8032 32be 3a0b 8a3f fcd8 a8be 0f9d 833e
00000380: eacc af3e 0b55 a3bf 9fa7 283f b20c 0c3f
00000390: 0aec 193e fa21 d4bd 3fbb a6bd 3777 ac3e
000003a0: 4c30 5bbf 3a67 b13d 1656 9fbe b469 8a3d
000003b0: ef3b 833b 1b97 243f 3892 47be a60f 96be
000003c0: 8f47 acbe cd99 803e 8bb2 57be 8555 6d3f
000003d0: c51e 063e f2b0 bcbe 22be a83e c01d 663f
000003e0: 0e81 babe a9f7 5b3f 56bf db3e ed92 063f
000003f0: 6e71 b13f 6248 b13e 6aaa 563f b66b 0fbf
-4.8772607 0.69087756 0.6070791 -0.053793 0.14036171 0.9665673 -0.4333564 -0.4193072
0.17564934 0.37161326 -0.45068145 0.3451677 0.24731252 -0.16326445 0.19806506 -0.2702132
0.9379514 0.69763166 0.26892522 0.32104018 -0.46768954 -0.20686166 -0.52408355 -0.6091118
-0.00011441388 -0.6580403 -0.38646293 -0.13009979 -0.30784267 0.59147435 0.21176426 0.048808962
0.25268924 0.7607637 -1.2383938 -0.4783567 -0.4174944 0.22700651 -0.46569577 0.28185576
0.28450367 0.56096 0.1605883 -0.6203464 0.371398 -0.51036197 0.4398116 0.48864803
-0.048476543 0.3206187 0.15173282 0.046174098 -0.23930444 -0.7537168 -0.5223714 0.3200187
-0.36156905 0.23911698 -0.48003668 -0.27944148 0.13307321 0.646042 -0.45575193 0.28210643
0.15690249 -0.6162502 0.1648521 -0.4803494 0.29844886 -0.27674267 -0.32927302 0.47410658
0.03130946 0.36972174 -0.095056854 -1.1159643 -0.2881098 0.2139872 -0.64725685 -0.3174795
0.06778423 -0.4213647 0.7027013 0.03523377 -0.23176737 0.6035624 -0.33534986 -0.0036690203
-0.11304208 0.40845215 0.19179267 -0.16211455 -0.8238709 -0.050211504 0.57047004 -0.42587143
-0.13637328 0.50215596 -0.11457179 0.355642 -0.41844967 -4.611782 0.06856392 0.23910643
0.43126604 0.33161038 0.3920315 -0.78334904 1.1463877 0.060026728 0.06079183 0.017929548
0.45961595 -0.18432754 0.51407415 -0.41477472 0.2167232 -0.6027367 0.0709609 -0.63232607
-1.1061066 0.83441794 -0.593095 -0.052309126 0.04199994 0.76786643 0.08137038 -0.019308904
0.022987556 -1.1128687 0.06817939 0.22560768 -0.27540094 0.052553862 -0.08440598 -0.08985
0.622923 0.5147577 -0.4311577 -0.040117115 -0.055311155 0.043513633 0.9840509 0.20216931
0.59178954 0.34302074 0.6079585 0.6787881 -0.234397 0.61841553 1.1080323 0.8111849
0.45118183 0.55566585 0.1343905 0.28982088 -0.10273746 -0.052748762 0.4341977 0.7516179
0.61540174 -0.24897516 0.10567697 0.33080643 -0.20712917 0.442285 -0.42802954 0.27771762
-0.14251965 0.03191648 -0.14309135 0.58535427 0.13285992 -0.3540663 0.5709359 -0.476779
0.20828539 0.7888516 -0.045470864 -0.27865735 0.27232188 -0.27201858 -0.05202395 -0.49123687
0.6841983 0.07908243 0.053073343 0.38058078 0.066426 0.017138854 -0.058715582 0.80412424
-0.18543571 -0.205786 -0.0040028705 0.039914135 0.24222572 -0.7748945 1.0309699 0.23507936
-0.35835186 -0.08602221 -4.094807 0.03411248 -0.1991665 0.027721167 -0.26417422 0.033460755
0.23363747 0.54394424 -1.1328846 -0.043620486 -0.768278 0.82089174 0.45919308 0.5454673
0.55973494 -0.29519317 0.14241743 0.3814532 -0.17402077 1.0784676 -0.32978046 0.25705764
0.34336025 -1.2760328 0.6588077 0.5470687 0.15031448 -0.10358043 -0.08141183 0.33684704
-0.8562057 0.08662267 -0.31120366 0.067584425 0.0040049474 0.6429307 -0.19489372 -0.29308814
-0.33648345 0.2511734 -0.21064202 0.9270862 0.13097675 -0.3685375 0.3295756 0.89889145
-0.36426586 0.85924774 0.42919415 0.5256794 1.3862741 0.34625536 0.8385378 -0.5602373

weight f4 [100, 200]
00000000: 16b4 5d3f 5d0d 69bf 6a0d 3e40 8560 d0bf
00000010: 3dc7 f4bf 175d 3d3f 2115 3fbe 8ef1 0e3f
00000020: 6377 9d3f a1aa e1bf 574a 0b3f 1f27 d23f
00000030: da2e dd3e bb2d d33f 5440 763f 3940 3140
00000040: 4dc5 d6bf 7df9 2040 d0de 42bf 9dec 88bf
00000050: 5e5c da3f 5481 713f 1c1f 14c0 4dd2 4dbf
00000060: 50d6 15bf 1dae a3c0 5313 1e40 a724 403e
00000070: 11fa 0fbf 39b7 19bf 3f72 3e3f 42a1 a7be
00000080: 5608 0240 a0da 943f dfd6 893e 862a 9a3e
00000090: 2498 a43f 57e0 5e3f c255 3f3e 273e 01bf
000000a0: b6cf d93e fec8 aa3f ed2d 0d3e b6bd cf3e
000000b0: f9fb 9c3f 6798 5b3f 102d da3f 8605 b3bf
000000c0: 146e bc3f a5ea 84be 9921 ffbf bd8f 62bc
000000d0: 35d8 4d3f 4cc4 fd3e 7470 9e3f 9ada 8fbf
000000e0: 4899 c63e 4d79 02c0 bf72 d5bf acba 0540
000000f0: 6d64 41bf 3ae1 66bf c1b9 473f ec23 b4be
00000100: 0ab7 cfbe 53d3 3bc0 2794 3340 3318 e63f
00000110: a632 c1bf a329 a03f 3bd5 aabf 03f0 ccbf
00000120: af34 3dc0 ad9a 61bf fe93 2d40 0b04 bebf
00000130: 740a f1bf 9d29 883f 86a3 9abf 0df2 003f
00000140: 5aa5 34bf d7cf 67bf a78b 59bf 7ff4 e6be
00000150: fa9e dbbf b61b a83f f301 2fc0 e63a 35be
00000160: 519d a8be 1a80 fe3e d361 48bf 19de 1abe
00000170: 45be f23f 2340 74c0 9592 d0be 9f21 9c3c
00000180: 96b1 c03e c562 3dbf e18c 08be adaf 25be
00000190: 7fa6 1b3f 17f5 b93c eca2 86bd 0812 183c
000001a0: 5b3d 85be c40f 0fbf ddd7 afbe 65a3 ce3e
000001b0: 68b0 d53d 3ed1 9b3e dfcc 203f 1731 7cbe
000001c0: 4308 8b3f cb80 24be e6ba 603f ca69 89bd
000001d0: 1839 7c3f f021 d9be 87e3 3cbe 789d 963f
000001e0: 471b 8dbe 5470 d13e 98ee 5b3e f3e9 7cbf
000001f0: 0699 20bb fdf2 b83e 7dbf 3a3f 5961 2e3f
00000200: 46fe 3cbe 035a 1e3e 4323 fe3e 6b98 5c3d
00000210: f170 613f 36f6 6dbe 9f95 ee3e bb27 983d
00000220: 296c 1ebe bbe8 863e cb25 49be 08b8 473e
00000230: 6458 4abe 7901 9ebd 1d36 613e ce59 003f
00000240: bd92 0b3e d2ce 0f3e 47c2 00bf d1ab 36be
00000250: 7693 633f b325 3c3f 8906 303f f633 8b3f
00000260: a411 99be e39e 7a3e 3221 fa3e 5f89 bebe
00000270: 0beb 90bf 407c 9f3d 6f7b 613f b8c5 4fbf
00000280: c9ae c13e 9c3d 433f 8e95 64be c616 2ebf
00000290: ad4f dc3e e5c4 7c3f ab11 b23f edd1 063e
000002a0: f1a4 213f e6b4 dd3d 418f a7be e621 34bf
000002b0: d195 95be e78b 683e a4f9 573e 3e2a 363f
000002c0: 8c4f 91bf 3e9a abbf bb0e 0bbf 56a1 f83c
000002d0: 6d3e 8cbf 90ed 8e3e 50d8 2ebe 3931 6d3e
000002e0: be22 0f3f fdbf 44bd f96a 263e 4636 32ba
000002f0: a928 b2bd 68d8 573f c09d 7cbf ae56 a83f
00000300: 8a15 1f3b c3d2 463e 912f 753e 755c 03bf
00000310: 19d8 18bf dee3 80bf 650b efbe d439 b53e
00000320: 306b 3fc0 d507 ca3e 9d31 6fbf 1fe4 ee3f
00000330: e3fa d9bf a0a4 f23f f9d5 613f 98f1 bc3f
00000340: fe3b a43e 396e 253f 9383 a03f 7835 94bf
00000350: 5196 1dbf ee7a af3e b31c e6bd fff1 ba3f
00000360: 9c0e 81bf 970d 74bf 5ae8 ff3e 6abf 23bf
00000370: c272 9cbf 3133 0ac0 2cb3 afbf bb1f 60be
00000380: fb6f c23f e185 bc3f d31f 4fbf 7dc7 33bc
00000390: 2297 51bf 28a6 2a3f b9e1 6ac0 8abe 8e3e
000003a0: 9288 3fbe 78a0 aa3f 312d 973f b894 11c0
000003b0: f8e6 e33e 627d d8bd 04e1 3240 ea1a 6dbe
000003c0: 0cf1 663e 7ed5 9e3f fd0a 8e3f 836f 3f3f
000003d0: 2028 2fbf 0c02 de3e e300 b73f 6fee 013e
000003e0: 303f bd3f 03b5 4cbf 0466 113f ffd5 70bd
000003f0: 32d4 5140 ed91 b5bd e96b acbf b58d 7ebf
0.86602914 -0.91036016 2.9695687 -1.6279455 -1.9123303 0.7397017 -0.18660404 0.55837333
1.2302059 -1.7630197 0.5441031 1.6418189 0.43199807 1.6498331 0.96191907 2.7695448
-1.6778961 2.5152276 -0.76121235 -1.0697209 1.7059438 0.94337964 -2.3143988 -0.8039902
-0.5853014 -5.115004 2.4699295 0.18763982 -0.56240946 -0.600452 0.74393076 -0.32740217
2.0317588 1.1629219 0.26921746 0.30110568 1.285893 0.87061065 0.18685058 -0.5048546
0.42541283 1.3342588 0.1378705 0.40574425 1.2264396 0.8577942 1.7045002 -1.3986061
1.4721093 -0.2596027 -1.9932128 -0.013828215 0.8040803 0.49563825 1.2378068 -1.1238587
0.3878882 -2.0386536 -1.6675643 2.0895185 -0.7554386 -0.9018742 0.7801781 -0.35183656
-0.40569335 -2.9347732 2.8059175 1.7976135 -1.5093582 1.2512707 -1.3346323 -1.6010746
-2.9563406 -0.8812664 2.7121577 -1.4844984 -1.8831315 1.0637699 -1.2081153 0.5036934
-0.70564806 -0.90551513 -0.8497872 -0.4510841 -1.7157891 1.3133457 -2.734494 -0.17698249
-0.32932523 0.4970711 -0.7827427 -0.15123786 1.8964316 -3.8164146 -0.40736833 0.019059
0.37635487 -0.73978835 -0.13334991 -0.16180296 0.6080093 0.022699876 -0.06574044 0.009281643
-0.26023373 -0.5588343 -0.34344378 0.40359035 0.104340374 0.30433077 0.6281261 -0.24628101
1.0861896 -0.16064756 0.87785184 -0.06709631 0.9852462 -0.42408705 -0.1844617 1.1766806
-0.27559873 0.40906012 0.21477735 -0.9879448 -0.0024505272 0.36122885 0.7294844 0.6811729
-0.18456373 0.15464024 0.49636278 0.053856295 0.8806296 -0.23238453 0.46598527 0.07429453
-0.15470947 0.26349434 -0.19643323 0.19503796 -0.19760281 -0.07715125 0.21993299 0.5013703
0.13630195 0.1404374 -0.50296444 -0.1783898 0.8889688 0.73495024 0.6875997 1.0875232
-0.2989627 0.24474673 0.4885345 -0.3721418 -1.132173 0.07787371 0.8807897 -0.8116107
0.37828663 0.76265883 -0.22322676 -0.680035 0.43029538 0.9873794 1.3911642 0.13166018
0.63142306 0.10825519 -0.32726482 -0.70364225 -0.29215863 0.22709619 0.21091324 0.71158206
-1.1352401 -1.3406446 -0.5431935 0.030350368 -1.0956551 0.2791562 -0.17074704 0.23163308
0.5591239 -0.048034657 0.16251744 -0.00067982485 -0.086991616 0.84314585 -0.9867821 1.3151453
0.0024274313 0.19416337 0.23943926 -0.51312953 -0.5970474 -1.006954 -0.4668838 0.35395682
-2.9909172 0.394591 -0.9343508 1.8663367 -1.702969 1.895649 0.8821712 1.4761229
0.3207702 0.6462131 1.2540153 -1.1578817 -0.6155749 0.34273475 -0.11235943 1.4605101
-1.0082583 -0.95333236 0.49981958 -0.6396395 -1.2222521 -2.1593745 -1.3726554 -0.21887104
1.5190424 1.4728357 -0.80907935 -0.010972855 -0.81871235 0.66659784 -3.670027 0.27879745
-0.18704441 1.3330221 1.1810666 -2.274702 0.44512153 -0.1057079 2.7949839 -0.23154798
0.2255289 1.2408903 1.1097103 0.7477953 -0.684206 0.43360937 1.4297146 0.12688611
1.4784908 -0.799637 0.5679629 -0.058797833 3.2785764 -0.08865724 -1.3470432 -0.9943498

weight f4 [100, 100]
00000000: 8d87 bdbd b8c2 be3d da94 573c d7f4 9cbd
00000010: b527 cb3d 306f ac3d ddc5 70bd 4384 bbbd
00000020: a0b1 d8bc 9da1 34bd 0017 a43d 4a0f 6abd
00000030: ed9b 803c 2adc 9f3d aa7d 9c3d ea87 763d
00000040: bd0f 85bd 2de2 91bc ef89 bebd 5a31 183d
00000050: 4009 573c ddc9 2c3d 57dd 293d 3d43 b23d
00000060: 675a aa3d 803e f9bb a7e1 1f3d f34e 77bc
00000070: aa0f 07bd 7a74 28bd 275d 8cbc 4d51 843d
00000080: b029 b63d c242 8dbd cd93 c03d 3f4c 8fbd
00000090: ebe8 c63d 6d43 a23d 4dd1 d43c d010 303d
000000a0: 8bed bbbd 4dea 51bd 07b9 acbd 5367 38bd
000000b0: 7a9e 193d bb34 a9bd 1a56 1dbd 1f0d 933d
000000c0: a0e7 b33c 3377 6bbd 30af 7a3d 1d61 51bd
000000d0: b3cd bfbc 67d2 93bc b733 2abd 9a59 883c
000000e0: cd61 bd3b 133c 69bd 80fa b1bb 63fb 7d3d
000000f0: e7c4 a83b a299 98bd 1d6e a1bd 8d17 533d
00000100: e339 93bd fa22 313d eb10 92bd 0a0f 133d
00000110: 2027 cbbd 4ddc 5a3d 0a7d 18bd adfb a73d
00000120: 5a46 ab3d 354b c2bd 20ae fa3c 73b7 603d
00000130: cdb5 22bd baf2 84bc 4f54 9cbd 0343 bf3d
00000140: 8d9e 0b3c 1544 84bd 1819 c6bd 5381 7cbd
00000150: 9835 bf3d 8f75 b63d 4068 f3bc 203c ae3c
00000160: f084 47bd 6aeb 8c3d f706 ccbd 6a4a 41bd
00000170: da7b 8dbd 00a6 2dbd 4816 a63d f330 5a3d
00000180: e7c6 623c e7a1 dbbb fae2 72bd fde1 79bd
00000190: 08d8 9cbd f31d 92bd 00e7 ac3c 7717 76bd
000001a0: b7dd a23d 13ad adbc 8047 333d c306 7abd
000001b0: d34e bbbc aa90 2fbd 9a87 efba c03b bebd
000001c0: 02f0 aebd 2d69 90bc e76c f2bb 4d89 f5bc
000001d0: 27de ae3c ed24 8bbc aa13 a9bd d266 ac3d
000001e0: 3ac4 2cbd cd9e 833a eb9f 9b3d a0e5 5cbd
000001f0: 6fb0 853d 4fac 853d 80a0 713c 3ac9 cdbc
00000200: 1f45 acbd 471f bc3d c08c 16bc 0f27 81bd
00000210: a7fa 933c 7b5c ba3d f744 a8bd 07ea a43c
00000220: adeb 343d 7a19 93bd 7a6e c73d 4747 92bc
00000230: 03ae 48bd f8bf 95bd 8d0f 18bd 5dc0 b8bd
00000240: 1db6 a1bd 0deb b9bd 77e8 a63d 530b 63bd
00000250: ba6e b43d c7ba 4f3d a76a 49bc 4af0 523d
00000260: 9313 6cbd 4708 d7bc 1d31 893d 8a95 86bd
00000270: fa47 88bd 6dcf 34bd 6a30 5e3d 20ba 4a3d
00000280: 67a0 5fbd 1312 e63c 0746 2a3d fd5a 293d
00000290: b3c4 aabc 4d2e 813d 8a40 6d3d b050 153d
000002a0: 02d6 9c3d b729 adbd 1aa3 a13d bb7b b6bd
000002b0: 02df 9d3d 4335 1a3d 6757 173d a0a9 983d
000002c0: 33e3 fdba 3dca 58bd 334f 6bbb 27b7 3dbc
000002d0: eddf bb3d b3d2 2ebc 88e8 b93d b3e8 bbbd
000002e0: d3f2 583d 6aec 8f3d 404f 69bd 67bf 7cbd
000002f0: d0c2 2bbd f0cf 563d 0020 753c 50ac 443d
00000300: 620e b8bd b55f 9cbd cdda b9ba 60f2 6f3d
00000310: c082 36bc 60eb 18bd 0d60 acbd f5e6 c83d
00000320: 0d12 483c e3db 2fbd 12a0 c9bd f3c9 7c3d
00000330: 8a6c bc3d e3f9 2abd 5b87 8f3d 37fc b1bd
00000340: 23d0 2d3d 1308 fdbc cd1c 8e3b 6f34 a13d
00000350: c834 b9bd 27b3 063d c70d e6bc 1ff6 cabd
00000360: eac4 a1bd 33c4 dabc 236f 54bd 0fb4 9a3d
00000370: 4359 973d 8f14 953d 9026 0fbd e0ba febc
00000380: 3320 b33c 2001 30bd b02b 0e3d 051f b93d
00000390: 4dc6 cbbd 5324 a33c 5720 51bd 5f12 b83d
000003a0: 7ddc 0abd ba7e b7bc bd41 a9bd 2d66 c33c
000003b0: 03cf 3a3d 2f91 c03d 128f 963d 9adc d13b
000003c0: 9a77 96bc a076 b2bc 1715 0e3d b048 9ebd
000003d0: 07b3 433d ba2b 563d 5a15 c2bc f5d9 91bd
000003e0: f84f 8dbd fd53 b3bd fa4c 58bd efbc 863d
000003f0: c7f2 89bd 8df0 633c f520 c6bd c039 b4bc
-0.0925437 0.093144834 0.013158048 -0.07663887 0.09919683 0.08419645 -0.058782447 -0.09156086
-0.026451886 -0.04409944 0.080121994 -0.057143487 0.015699351 0.07805665 0.07641156 0.06018821
-0.064971425 -0.017808044 -0.093036525 0.03715644 0.013124764 0.0421847 0.04147085 0.08704231
0.08318024 -0.0076063275 0.03903356 -0.015094507 -0.032973923 -0.041126706 -0.017134262 0.064608194
0.0889467 -0.06897499 0.09403191 -0.06996965 0.09712394 0.07923017 0.025978709 0.042984784
-0.09176167 -0.051248837 -0.08433729 -0.045020413 0.03750465 -0.08262011 -0.03841219 0.07180237
0.021961033 -0.057486724 0.061202228 -0.051118005 -0.023413515 -0.018044664 -0.041553225 0.016644288
0.005779481 -0.056942057 -0.0054314733 0.06200732 0.0051504257 -0.07451178 -0.078823306 0.05153613
-0.071887754 0.043246247 -0.07132133 0.035903014 -0.09919572 0.05343275 -0.03722862 0.082023
0.08363028 -0.09487001 0.030600607 0.05486245 -0.03972416 -0.016229022 -0.07633268 0.09338953
0.008521688 -0.06458298 -0.09672755 -0.06164677 0.09336394 0.08909141 -0.029712796 0.021268904
-0.048710763 0.06880839 -0.09962266 -0.047190107 -0.069083884 -0.042394638 0.081097186 0.053269338
0.013841367 -0.00670265 -0.059298493 -0.061006535 -0.07658392 -0.071346186 0.021106243 -0.06008097
0.07952445 -0.021200692 0.04376936 -0.061041605 -0.022864735 -0.04286257 -0.0018274665 -0.0928874
-0.085418716 -0.017628277 -0.007398236 -0.029972697 0.021346165 -0.016985381 -0.08255704 0.08418049
-0.042179324 0.0010041833 0.07598861 -0.053929925 0.06527793 0.06527006 0.014747739 -0.025120366
-0.08411621 0.09185653 -0.009188831 -0.06306278 0.018063856 0.090996705 -0.08216279 0.020131124
0.04417007 -0.07182594 0.097378686 -0.017856253 -0.048994076 -0.07312006 -0.037124205 -0.090210654
-0.078960635 -0.090780355 0.08149808 -0.05543072 0.08810182 0.050715234 -0.012293494 0.05149869
-0.057635855 -0.026249064 0.06698821 -0.06571491 -0.066543534 -0.04414313 0.05424539 0.04949391
-0.05459633 0.02808479 0.04157069 0.04134654 -0.020845747 0.06307659 0.057922877 0.036453903
0.07658006 -0.08455222 0.07892437 -0.089103185 0.07708551 0.03764845 0.036948588 0.074542284
-0.0019370079 -0.052927244 -0.003590536 -0.011579311 0.0917357 -0.010670352 0.09077555 -0.09175243
0.05296595 0.07027514 -0.056960344 -0.061705973 -0.041933835 0.0524444 0.014961243 0.048015893
-0.08987118 -0.07635442 -0.0014179588 0.058580756 -0.011139572 -0.037333846 -0.08416758 0.098096766
0.012211335 -0.04293431 -0.09844984 0.06171603 0.0920039 -0.041742217 0.07008239 -0.08690684
0.042434823 -0.03088764 0.0043369294 0.07871329 -0.0904327 0.032885697 -0.028082741 -0.09910225
-0.078988865 -0.026704883 -0.0518638 0.07553875 0.07390072 0.07279312 -0.034948885 -0.031094968
0.02186594 -0.042969823 0.034709632 0.0903912 -0.09949932 0.019914782 -0.051056232 0.08987879
-0.03390168 -0.022399295 -0.08264492 0.023852432 0.045607578 0.094026916 0.07351507 0.0064044716
-0.018367577 -0.02178508 0.03468808 -0.07728708 0.047778156 0.052287795 -0.023691822 -0.0712165
-0.069000185 -0.08756254 -0.052807786 0.06579005 -0.06735759 0.013912332 -0.09674255 -0.022000194

weight f4 [100, 200]
00000000: d905 5cbd c442 5a3d 9fed d1bc 2029 c5bc
00000010: b3c9 bd3c 9ba5 b539 e33f 843d 330f c83c
00000020: d26c 1eba ee6e 8abd ea89 b4bb d54f 2f3d
00000030: 27b9 7239 5482 83bc 6cb4 073d 1393 bfbc
00000040: ca96 dabc ce00 8a3c c772 053d b2ae 86bd
00000050: c4a2 fc3c 9ca7 fabc 2876 7bbd a765 04bd
00000060: 4d44 153c 1e93 5f3d 3a36 d9bc 1164 40bd
00000070: e702 143d 9612 0dbd 276d 873d 9548 53b8
00000080: 2691 7dbc 196d 4e3c 44aa 34bd 334e 3ebd
00000090: 2ffb 94bc e3ee db3c 1ca3 85bd b73a adbc
000000a0: 6dfb ffbc 6031 8dbc 467c 84bc e1b9 03bd
000000b0: 6282 cabb a476 10bc 346f a0bc 22d8 26bd
000000c0: 68c1 7fbd 3b57 ed3c a537 f6bb aced 513b
000000d0: d349 283d 93f6 83bd 9e53 2abd aee5 e9bc
000000e0: 4235 86bc 2ee9 b6b9 af3e 66bd 6968 5c3d
000000f0: 5661 003c d709 8b3d bbae 73bc bacf 72bd
00000100: a868 853c 294c 253d ea39 42bc 76c5 e33c
00000110: 9b4f c93c d9b9 0b3d aae8 3a3d eb86 09bd
00000120: fd1c c83c ebc9 2bbd 7ba5 19bd f2d9 4fbd
00000130: ff1d 90bd 5a4b 0b3d 18ae b1bc 7c35 853d
00000140: 7e93 05bd 5744 f23b 2fd4 893d 4abe e4bc
00000150: efa6 7f3d a027 edb9 d36f 093d 0488 5d3d
00000160: a142 2c3d e408 3b3d 3bd0 273d ac31 463c
00000170: 38dc 78bd 47f4 50bd 0b09 833c 6df1 843d
00000180: 38ae 1dbd 8c02 0dbc 2b81 a5bc 3bf1 8bbd
00000190: 5481 2fbd 09a1 e2bc 544a 69bd 8146 3c3d
000001a0: fd01 4fbd d6b8 8f3d 2022 18bd 395c 8dbd
000001b0: 5a80 6a3d ab2d babc 8a31 d03c 776b 4d3d
000001c0: fa72 ee3c 7633 62bd de91 4c3d bd20 59bd
000001d0: 7e45 803d 4eb2 97b9 5269 303c 7c7a 313d
000001e0: c168 333d 9540 fe3c 2826 3abd 04a5 6a3d
000001f0: 63e6 093d bcfb 33bd 8576 e2bc d999 64bd
00000200: 27df 7cbd b5c1 09bd 03f6 8c3c d213 c7bc
00000210: 89aa 793d f75e 01bd 9708 87bd e185 e8bc
00000220: c2ab 0c3d 19f1 abbc ae84 edbb 1303 803d
00000230: f60a 82bd 0f4c 8cbd 17d1 f2bc 1e9d c4bc
00000240: 4fa9 38bc d11e df3c 1ce7 4e3d b7d7 743d
00000250: 920d 85bd 27ed 713c 829b 67bd fa42 b23b
00000260: e6c2 2abd e338 6ebc 5d9e 4ebd 5eb2 b9bb
00000270: 54ba 84bd a596 82bd b026 efbc 98c8 e6bc
00000280: db94 79bd 4d84 63bd 3345 853d 3c80 2c3a
00000290: 47cb 41bd 8fe6 3c3d fb7d 6f3c 6907 69bd
000002a0: a853 7ebd dc91 44bd 6877 debc d5ae 39bc
000002b0: 45fa 7a3b 53be af3c b7a4 d33c 5790 14bd
000002c0: aeec 8abc 782e bfbc eb83 633d 2e98 213d
000002d0: 3276 09bd 791d aa3c 7863 f23c a11e 37bd
000002e0: c535 0abd a82a ae3c 824e 96bc 51a4 21bb
000002f0: 7c47 913c 0153 a6bc 239b 113c bfda 57bd
00000300: aafd a23b f452 61bd 5fbd 443d 3185 17bd
00000310: d131 42bc 1e05 8a3d 1d66 903c f7d2 d8bc
00000320: b43f f63a 803b 693c b5ba 5fbd ea1a 0d3d
00000330: a40f 7f3d 9445 583d 0d45 d43c 87ae 7c3d
00000340: eeba 69bd cbeb c3bb ad48 a83c 79a5 83bc
00000350: 63c0 ac3c d1ff 403c 446a 483d d414 9f39
00000360: d797 113d 89f2 033d 4521 acbc 753e 4d3c
00000370: d62a a8bc 2da8 4d3d 29f0 fa3b 4781 213c
00000380: dcee 313d 66ba 72bd 0b73 5bbd 5674 253d
00000390: 8896 b3bc bbd1 eabc 18eb 8f3d 4d92 573d
000003a0: 2689 1abd 9b46 17bd 4cd3 86bb 6bb0 823d
000003b0: cd79 8ebd 9b74 81bd d34c 8a3d 793b 1a3d
000003c0: bcf1 0b3d a1f7 02bd 5ba1 8dbd 914a 34bd
000003d0: 4d2a 5abc 115d 40bd 831a 8c3d 82fa 5c3d
000003e0: 34aa 1f3d 597c aabc f208 89bd 3a8d e33c
000003f0: 243e 823d 0b9f 70bb 9390 0fbd ff84 46bd
-0.053716514 0.05328633 -0.025626002 -0.024067461 0.023167467 0.00034646396 0.06457498 0.02442131
-0.0006043437 -0.067594394 -0.0055096047 0.042800743 0.00023147893 -0.016053356 0.033131048 -0.02338556
-0.02668323 0.016846087 0.032580163 -0.06576289 0.030839331 -0.0305975 -0.06139198 -0.032323506
0.009110522 0.05458366 -0.026515115 -0.04697043 0.03613558 -0.034441553 0.06612616 -5.0373917e-05
-0.015476501 0.012599253 -0.04410769 -0.046461295 -0.01818618 0.026847309 -0.06525251 -0.021146161
-0.031247819 -0.017235458 -0.01617254 -0.03215969 -0.0061800936 -0.008817349 -0.019584276 -0.040733464
-0.062440306 0.028972259 -0.0075139576 0.0032032533 0.04108603 -0.06443515 -0.04158365 -0.028551903
-0.016382817 -0.00034887478 -0.056212123 0.05381051 0.007835707 0.06788986 -0.014873202 -0.059280135
0.016285256 0.040355835 -0.011854628 0.027804118 0.024574092 0.034112785 0.045632042 -0.033575933
0.024427885 -0.04194061 -0.03751133 -0.05074496 -0.07036971 0.034007408 -0.02168946 0.06504342
-0.032611363 0.0073934007 0.06729924 -0.027922768 0.06241506 -0.00045233686 0.03355391 0.054084793
0.04205573 0.045662776 0.04097007 0.012096804 -0.060756892 -0.05101421 0.015995523 0.06491361
-0.038496226 -0.008606564 -0.020203194 -0.068331204 -0.042847946 -0.027664678 -0.05695565 0.045965675
-0.050539006 0.070176765 -0.03714192 -0.06902356 0.05725131 -0.022726854 0.025414247 0.050151315
0.02910756 -0.05522486 0.049943797 -0.053009737 0.062632546 -0.00028933812 0.010767298 0.0433297
0.043801073 0.031036654 -0.045446545 0.057286277 0.03366698 -0.043941244 -0.027644405 -0.055810783
-0.061736252 -0.033632 0.017207151 -0.024301443 0.06095365 -0.031584706 -0.06593435 -0.028384151
0.03434349 -0.020988988 -0.0072484827 0.06250586 -0.06349747 -0.068504445 -0.029640717 -0.0240007
-0.011270835 0.027236374 0.05051337 0.059776034 -0.06496729 0.014766014 -0.05654479 0.005440113
-0.041689776 -0.01453993 -0.050443996 -0.005667015 -0.06480852 -0.063763894 -0.029193252 -0.028171822
-0.060932975 -0.055546094 0.06507339 0.00065803877 -0.047313 0.046118315 0.014617438 -0.056891833
-0.0620915 -0.047990665 -0.027156547 -0.011333187 0.0038296145 0.021453058 0.025835378 -0.036270466
-0.01695856 -0.023337588 0.05554573 0.03945177 -0.033559985 0.020766007 0.029588446 -0.044706944
-0.033742685 0.021260574 -0.018347982 -0.002466459 0.017734282 -0.020303251 0.008887085 -0.052698847
0.004974087 -0.05501075 0.04803216 -0.036992256 -0.0118526975 0.06739257 0.017626816 -0.026467783
0.0018787296 0.014235377 -0.054621417 0.034449495 0.062270775 0.05280073 0.025911832 0.06168988
-0.057063036 -0.0059790364 0.020542467 -0.016070114 0.02108783 0.011779741 0.048929468 0.0003034236
0.035545196 0.03221372 -0.021011958 0.012527098 -0.020528238 0.050209213 0.007658024 0.009857482
0.043440685 -0.059259795 -0.05357651 0.04039415 -0.021922365 -0.02866446 0.070272624 0.052629758
-0.03772845 -0.03693257 -0.004114544 0.06381305 -0.069568254 -0.06321069 0.06752934 0.037654374
0.034166083 -0.03197444 -0.06915542 -0.044016425 -0.013315749 -0.046963755 0.06840994 0.05394984
0.038980678 -0.020811247 -0.06691159 0.027777303 0.06359509 -0.003671589 -0.035049986 -0.04846668
