model/verify/Amazon_Musical_Instruments/recommendation_ndcg_recommendation_drop.model (torch, 245335 bytes, 6 tensors)

weight f4 [2, 100]
000000 48 93 d3 3e 6c b9 cf 3e 46 26 d0 3e 73 6c 9e be
       0.41323304 0.40571153 0.406542 -0.30942115
000010 65 5d f8 be c6 9c ab 3e e1 e5 57 3e c5 b0 ee 3e
       -0.48508754 0.33518046 0.21083786 0.4661924
000020 e1 27 bd be 4e c8 c6 3e f9 5a 8c be 53 ac e3 be
       -0.36944488 0.38824695 -0.27413157 -0.4446741
000030 df 3f 96 3e 8c b8 b5 be 13 23 94 be 75 a0 00 3f
       0.29345605 -0.3549236 -0.2893301 0.5024484
000040 fc 67 5c be a9 55 97 3e 01 7b 8c be df 6f fc be
       -0.21524042 0.2955754 -0.27437595 -0.493041
000050 90 04 05 3f 8c 6d ad 3e 6e 78 b8 3e e0 be ac 3e
       0.51960087 0.3387264 0.3602938 0.33739376
000060 f5 e4 a7 3e f6 9b de be 32 2d a1 be 20 7e ee 3d
       0.32791868 -0.43478364 -0.31479794 0.1164515
000070 08 dc 91 3e 71 31 b1 3e 2b e5 b6 3e c0 6d d4 be
       0.28488183 0.34608033 0.35721716 -0.41489983
000080 db ca f3 3e 1d 69 b7 be 8a 32 ea 3e e7 0a 0f bf
       0.47615704 -0.35822383 0.45741683 -0.5587601
000090 3b be 7b be f8 3b 6b 3e ab c2 ba 3e 88 6d 9a be
       -0.24584286 0.22972095 0.36476645 -0.3016169
0000a0 81 04 9f be 2a 1a e9 be 1a c3 ac 3e 63 86 49 bf
       -0.31058124 -0.45527774 0.337426 -0.7872068
0000b0 8a b8 df 3e bf 38 86 3f 33 65 c1 bd 3a 9a 70 be
       0.4369548 1.0486068 -0.0944313 -0.23496333
0000c0 0f 3b 98 3e 86 f4 c4 be cb 88 4a 3f 5b b3 4f 3f
       0.29732558 -0.38467807 0.7911498 0.8113305
0000d0 ec ba b4 be 88 22 10 3f b7 00 b6 3e 0e d1 d7 be
       -0.3529886 0.5630269 0.3554742 -0.42151684
0000e0 c9 b3 ce be f6 e7 0f be ab 2c 09 bf 0e 9d 0f be
       -0.4037154 -0.1405333 -0.5358378 -0.14024755
0000f0 19 42 b5 be 1a ed 83 be 88 06 8a 3f 85 20 f9 3e
       -0.3540199 -0.25766832 1.0783243 0.48657623
000100 c6 da db 3e 43 23 a3 3e 60 09 f1 3d 02 63 12 3f
       0.42940348 0.3186284 0.11769366 0.57182324
000110 e3 bc 2f be e4 dd 17 3f 07 c6 44 be 7a d9 b5 3e
       -0.17161898 0.59322953 -0.19216166 0.35517484
000120 ad 88 b9 be d6 f7 8b be a2 2f 97 3e 42 db 8e 3e
       -0.36237088 -0.2733752 0.29528528 0.27901655
000130 e2 51 13 bf 49 cb f5 3d 7a a5 1e 3e 5c 4b af be
       -0.5754682 0.12001664 0.15492812 -0.34237182
000140 d1 b2 52 3e 0f 2a f2 be 73 5e 9a 3e 1e 76 5f 3e
       0.20576026 -0.47297713 0.30150184 0.21822402
000150 82 f4 c1 3e 7a c7 33 3e e4 26 df be 6f cb af 3e
       0.37881857 0.17556563 -0.4358436 0.34334895
000160 ec b7 c8 3e e8 ab 9d be 9f 7b 78 3e 89 d5 c6 3e
       0.3920282 -0.30795217 0.24265908 0.3883479
000170 83 c3 cf be 83 dc d6 3e df 4e 1f be 83 a1 10 bf
       -0.4057885 0.41965112 -0.1555743 -0.5649645
000180 32 12 42 be 49 d9 a8 bd ff ea 68 be a1 18 63 bf
       -0.18952253 -0.08244569 -0.22745894 -0.88709456
000190 02 c8 92 be 1e 37 84 be d0 f7 d5 be 09 79 6b 3e
       -0.2866822 -0.258233 -0.41790628 0.2299539
0001a0 ef 54 0c 3f 56 1d d7 be a4 e2 19 be 04 71 ef be
       0.548171 -0.4201457 -0.15027863 -0.46765912
0001b0 ca df a7 3e 47 c4 bb be 1f f4 81 3e 62 03 c5 3e
       0.32787925 -0.36673185 0.25381562 0.38479143
0001c0 23 f8 9a be d6 b9 b8 3e 69 01 63 3e da 5f c5 be
       -0.30267438 0.36079282 0.22168507 -0.3854969
0001d0 74 0e 32 3e 8b 30 5f be 1a 90 be 3e 69 c8 cc 3e
       0.17388326 -0.21795861 0.37219316 0.3999665
0001e0 1f a1 09 bf 0e 21 e0 be 21 22 e7 be fc e1 ed be
       -0.53761476 -0.4377522 -0.45143226 -0.46461475
0001f0 6b 3b e8 be 0a 7a f8 3e ca e5 81 3e 54 25 b9 bd
       -0.45357832 0.48530608 0.25370628 -0.09040323
000200 05 18 63 be 57 5a c7 be 9f 26 c1 be 5d ce f9 3e
       -0.22177131 -0.3893611 -0.37724778 0.48790255
000210 d2 3a e6 be a8 d2 68 3e 4d 1a 07 bf 19 67 11 3f
       -0.4496675 0.22736609 -0.52774507 0.5679794
000220 e0 a0 94 3e 82 4a 94 be d3 82 8b be 0c 92 c8 3e
       0.29028988 -0.28963095 -0.27248248 0.39173925
000230 ee e0 de 3e 9d ac 89 3e 94 f8 b7 be 0a e4 50 3f
       0.43530983 0.26889506 -0.35931838 0.8159796
000240 f3 1b 9b be 47 34 71 bf 1e 5f 90 3e 53 e4 2e 3e
       -0.3029476 -0.94220394 0.2819757 0.17079286
000250 f2 eb 5a be c3 8d ca 3e bf 6f 45 bf 7d 74 46 bf
       -0.21379068 0.3956128 -0.77123636 -0.77521497
000260 ad 26 88 3e 0a c8 02 bf 9f b9 7f be ad fb b7 3e
       0.26592007 -0.51086485 -0.24973153 0.359342
000270 b4 28 b4 3e 8e 73 70 3e b6 f3 0d 3f e3 01 22 3e
       0.35187304 0.2348158 0.5545 0.15821032
000280 32 a6 4d 3e 32 32 9c 3e 30 5f 8b bf b3 b2 df be
       0.2008293 0.30507046 -1.0888424 -0.43691024
000290 29 2a f6 be 0b 7a dd be 38 12 3a be 88 53 0e bf
       -0.4807904 -0.43257174 -0.18171012 -0.5559621
0002a0 06 d3 82 3e ac c4 18 bf f7 63 4e 3e cd 51 89 be
       0.25551623 -0.596751 0.20155321 -0.26820222
0002b0 3a f2 ab 3e 4c 97 70 3e 6c d2 91 be 2a ad cb be
       0.33583242 0.23495215 -0.28480852 -0.3978055
0002c0 73 c5 f4 3e c5 5b 1b be a1 3a ab be cc 68 ac 3e
       0.47806892 -0.15171726 -0.33443168 0.33673704
0002d0 52 df 57 be 3a c2 f3 3e c5 e2 74 be a6 a5 ee bd
       -0.21081284 0.4760912 -0.2391463 -0.11652689
0002e0 e4 de 85 be 83 ab 1f be 4a 9b e0 3e bd 00 b4 be
       -0.26146615 -0.1559277 0.43868476 -0.35156813
0002f0 76 17 85 be 3f 51 b0 3e b3 f3 84 be 79 63 0e bf
       -0.25994462 0.34436986 -0.25967178 -0.55620533
000300 a1 16 76 3e 4e 01 f4 be 30 49 08 3e 23 74 20 3f
       0.2403207 -0.47657245 0.13309169 0.6267721
000310 bf 3b 55 3e 32 f4 fa 3c 61 49 6e 3e ae 13 6f 3f
       0.20823573 0.03063402 0.2327018 0.93389404

bias f4 [2]
000000 50 a2 a0 3e 34 da 62 be
       0.31373835 -0.2215355

weight f4 [100, 100]
000000 85 f1 a0 c0 08 45 69 3f f8 a0 93 3c 1c 78 b8 3d
       -5.0294824 0.9112096 0.018021092 0.09007284
000010 cc 33 d3 3e 42 87 78 3f 84 86 b0 be 66 be a2 be
       0.41250455 0.9708139 -0.34477627 -0.31785887
000020 74 e5 29 3f ee 51 64 3e 2a 73 5b 3d ef 6e b3 3e
       0.6636574 0.22296879 0.053576626 0.35045573
000030 c0 27 c2 bc 5b 1a ba 3e a3 c9 3f 3e 1a 0e 32 3e
       -0.023700595 0.36348233 0.18729262 0.17388192
000040 74 bc 32 3f b3 d0 89 3e c9 d6 81 3d 04 98 0c 3f
       0.69818807 0.26917037 0.06339795 0.5491946
000050 99 8c 06 bf 0e a6 a9 3e ea d1 47 bf 21 4d 06 bf
       -0.52558285 0.33134502 -0.7805468 -0.5246144
000060 19 d3 ab bc 7d b0 14 be 50 91 70 be f9 e6 a9 bc
       -0.020974683 -0.1452045 -0.23492932 -0.02074002
000070 52 60 1c be 21 25 0b 3f b7 d6 c1 3e d8 2a 6e be
       -0.15271118 0.5435353 0.37859127 -0.23258531
000080 12 47 6e 3f 98 2d 8b 3e db 91 4e bf 85 d8 77 bf
       0.93077195 0.27183223 -0.8069131 -0.9681476
000090 e2 c1 8a be 38 dc d7 3e 3f f3 0e bf b3 5f 23 bc
       -0.27101046 0.421602 -0.55839914 -0.009971547
0000a0 62 f4 bc 3e da b4 a8 3f 0b 58 49 3e f8 07 df be
       0.369052 1.3180192 0.19662492 -0.43560767
0000b0 f6 15 e6 3e 51 c7 23 bf 0b 53 43 3e 1d 8b be 3e
       0.4493863 -0.6397601 0.19074647 0.3721551
0000c0 d2 47 9f be a6 b9 9c 3e 97 c8 cf bc f7 c6 51 be
       -0.31109482 0.3061039 -0.025364203 -0.20486055
0000d0 b6 30 6d be 6d 9d c1 be 40 4a 68 bf 28 bd f7 be
       -0.23163113 -0.3781542 -0.90738297 -0.48386502
0000e0 cc a3 68 be e8 a7 f9 bc f8 8b 41 3e c7 78 0d be
       -0.22718734 -0.030475572 0.1890105 -0.13815604
0000f0 6b 18 99 3e f6 c4 98 3e 7f aa 0b bf 72 62 e3 3e
       0.29901442 0.2983777 -0.5455703 0.44411045
000100 10 ab 11 be f9 81 92 bd e7 5a ae bd 8f 04 75 be
       -0.14225411 -0.071536966 -0.08513432 -0.2392752
000110 99 4e 06 bd 03 88 aa be 00 18 f7 be c7 75 c8 3e
       -0.0327898 -0.33306894 -0.48260498 0.39152357
000120 6c 4b 0a 3f 12 59 f2 3e 8a 65 16 bf 21 27 82 bf
       0.54021335 0.4733358 -0.58748686 -1.0168191
000130 32 f2 92 3d b4 8d 78 3d 47 a5 6b bf 55 1e a2 be
       0.07175101 0.060682014 -0.9204907 -0.31663767
000140 49 58 6c be 8e ab cc be 53 b5 6b 3e c3 92 d6 b9
       -0.23080553 -0.39974636 0.23018388 -0.00040926607
000150 76 97 2d be 19 5e 38 3f 1a 9c 98 be 81 ab 51 3f
       -0.16952309 0.7201858 -0.29806596 0.8190232
000160 cb 94 88 be a6 5b 35 3f 49 31 09 3e fd 04 d1 be
       -0.2667602 0.7084297 0.13397707 -0.40824118
000170 0c e9 9e bf ad df 37 be ac 88 c6 3e 4d 8d 72 bf
       -1.241487 -0.1795642 0.38776147 -0.9474686
000180 7e 32 3b bd 8f 48 a4 3e c1 2d f1 3d c7 e5 5c 3d
       -0.04570245 0.32086608 0.11776305 0.05393007
000190 07 dc 5a be d1 8a a4 c0 72 c0 18 3f 6f 1c 11 3f
       -0.21372996 -5.1419454 0.5966865 0.5668401
0001a0 40 a5 4a 3f 0b 58 03 3f 4f 8b b5 3e b5 f5 1b bf
       0.791584 0.5130622 0.35457847 -0.60921794
0001b0 22 d7 e2 3e 3b b6 5a be 2b 90 89 3e 60 bf 01 bf
       0.44304758 -0.21358578 0.26867804 -0.5068264
0001c0 06 12 c8 3e 5a fb 16 bf 0e 4c fb 3e 98 7f 1b bf
       0.3907625 -0.5897728 0.49081463 -0.6074157
0001d0 55 18 42 3e 55 e3 85 be e0 6f 6c 3e f2 07 51 bf
       0.18954594 -0.26150003 0.23089552 -0.8165275
0001e0 39 d7 9f bf 0d c8 32 3f 0d f9 3a be c7 49 08 3e
       -1.2487556 0.69836503 -0.18259068 0.13309394
0001f0 c9 0c 8c be cb 47 00 3f 60 9c d6 3e b0 90 05 3f
       -0.27353504 0.5010955 0.4191618 0.521739
000200 65 39 f0 3e 9f fd 81 bf f7 ae ae be 13 2b 0d 3e
       0.4691879 -1.0155524 -0.34117863 0.13785963
000210 7c b8 46 3e 1e 81 96 be 47 71 30 be de 8b ad 3e
       0.19406313 -0.29395384 -0.17230712 0.33895773
000220 14 7a c2 3e 57 ec 28 3f 37 1c 8d be dc 70 27 bd
       0.37983763 0.65985626 -0.2756059 -0.040879115
000230 ec 98 be 3d d4 b8 a9 3e ed 4a 30 3f 83 4f 2e bd
       0.09306511 0.33148825 0.6886433 -0.042556297
000240 58 d8 4f 3f 11 18 f1 3e af ab 1b 3f b1 29 23 3e
       0.8118949 0.47088674 0.60808843 0.15933873
000250 3a c8 dc bc 46 e3 aa 3c e9 cf 62 3f 9b 67 73 3f
       -0.026950944 0.020860326 0.88598496 0.95079964
000260 d3 4f 0c 3f b7 d8 1b 3f 94 57 2e 3e 8a 65 59 bd
       0.548093 0.60877556 0.17025596 -0.05307535
000270 de ff ca 3e e2 10 0d 3e 28 4e f1 3e da 87 bf 3e
       0.39648336 0.13775972 0.4712994 0.37408334
000280 42 d3 fd 3e eb a0 36 be 2b 58 0a 3e 09 e0 cf 3e
       0.4957524 -0.17834823 0.13510196 0.40600613
000290 1a ff b5 be 5a 33 07 3f b5 61 70 bf 58 a9 2d 3f
       -0.3554619 0.5281273 -0.9389909 0.67836523
0002a0 af 4f cb bd 07 8d 4e be 77 18 a5 be a9 15 3e 3f
       -0.09927308 -0.20170985 -0.32245228 0.742518
0002b0 a4 3e 59 3e bc a9 c8 be 10 aa 43 3d 75 07 b1 be
       0.21215302 -0.39191997 0.047769606 -0.34576002
0002c0 0b 4e 61 3e f0 4b 5c 3e f7 be e4 bd b5 29 d8 be
       0.22002427 0.21513343 -0.11169236 -0.4221932
0002d0 03 db e2 3e d6 e0 d8 be cb 49 d2 be ae d5 1f bf
       0.44307718 -0.42359036 -0.41071925 -0.62435424
0002e0 88 2b c0 3d a5 a2 d0 bd e1 23 b4 bc a5 ed 74 bd
       0.09383303 -0.10187272 -0.021989765 -0.059796948
0002f0 54 c5 4a 3f 7f 46 98 be 38 de 89 3e 8b 7d 4c 3f
       0.7920735 -0.29741284 0.26927352 0.79879063
000300 54 c8 6b 3d 6b d5 e2 3e 2f c0 03 bf 59 c7 f9 bd
       0.057564095 0.4430345 -0.51465124 -0.12196226
000310 58 cb 9a be 01 16 fa be 15 0b 71 3f ca 19 82 3e
       -0.30233264 -0.48844913 0.94157535 0.254103
000320 c6 d4 a8 3e df 3f 4e 3e fa df 83 c0 f1 43 23 3f
       0.32974833 0.20141552 -4.121091 0.63775545
000330 43 04 3e 3c 0c 8b cc 3e 85 5e 01 3d 4f ac bc 3d
       0.011597696 0.39949834 0.03158428 0.09212553
000340 16 3c 11 3e be d9 aa 3d b9 1d 54 bf cb 76 2c 3d
       0.14183077 0.08342312 -0.82857853 0.042105477
000350 9b 03 13 bf bd 70 ca 3e 9f 3f 37 3e 05 dd 53 3e
       -0.57427377 0.39539137 0.17895363 0.20689781
000360 56 a8 01 3f 97 a5 f0 bd 1f 03 3a 3e c4 8f cc 3e
       0.50647485 -0.11750334 0.18165253 0.39953434
000370 e5 38 e8 3d d1 4f 13 3f 20 fa b4 be d8 23 19 3f
       0.11338977 0.57543665 -0.3534708 0.5982032
000380 cc 71 db 3e 97 16 2b bf c8 11 1c 3f 30 3a f9 3e
       0.42860258 -0.66831344 0.6096463 0.48677206
000390 63 75 f0 bd a3 2d e5 bd f5 37 d0 be fe bf b6 3d
       -0.1174114 -0.11190345 -0.40667692 0.08923338
0003a0 7f 46 eb be c2 a0 6b 3e f4 ae d0 be 25 fd 20 be
       -0.45952222 0.23010543 -0.4075848 -0.15721567
0003b0 70 84 e0 be 23 07 26 3f fb 13 57 be 1c 23 a4 bd
       -0.43851042 0.6485464 -0.21003716 -0.08014509
0003c0 40 5f 9a be cc 45 80 3e cc 82 c6 be 4f d5 4d 3e
       -0.30150795 0.2505325 -0.38771665 0.20100902
0003d0 b3 84 a8 bd 11 1e 5d bd a0 fc 25 3e 3c d5 5a 3f
       -0.08228435 -0.05398375 0.1620965 0.8548162
0003e0 b1 5b 32 bf 8f 94 ea 3e 1e 5e 50 3f a0 ff 05 3f
       -0.6967116 0.45816466 0.8139361 0.5234318
0003f0 58 31 a6 3f 96 a9 45 3f 59 11 f8 3e 01 55 a0 be
       1.2983809 0.7721189 0.48450735 -0.31314853

weight f4 [100, 200]
000000 60 c7 21 bf 79 e1 b7 bf 69 04 a5 bd 58 dd 3e c0
       -0.6319485 -1.4365684 -0.08057482 -2.9822598
000010 41 65 f8 bf 9b 47 a6 bf dd e4 0b c0 19 14 7f 40
       -1.94059 -1.2990602 -2.1858437 3.9856017
000020 11 b1 ec 3d f2 bd 31 bf ba 16 0a 3f 51 bf 36 40
       0.1155721 -0.6943046 0.5394093 2.855427
000030 45 88 95 bf c1 6a 09 bf 34 51 49 bf 73 76 c0 be
       -1.1682211 -0.5367852 -0.7863953 -0.3759037
000040 8a a7 cc bf 73 90 9c bf 0d fd 81 bf 63 b3 35 3e
       -1.5988629 -1.2231582 -1.015535 0.17744212
000050 b3 25 6d 3e 7e fc 52 3f ee 42 25 40 e8 f4 ad bf
       0.23158912 0.8241652 2.58221 -1.3590364
000060 2d 14 de be 94 85 b7 bf e1 e9 9e 3e 9a 6a 2d bf
       -0.43374768 -1.433764 0.3103781 -0.67740786
000070 af 4e 4c c0 8b 9d dc be 58 a9 86 3f 07 39 44 40
       -3.1923025 -0.43088946 1.052043 3.0659807
000080 2f f8 ff 3f f5 5e 02 40 8c ec 00 40 f4 34 01 c0
       1.9997615 2.0370457 2.0144377 -2.018857
000090 6a 87 9e bf d4 24 a4 bf e4 99 ef bf f9 41 15 c0
       -1.2385075 -1.2823739 -1.8718839 -2.3321517
0000a0 31 18 b4 bf 4f 35 83 bf 82 b9 b0 bf b3 eb c8 bf
       -1.4069883 -1.0250643 -1.3806612 -1.569693
0000b0 aa ba 37 40 52 a1 b5 3f 0c 44 a9 be ea b0 42 3f
       2.870768 1.4189856 -0.33059728 0.760512
0000c0 79 8d 0d 40 39 8e a4 3f e2 13 8a c0 94 47 78 bf
       2.2117598 1.2855903 -4.314927 -0.9698422
0000d0 81 dc a9 be d0 3a 9f bf a9 92 4d be cf 35 c0 3f
       -0.33176044 -1.2439823 -0.20075478 1.5016421
0000e0 83 d6 0a 3f ef 2d 5f 3f f5 d4 6f 40 7c a2 93 3f
       0.5423357 0.87179464 3.7473729 1.1533961
0000f0 a5 81 19 bf 4c b7 b1 bf 20 28 d2 3f be f9 ad bd
       -0.59963447 -1.3884063 1.6418495 -0.084949
000100 79 47 12 3f cd 51 41 bf c1 3c 8b bf ec ca 42 3f
       0.5714031 -0.75515443 -1.0877916 0.76090884
000110 ef 56 79 3e 83 66 e9 3f 61 44 04 3f ba 2f ab bf
       0.24349569 1.8234409 0.5166684 -1.337394
000120 7b bb 3c c0 a8 2f c7 bf 9d fa c2 bf b3 be 16 3f
       -2.948943 -1.5561419 -1.5232731 0.58884734
000130 39 a0 bb 3f 11 3b e1 bf 0c 21 e3 bf 19 c4 8a 3f
       1.4658271 -1.7596151 -1.774446 1.0841094
000140 b7 f5 a8 bf 64 c0 c3 3f 25 cf aa be 8b 77 bf bc
       -1.3199986 1.5293088 -0.33361164 -0.023372432
000150 de 44 db bf 8d 6e e3 3f 48 d0 6a bf 8b a6 2d 3c
       -1.7130392 1.7768112 -0.9172406 0.010598789
000160 9e ca 64 3d 71 07 2e bf 2c 4c a2 3f 1d 79 29 40
       0.055857293 -0.67980105 1.2679496 2.6480172
000170 c7 4d e9 3f 5b 37 eb bf 5e 52 5d 3f c5 14 eb 3e
       1.8226861 -1.8376268 0.8645381 0.45914283
000180 60 55 ab 3f 9a 5f e1 3f ed 43 27 c0 a1 fa 00 3f
       1.3385429 1.76073 -2.6135209 0.5038243
000190 40 e9 da bd f3 47 ad be 48 81 09 bf 24 ae 87 be
       -0.1068902 -0.33843955 -0.5371289 -0.26500046
0001a0 b8 c0 fd 3e f0 53 9a be a2 9f 3d 3a 03 65 f6 3d
       0.49561095 -0.30142164 0.0007233565 0.12030985
0001b0 3d f5 ab bd 17 3a 65 be d3 c8 8b 3e c6 fe 90 be
       -0.08396385 -0.22385441 0.27301654 -0.28319377
0001c0 db f8 6b 3e b8 d4 17 40 58 82 dd 3e 97 3a 68 3f
       0.2304415 2.3723583 0.43263507 0.907144
0001d0 76 0d 01 bf e5 2b 47 be 72 7e 5d 3e d5 41 4c bf
       -0.50411165 -0.19450338 0.21630266 -0.7978795
0001e0 ac a1 92 3e cf 59 f6 be e4 ec 6b bf 92 2e 49 3f
       0.2863897 -0.48115394 -0.9215834 0.78586686
0001f0 d9 00 54 3d 98 b3 47 3e a0 19 9c be 1f 42 25 be
       0.05175862 0.19502103 -0.304883 -0.16138504
000200 a7 68 a7 3d 99 d8 9c 3e ff 97 8b 3f 2f 99 91 bc
       0.08174258 0.30634 1.090576 -0.017773239
000210 a6 bd f8 bd f7 66 9e bf e8 31 53 bf c6 22 2b bf
       -0.121455476 -1.2375172 -0.82498026 -0.66849935
000220 40 82 9d bb c7 c9 a8 3e bd 93 ae bd 5e 60 9b 3f
       -0.004806787 0.32966444 -0.085242726 1.2138784
000230 57 0a cf bd a1 ad 20 3f c8 5a 31 bf 0c ea 65 3e
       -0.10109394 0.62764937 -0.69279146 0.22452563
000240 b7 65 02 bf e9 da 82 3f b7 2a 97 bf 81 d8 db bd
       -0.50936455 1.0223056 -1.180991 -0.10734654
000250 77 96 11 bf 5f e5 42 3e 7a ac e4 3f 55 d5 4f 3f
       -0.56870216 0.1903281 1.7865136 0.81184894
000260 e1 02 4e 3e 4b e1 81 3e d5 46 1e 3c ec 06 9c be
       0.20118286 0.25367197 0.009660442 -0.3047403
000270 3e 9f 53 bf 1f 5b a7 3e b7 33 46 bf 52 44 0b 3f
       -0.8266486 0.32686707 -0.7742266 0.54401124
000280 c5 1a d8 bc 43 c3 07 bf 78 b7 81 bf 9e cd 38 3f
       -0.026379952 -0.5303232 -1.0134115 0.72188747
000290 07 9e ac 3e 73 16 2b 3f 87 fb b6 3d 92 34 61 3f
       0.33714315 0.6683113 0.08934694 0.8797084
0002a0 3e ae d1 be dd 06 de 3c ff 01 37 be 06 6b b2 be
       -0.4095325 0.027102882 -0.17871855 -0.34847277
0002b0 99 45 e5 3e bc 47 39 be 18 f9 27 bf a8 e7 61 3f
       0.4477966 -0.1809377 -0.6561446 0.88244104
0002c0 69 f3 4f bf 17 2e b0 3e 4a b5 88 3e 8c 57 d1 be
       -0.8123079 0.34410164 0.26700813 -0.40887105
0002d0 21 1e e8 be a0 ab 38 3d f1 8b d0 3e 25 17 13 be
       -0.45335487 0.04508555 0.40731767 -0.14364298
0002e0 85 f8 fb be 2a 25 7f 3f d0 53 22 3d 17 30 75 3f
       -0.49213043 0.9966608 0.03963071 0.95776504
0002f0 09 15 ae 3f 1a aa 85 be b9 4d 1f 3e 2c 70 17 3f
       1.360017 -0.2610634 0.15556993 0.59155536
000300 8d e7 08 bf 01 46 a2 3e 48 94 ce bd b0 5f 13 3e
       -0.5347832 0.31694034 -0.10086876 0.1439197
000310 47 e4 86 3d e6 34 57 3d d9 e5 54 3f 62 6a 5f be
       0.06586509 0.052540682 0.8316322 -0.21817926
000320 08 a1 01 40 fa cf db 3e a5 cf 37 40 cc 25 96 bf
       2.0254536 0.4293211 2.8720486 -1.1730285
000330 50 1f 9c 3f 73 f2 3c bf ab c8 3b 3f 5a 00 ba 3f
       1.2197056 -0.7380745 0.7335307 1.4531357
000340 36 37 0c 40 4e 43 8f be 24 1f 9a 3f e8 d1 01 3e
       2.1908698 -0.27981037 1.2040753 0.12677729
000350 f1 34 38 be d7 ca 8b be b1 41 3a c0 7f 81 74 bf
       -0.17988946 -0.27303192 -2.9102595 -0.95510095
000360 b9 0c 84 bf e3 a1 05 3f 31 28 6c be 34 30 22 3f
       -1.0316383 0.52200145 -0.23062207 0.633548
000370 76 22 3f 40 13 ca 24 3f b8 29 22 40 5b 2c 8d 3d
       2.9864783 0.6437084 2.5337963 0.06893226
000380 65 a9 bf bf e3 a7 45 3e db ae 06 40 b9 50 86 3f
       -1.497357 0.19302325 2.1044223 1.0493385
000390 32 0f 06 3e e4 e1 2c 40 5a 4a 86 3f 09 1b 8c 3f
       0.13091734 2.7012873 1.049144 1.094575
0003a0 f4 53 9c 3d 1e a5 c6 3f d7 5f 2a 3d d0 cb 32 40
       0.076332 1.551914 0.041595306 2.7936897
0003b0 ed 0e 59 40 5c bb 56 bf 07 d8 b8 3f 85 99 81 3e
       3.391536 -0.8387964 1.4440926 0.2531244
0003c0 6a 15 ea bf 1c 47 83 be eb 09 a3 bf be 58 ea bf
       -1.8287785 -0.2564019 -1.2737402 -1.8308332
0003d0 3a 07 13 3f 89 63 2d 3e 41 56 12 c0 29 43 07 3f
       0.574329 0.16932501 -2.2865145 0.52836853
0003e0 24 32 46 c0 5e ba a0 bf d7 e8 44 c0 67 c6 64 c0
       -3.0968103 -1.2556875 -3.0767114 -3.5746095
0003f0 25 87 d2 bf 7c ae ff bf 7a 10 6d bf c7 5c 32 40
       -1.6447493 -1.9975123 -0.92603266 2.7869127

weight f4 [100, 100]
000000 70 f6 71 3d fb e7 ba 3d 2d ad 87 3d 2b e0 a6 3d
       0.05907291 0.09126278 0.066248275 0.081482254
000010 60 05 e3 bc c7 78 b0 3c f3 5b 82 bd 60 fb c4 3c
       -0.027712524 0.021541966 -0.06365194 0.024045646
000020 27 0e 17 bc c5 e9 b9 bd 08 57 85 3d 33 62 62 bd
       -0.009219683 -0.09077791 0.065107405 -0.05526943
000030 8b d3 92 bd b0 72 0f 3d ed b2 56 bd c7 db 42 3d
       -0.07169255 0.035021484 -0.05241673 0.047572877
000040 ad b2 a6 3c 95 81 93 3d 4d fe 4d 3c 9d d8 8c 3d
       0.020348871 0.0720245 0.012572837 0.06877253
000050 f3 55 19 bd 0d 1e 05 3d 58 ef a8 3d 40 41 0a bc
       -0.037435483 0.03249936 0.08248776 -0.008438408
000060 5a 07 48 bc ba c0 ef bc 30 ff 96 3d d8 8c ba bd
       -0.012208784 -0.029266704 0.07372892 -0.09108895
000070 07 23 7c bd 2d 9a f7 3c 3a 7e 3d 3d 07 fb a9 3c
       -0.061556842 0.030224884 0.046262957 0.020749582
000080 9a f9 a3 3a e7 a0 44 bd b3 a4 2b bd da 6e 24 bd
       0.00125103 -0.04800501 -0.041905116 -0.04014478
000090 17 2c 9f 3d 00 9b 94 3b 00 a9 20 bb 00 aa 68 bd
       0.07772081 0.004535079 -0.0024514794 -0.05680275
0000a0 a8 f5 8f 3d 85 c6 b0 bd f3 70 03 bd 50 36 1b bd
       0.07029277 -0.086316146 -0.03209014 -0.037893593
0000b0 ff 66 a9 bd 3a 65 9a bc c7 f9 9a bd 80 1c c2 3b
       -0.08271598 -0.018847097 -0.075671725 0.0059238076
0000c0 fa b7 17 3d 43 87 c2 bd 40 29 e9 3c 67 70 45 bd
       0.037040688 -0.094984554 0.028462052 -0.0482029
0000d0 e3 79 47 bd 67 13 3b 3c c0 e4 f5 3c 4d 03 61 bd
       -0.048700225 0.0114182 0.030016303 -0.05493479
0000e0 a7 c6 73 bc bd a2 02 bd e0 83 6d bd 00 da 1a 3d
       -0.014878905 -0.03189348 -0.057987094 0.037805557
0000f0 67 ec 24 bc 1f 67 a4 bd 93 0d 41 bd 7a d0 a5 bd
       -0.010066128 -0.08027481 -0.047132086 -0.080964044
000100 53 01 a5 3d 4d 95 c2 3d d8 9b 8f bd 65 97 b9 3d
       0.08056893 0.09501133 -0.07012147 0.09062079
000110 a0 26 cf bc e7 a0 e0 bc 0d f0 f8 3c da 7b 8d bc
       -0.025286973 -0.027420474 0.030387903 -0.017270971
000120 fd 27 c5 3d 47 30 3b bd 9d 8f 3a bd 5a 1f 2e 3c
       0.09626768 -0.045700338 -0.045547117 0.010627592
000130 b8 db 83 3d ed 2e 5f bd 40 05 0b 3d fa f3 6f bd
       0.064383924 -0.05448811 0.033940554 -0.058582284
000140 28 d9 8b bd 73 72 88 3c 68 17 90 bd e5 29 99 bd
       -0.06828529 0.016656136 -0.070357144 -0.07478694
000150 fd 87 ba 3d 60 35 bb bc c7 0b 6d 3d d5 ca a1 3d
       0.09107969 -0.0228526 0.05787256 0.07900015
000160 f0 5d 63 bd 2d fb 28 3d d5 9b c1 3d 07 58 cb 3c
       -0.055509508 0.041255165 0.09453551 0.024822248
000170 ba 8b 98 3d 73 f1 39 bd 8d 0c 52 3c 83 18 68 bd
       0.07448526 -0.04539628 0.012820375 -0.056664
000180 50 29 7b 3d d0 24 53 bd 4d 4e f4 3c ad 05 b2 bc
       0.061318696 -0.05154878 0.029822493 -0.021731222
000190 cd b4 71 3b 8d 89 44 3c a7 53 a2 bc 00 fc 64 bc
       0.0036881447 0.011995685 -0.01981528 -0.013976097
0001a0 85 45 a6 bd 0a 08 4b 3d 9a 77 98 bc 9a 10 56 bd
       -0.081187285 0.049568214 -0.018611718 -0.052261926
0001b0 9a f4 f7 3c 67 b8 50 3c 33 2e 3b bd 33 2d 0f 3b
       0.030268002 0.012739277 -0.045698356 0.002184701
0001c0 08 1e 9b 3d ed e8 32 3d fd b1 8d 3d 87 54 a7 bc
       0.075740874 0.043679167 0.06918714 -0.020426048
0001d0 af 8c c0 3d b5 da 94 3d 3a 0e eb bc c7 33 7c 3d
       0.09401833 0.072682776 -0.028693307 0.061572816
0001e0 1d 89 98 bd ea b5 78 3d 43 f6 4f bd 00 db 94 3d
       -0.07448027 0.06072036 -0.050771963 0.072683334
0001f0 33 7b 9c 3c a0 0c f4 3c 82 df a3 bd 87 c6 59 bd
       0.019101715 0.029791176 -0.08001615 -0.053167846
000200 f7 60 45 3d 10 65 44 bd a0 eb ac bc 2d 82 43 3d
       0.048188176 -0.047947943 -0.021108449 0.047731567
000210 3d a1 70 bd 1a fb b1 bb 33 24 4d 3d 12 c8 ae 3d
       -0.05874752 -0.005431545 0.05008335 0.08534254
000220 67 12 14 3b 80 a0 95 3c 0d b5 f5 3c 27 5c c3 bc
       0.0022593976 0.018265009 0.029993558 -0.023847653
000230 b3 33 89 3b 70 09 22 bd ff c2 a0 bd 7d 25 7d 3d
       0.004187071 -0.03955978 -0.078496926 0.06180333
000240 7d 27 18 3d 40 93 40 bc bd 02 1f 3d db e7 a8 3d
       0.037147034 -0.011753857 0.03882097 0.08247348
000250 68 b0 98 3d 37 38 56 bd 2d 5c 0b bd 55 a9 aa bd
       0.07455522 -0.052299704 -0.034023453 -0.08333079
000260 7b ed 8f 3d 0d 35 11 bc 00 53 5b 3c fd 42 70 3d
       0.07027718 -0.008862746 0.013386488 0.058657635
000270 ba 85 ed bc 37 34 60 bd 07 6a 49 bd 3a 82 7e bd
       -0.02899443 -0.054737296 -0.04917338 -0.062135912
000280 9a ef 6a bb 60 fc aa bc b3 b1 ee 3b 5a da f1 bc
       -0.003584838 -0.020872295 0.007284367 -0.029523063
000290 5a a6 30 3d 0d 59 f5 3c b3 fc f5 3b 00 7a 9f 3a
       0.043127395 0.02994969 0.0075069307 0.0012167096
0002a0 2b 94 94 bd e0 1b a5 3c ba 43 be bc 8a 37 6d bd
       -0.07254823 0.020154893 -0.023225654 -0.057914294
0002b0 ba 9a 1a bd 13 04 e1 bc b3 02 32 bd f8 b0 c8 3d
       -0.037745215 -0.027467763 -0.043459605 0.09799379
0002c0 48 33 92 bd 27 6d 3c 3d 2d 58 32 3d 00 d2 19 bd
       -0.07138687 0.046002533 0.043541122 -0.037553787
0002d0 07 e0 3b 3d 33 a3 8d 39 4d 85 ad bb 8d 5d 88 bc
       0.045867946 0.0002701521 -0.0052954317 -0.016646171
0002e0 e3 6c a7 3d c0 3c 68 bd 27 74 42 bc 10 c3 11 3d
       0.08175065 -0.05669856 -0.011868513 0.035586417
0002f0 00 f4 3d bd ca 6b 99 3d c0 e9 f6 bc 25 66 b9 bd
       -0.046375275 0.07491262 -0.030140758 -0.09052686
000300 15 79 93 3d 28 4f a2 bd d0 ec 91 3d c2 64 b7 bd
       0.07200829 -0.07925254 0.071252465 -0.08954765
000310 8f 59 93 3d 35 05 be 3d 17 d5 86 bd b0 af 0f bd
       0.07194816 0.09278337 -0.065836124 -0.035079658
000320 73 14 9f 3c cd a3 6b bd f0 15 51 bd aa 6e 9e bd
       0.01941893 -0.05752926 -0.05104631 -0.07735951
000330 d0 bc 76 3d e7 7a a7 bd e3 22 94 bd 98 81 9c 3d
       0.06023866 -0.08177739 -0.072332166 0.076419055
000340 1a 2e 95 bc 03 78 b4 3d 6b 0b 8c 3d f0 67 56 3d
       -0.01821046 0.08811953 0.06838115 0.052345216
000350 23 39 86 3d 87 47 91 bd 6d c7 bf bd 9a 64 80 bd
       0.06553867 -0.07093721 -0.09364209 -0.06269188
000360 87 d9 a6 3d 77 12 3f bd 9a 65 0f 3d f0 57 53 3d
       0.08146959 -0.04664847 0.035009004 0.051597536
000370 9d 64 1a bd 97 5b b2 bd 83 f8 49 3d cd dd 0e bb
       -0.03769361 -0.087088756 0.049309265 -0.0021799684
000380 4d ba 6b bc 0f a0 be bd 2a 38 39 3d e7 d4 54 bd
       -0.014387679 -0.093078725 0.045219578 -0.051960852
000390 7a 09 c4 bd 33 fc 5a bd 67 c2 22 3d c0 27 44 bc
       -0.0957212 -0.053463172 0.039736178 -0.011972368
0003a0 4d 2f f4 bc b0 57 9a bd 03 40 22 bd 8a 2b 37 3d
       -0.029807711 -0.07536256 -0.039611828 0.044719256
0003b0 9d c9 0d bd c7 cc 1f bd a7 f5 70 bc 7b 22 91 3d
       -0.0346161 -0.03901365 -0.014707006 0.07086655
0003c0 73 6b 83 3d 0a f0 96 bd 33 1f 73 3b 33 6f fa bc
       0.06416979 -0.073700026 0.0037097454 -0.030570602
0003d0 cd f3 2e bc 37 12 74 3d 4d aa 4f bc 0a 1c 42 bd
       -0.010678244 0.059587684 -0.01267488 -0.04739002
0003e0 23 e6 a2 bd 50 a4 56 bd ef 2b 96 3d 33 09 4f bb
       -0.07954051 -0.052402794 0.073325984 -0.0031591177
0003f0 9d 29 33 bd 5a f2 52 3c 08 09 b1 bd 67 db 5d bb
       -0.043740857 0.012875164 -0.08644301 -0.0033852698

weight f4 [100, 200]
000000 19 99 78 3c f6 c0 81 3d 52 01 8a 39 97 93 87 bd
       0.01517322 0.063356325 0.00026322395 -0.066199474
000010 3e ac 41 3c e5 fc 4e bd 48 36 9e bc 24 36 90 3d
       0.011820851 -0.050534148 -0.019312993 0.070415765
000020 00 d9 19 bb 83 34 ba bc 9e f9 d0 3c 89 37 ed bb
       -0.002347529 -0.022730118 0.025509652 -0.0072392863
000030 a1 1e ca 3c 4f 6b 04 3d 00 ea 88 3d dc 93 89 bc
       0.024672808 0.0323289 0.06685257 -0.016794138
000040 1a e2 74 bd 91 51 8f bd 06 49 e5 3c e1 52 8a 3d
       -0.05978594 -0.069979794 0.027988922 0.06754089
000050 4a 4b 2d 3d 3d 02 b6 3c 16 73 ea bc 50 ab 11 bd
       0.04230813 0.022217864 -0.02861933 -0.035563767
000060 e7 90 64 3d ac 7e e9 3c 68 15 63 3d 9d bb 80 3c
       0.055802252 0.028502785 0.055440336 0.015714461
000070 30 9e 7c 3c 79 d1 ab 3c c8 1a 43 3d 15 d7 e7 3c
       0.015418574 0.020973908 0.047632962 0.028300801
000080 43 ad aa bb 94 9e e2 3c ef 18 a4 ba e2 b2 ec bb
       -0.0052086427 0.027663507 -0.0012519638 -0.007223473
000090 f6 0e ba 3c e3 51 b1 3c b0 cb 54 3c 2d ff f0 bc
       0.022712212 0.021645492 0.012988016 -0.029418552
0000a0 3d bd 84 3c d8 57 87 bd 07 88 84 bc 59 9b bb bc
       0.016203517 -0.06608552 -0.016178144 -0.022901224
0000b0 91 50 88 bd 13 0c 41 bd f9 aa c8 3c 53 3a 90 3c
       -0.06655992 -0.047130655 0.024495589 0.017605936
0000c0 21 91 47 3d 70 6e 52 3d 4f 1d ac 3b 2c c6 10 3d
       0.04872239 0.051374853 0.0052525173 0.03534524
0000d0 ef e0 88 bd dc 7f 06 3c 37 43 94 bc dd fc d8 bc
       -0.06683528 0.008209195 -0.018098457 -0.026487762
0000e0 03 0d f9 bc 9f d1 70 bd 19 3a 78 bd b6 e4 85 3d
       -0.030401712 -0.05879366 -0.06060228 0.06537764
0000f0 e0 5e d1 bc 1e e5 33 bd 82 81 43 3d 5a a8 8a bd
       -0.025557935 -0.043919675 0.04773093 -0.06770392
000100 95 07 11 bd fd 21 83 3d 0c 4c a7 39 4e 39 61 bd
       -0.03540762 0.06402967 0.00031909382 -0.05498629
000110 31 79 33 3d 0c 48 8a 3c f3 bf 7e 3d d8 16 52 3d
       0.04381675 0.016880058 0.062194776 0.051291317
000120 0d ee 80 bc 15 a5 6f bc 85 ba 94 bb 5c 85 30 3b
       -0.015738511 -0.014626761 -0.0045388364 0.0026934957
000130 9d fc c2 bc dc 90 41 bd 0c c3 36 bd 8a 80 07 3c
       -0.023802096 -0.04725729 -0.044619605 0.008270392
000140 c6 10 5a bd 52 d7 70 bd a8 f4 48 3d 6d 91 b6 bc
       -0.053238653 -0.058799095 0.049061447 -0.022286141
000150 18 71 8e bd 48 c5 1a bc 55 e2 85 bc 0d 81 53 bd
       -0.06955165 -0.00944645 -0.016343275 -0.051636744
000160 da cc e1 bc 95 c8 60 3d b4 da 27 bd 74 74 8b 3d
       -0.027563501 0.05487879 -0.040980056 0.06809321
000170 35 ba 81 3c 9f fc 79 bd 74 13 65 3d ff c4 a9 3c
       0.01583586 -0.061031934 0.055926755 0.020723818
000180 3e dc 50 3d fe 18 51 3d 58 7d 0a 3c 0f d4 04 3d
       0.05099129 0.051049225 0.008452736 0.032428797
000190 8f 95 13 bd 1b b1 29 bb be 69 49 bd af c7 30 bb
       -0.036031302 -0.0025892917 -0.04917311 -0.002697449
0001a0 03 29 59 bd f6 b1 8d bc 41 5b 75 bd 94 73 9f 3c
       -0.053017627 -0.017296772 -0.05990148 0.019464292
0001b0 b4 43 e5 3b 61 f4 8b 3c fa 47 89 bd 07 8f 5d 3d
       0.006996596 0.017084302 -0.067031816 0.05409148
0001c0 be e1 c4 3c a0 1d 3d 38 74 f6 6d bc d1 15 f7 3c
       0.024033424 4.5088702e-05 -0.014524091 0.03016177
0001d0 9d e5 06 3c fd 84 2d 3d 6c 3c 59 3d 86 e4 5c bd
       0.008233455 0.042363156 0.05303614 -0.053928874
0001e0 44 51 f5 3c 4c 32 1d 3b f4 07 b9 3b 76 66 ae 3c
       0.029945977 0.0023986278 0.0056467 0.021289092
0001f0 d7 45 3f 3d 43 1a 09 3d 3b c4 ba 3c a5 c7 4d 3d
       0.046697464 0.03347231 0.022798648 0.050239224
000200 62 3b 2a 3d 15 11 be 3c de 26 d5 ba 1a 3d 87 3d
       0.041560538 0.023201505 -0.0016262194 0.06603451
000210 77 47 8a 3d 33 3f c2 bc b5 d8 7b bd 3e 76 29 bc
       0.06751912 -0.023711776 -0.061485965 -0.010343133
000220 66 07 8b 3d 4a 87 89 3d b4 0c 77 3d 9c 3d 87 bc
       0.067885205 0.067152575 0.06031485 -0.01650887
000230 96 02 83 bd 51 8e e9 3c e3 fd 6c bd ff 03 f9 bc
       -0.063969776 0.028510245 -0.057859313 -0.030397413
000240 20 0b 46 bd 3d 4d 11 bd bf 46 23 bc db 7e 22 bd
       -0.048350453 -0.03547405 -0.009965598 -0.03967176
000250 3d 34 b9 bc 6e 45 57 3c a2 a9 f2 bc 6f f0 83 3d
       -0.022607917 0.013139112 -0.029621903 0.064423434
000260 ba 7d 87 3d 10 04 8d 3d 30 72 85 3d 31 9c 79 bd
       0.06615777 0.068855405 0.0651592 -0.06093997
000270 b2 9d a0 ba d2 57 f2 3c ba f9 bd 3c 01 e2 0a bd
       -0.0012254028 0.029582892 0.023190368 -0.03390694
000280 18 4b bb 3c 86 fc 0d 3d 59 7e 28 bd b3 99 cc 3c
       0.022862956 0.034664653 -0.04113612 0.024975633
000290 87 cf a2 bc f2 24 88 3d ab f0 fe bc 95 d1 53 3c
       -0.019874347 0.06647672 -0.031120619 0.012928386
0002a0 38 43 7b 3d bd fa 8a 3d cc 82 43 bd 6e 8d 18 3d
       0.0613434 0.06786106 -0.04773216 0.037244253
0002b0 6d 88 a6 bc 75 7b 9e 3b b9 24 2f bd d4 5c 90 3d
       -0.020328725 0.0048364946 -0.04275963 0.070489556
0002c0 85 eb da bb df 82 94 bb 2a ad 0c bd ba 89 62 bd
       -0.006680908 -0.0045322026 -0.03434483 -0.055307128
0002d0 33 d2 3f bd 18 95 39 3a 58 19 88 3d f0 e6 de 3c
       -0.04683132 0.00070794066 0.06645459 0.027209729
0002e0 87 0c bf 3b 48 dd b6 bc b5 26 09 3d 44 62 06 bc
       0.005830351 -0.022322312 0.03348418 -0.008202139
0002f0 de c8 3b bc 9f 00 b5 3c 4f 19 5f 3d 51 5e 5b 3d
       -0.011461465 0.022095023 0.054467496 0.053556744
000300 ad 96 85 3d 24 de 69 bd 70 6d 56 bd 6a ac 5e 3d
       0.0652288 -0.057096615 -0.05235046 0.054363646
000310 7d 23 37 bd 2e 57 6d bd ae 49 30 3d 9d db 5e 3d
       -0.04471158 -0.05794447 0.043039016 0.05440866
000320 a3 bd 45 bb 73 03 cd ba 0b 2d 23 ba d0 e1 c4 3c
       -0.0030172847 -0.0015641287 -0.00062246685 0.024033457
000330 0a 1d f6 bc 88 4a c2 3c 4d 07 44 3c 58 35 37 bd
       -0.030043144 0.02371718 0.011964631 -0.044728607
000340 9c 2c 01 bd 66 61 41 3a 32 a3 74 3d 6c 77 2b bd
       -0.031536683 0.0007376879 0.059725948 -0.041861936
000350 a0 dd 81 3d ca 38 c3 3c c3 b5 61 bd 2b 0c 5a bd
       0.063411 0.02383079 -0.055104982 -0.05323426
000360 5a 13 55 3c d5 08 8b bd 08 aa 6f bc 63 97 8f 3d
       0.013005102 -0.06788794 -0.014627941 0.070112966
000370 2b 43 38 bc 97 de b4 3c 5f 13 1e bc 4e 21 18 bd
       -0.011246483 0.022078795 -0.009648173 -0.037141137
000380 00 61 9d 3c 5e 33 d3 3a cf 26 c7 3c b3 28 d0 3a
       0.019211292 0.0016113331 0.024310498 0.001588127
000390 9d 5c 77 3d ec c2 e4 3c dd e2 46 3d 89 0d 4a 3c
       0.060391057 0.027924977 0.048556197 0.012332329
0003a0 22 7a c4 3b 1d 4d 56 3d 07 02 35 3d 14 45 14 bd
       0.0059960047 0.052319635 0.044191387 -0.03619869
0003b0 73 dd 01 bd d7 98 ae 3c 37 2b 37 bd fd 40 8b bd
       -0.03170533 0.021313114 -0.044718947 -0.06799505
0003c0 ca d9 6e 3b b2 06 27 bd 6e fa 97 bc a7 21 bd 3c
       0.003644573 -0.04077787 -0.018552031 0.023087336
0003d0 d2 af 86 bc 84 5a 81 3d 63 84 25 3c 51 64 5f 3d
       -0.01644126 0.063160926 0.010102364 0.05453903
0003e0 00 57 e2 bc b8 80 8b bd 07 a6 b9 3c 1e 54 f1 bc
       -0.027629375 -0.068116605 0.022662176 -0.029459056
0003f0 ad 47 43 3c 8f a9 75 3d 58 8c 8c bd 0e 5d 2f 3d
       0.011918944 0.059976157 -0.06862706 0.042813353
