model/verify/Amazon_Musical_Instruments/recommendation_hit_recommendation_drop.model (torch, 245327 bytes, 6 tensors)

weight f4 [2, 100]
0.21063021 0.12650926 0.2906297 -0.021133859 -0.043340705 -0.045904875 0.018891625 0.34946972
-0.20218374 0.13185468 -0.028574705 -0.14520301 0.047374107 -0.47920543 -0.3640915 0.40173563
-0.33396024 0.3800176 -0.14884555 -0.27302343 0.26330867 0.097430564 0.049379982 0.13377164
0.053931437 -0.22058058 -0.13652846 0.16956848 0.36120108 0.043327443 0.16964763 -0.42517307
0.19939415 -0.098666266 0.47866854 -0.2838197 -0.3725006 0.08868106 0.13077906 -0.1473649
-0.14259256 -0.4376376 0.36183122 -0.36105555 0.21017398 0.7717677 -0.14688316 -0.297907
0.22202063 -0.16863862 0.5211831 0.5913856 -0.037758924 0.4875121 0.2234935 -0.4305433
-0.17927581 -0.038241968 -0.41954374 -0.20506825 -0.3888087 -0.2691353 0.5430548 0.287528
0.24028589 0.23362352 0.032081977 -0.041353937 -0.022695452 0.31317496 -0.1843977 0.4335715
-0.2148098 -0.26708433 0.16908331 0.2748534 -0.39854982 -0.005880576 0.052266844 -0.28132173
0.3449255 -0.042447984 0.029403036 0.2255465 0.35459438 0.007155642 -0.012802669 0.22980489
0.4208758 -0.05659829 0.14194039 0.44156724 -0.18014002 0.28490528 -0.16490705 -0.46219566
-0.026544772 -0.3484644 -0.2823754 -0.52003103 -0.08408187 0.020968894 -0.30199358 -0.058336444
0.10642728 -0.03906738 0.041666385 -0.35093632 0.16061589 -0.11033877 0.008258038 0.08531894
-0.05659272 0.4850792 0.2964475 -0.28478977 0.29260278 -0.3024052 0.24666135 0.17994003
-0.2813247 -0.19645804 -0.14051905 -0.26100016 -0.17959304 0.27110422 0.07543766 -0.14351648
-0.29809403 -0.08660862 -0.18967621 0.49818686 -0.172903 -0.03218339 -0.54898584 0.2930374
0.41694534 -0.14859074 -0.03847878 0.23748295 0.26732174 0.251279 -0.38372368 0.3898288
-0.07616384 -0.6653732 0.33442575 0.23374261 -0.13848883 0.17957234 -0.50126964 -0.5552701
-0.049307697 -0.43535113 -0.11774789 0.3683675 0.12743473 0.1325285 0.43821383 0.22302993
0.23561375 0.31654015 -0.553579 -0.23785524 -0.29167125 -0.34756446 -0.09609632 0.057216775
0.10658867 -0.31669658 0.19378716 -0.34660193 0.18827246 0.2286579 -0.1586089 -0.39363837
0.30115756 -0.025822831 -0.2317725 0.27568692 -0.34997854 0.045561686 0.032960918 -0.123845726
-0.23724404 0.012481201 0.015644092 -0.23802477 -0.2887973 0.09301297 -0.1589559 -0.6094174
0.014677686 -0.34182364 0.14242156 0.52400225 0.045260224 0.2966534 0.28761882 0.5668305
00000000: 72af 573e a58b 013e 6bcd 943e ea20 adbc
00000010: 0686 31bd c006 3cbd 9cc2 9a3c b2ed b23e
00000020: 4109 4fbe ea04 073e 8015 eabc 19b0 14be
00000030: 5a0b 423d 6a5a f5be 336a babe 4bb0 cd3e
00000040: d6fc aabe ab91 c23e f86a 18be bac9 8bbe
00000050: 65d0 863e ad89 c73d aa42 4a3d 6ffb 083e
00000060: 36e7 5c3d e0df 61be 1ece 0bbe 5ca3 2d3e
00000070: 59ef b83e 1e78 313d 1cb8 2d3e 49b0 d9be
00000080: fb2d 4c3e 8a11 cabd 0b14 f53e d150 91be
00000090: 66b8 bebe 6a9e b53d f2ea 053e d3e6 16be
000000a0: c903 12be 0912 e0be f141 b93e 46dc b8be
000000b0: d937 573e 9192 453f 8a68 16be 4487 98be
000000c0: 6059 633e 9aaf 2cbe 416c 053f 0c65 173f
000000d0: 1aa9 1abd 309b f93e 7bdb 643e 2c70 dcbe
000000e0: 1494 37be 9ca3 1cbd 70ce d6be 69fd 51be
000000f0: ef11 c7be 1acc 89be a405 0b3f df36 933e
00000100: 810d 763e 013b 6f3e 6468 033d bf62 29bd
00000110: d0eb b9bc 7858 a03e c0d2 3cbe 15fd dd3e
00000120: 1af7 5bbe 47bf 88be 2d24 2d3e 96b9 8c3e
00000130: b90e ccbe d9b1 c0bb c215 563d 6709 90be
00000140: 139a b03e f0dd 2dbd a3de f03c a9f5 663e
00000150: 658d b53e e079 ea3b 49c2 51bc f951 6b3e
00000160: 087d d73e 9cd3 67bd d258 113e 1a15 e23e
00000170: a076 38be 1bdf 913e 65dd 28be e9a4 ecbe
00000180: 6c74 d9bc ed69 b2be 8293 90be c120 05bf
00000190: 1e33 acbd f5c6 ab3c e79e 9abe 32f2 6ebd
000001a0: 8cf6 d93d 1e05 20bd 5faa 2a3d edad b3be
000001b0: 7e78 243e 4bf9 e1bd b94c 073c b2bb ae3d
000001c0: c5cd 67bd 4d5c f83e f7c7 973e f7cf 91be
000001d0: 08d0 953e dbd4 9abe cb94 7c3e 3342 383e
000001e0: cb09 90be 4c2c 49be 3ae4 0fbe d0a1 85be
000001f0: 3de7 37be 2cce 8a3e 0f7f 9a3d fcf5 12be
00000200: c89f 98be dc5f b1bd 7b3a 42be 5912 ff3e
00000210: 7c0d 31be bbd2 03bd 568a 0cbf 0009 963e
00000220: dc79 d53e 2c28 18be ed9b 1dbd bb2e 733e
00000230: 65de 883e a4a7 803e 6e77 c4be a497 c73e
00000240: cafb 9bbd e655 2abf da39 ab3e 395a 6f3e
00000250: 04d0 0dbe d0e1 373e 3553 00bf 2e26 0ebf
00000260: def6 49bd 58e6 debe ce25 f1bd aa9a bc3e
00000270: 407e 023e 8db5 073e 905d e03e f561 643e
00000280: bb44 713e 8d11 a23e 5ab7 0dbf 5390 73be
00000290: ef55 95be f8f3 b1be 26ce c4bd 235c 6a3d
000002a0: 294b da3d 0e26 a2be 2470 463e cf75 b1be
000002b0: 7fca 403e 4c25 6a3e 5f6a 22be f88a c9be
000002c0: 5331 9a3e 678a d3bc c555 6dbe d626 8d3e
000002d0: 6330 b3be e49e 3a3d 0702 073d d4a2 fdbd
000002e0: 1af0 72be f47d 4c3c 0a28 803c c4bc 73be
000002f0: 3ddd 93be 967d be3d 56c5 22be c702 1cbf
00000300: ad7a 703c 8203 afbe f5d6 113e 0325 063f
00000310: c962 393d f4e2 973e c642 933e ce1b 113f

bias f4 [2]
0.061122485 0.031075805
00000000: 925b 7a3d b092 fe3c

weight f4 [100, 100]
-2.5345385 0.37693104 0.10485983 0.06760983 0.18161054 0.6277286 -0.075171985 -0.18820319
0.04839196 0.06681971 -0.049858324 0.062817365 0.13007589 0.08190239 0.1284602 -0.15781282
0.5419386 0.062847055 -0.030541377 0.20863947 -0.2316824 0.07733197 -0.20829323 -0.23839295
-0.055581715 -0.158236 0.024414718 0.06720595 0.14864032 0.10170364 0.1958514 -0.015355947
0.46811676 0.13971768 -0.29407293 -0.458194 -0.13923834 0.12491003 -0.04831717 -0.24320619
0.17645076 0.58033335 0.030267024 -0.23999906 0.34309846 -0.3513651 0.010956799 0.18349242
-0.07714445 0.017894283 -0.026062865 0.0023201553 -0.14139977 -0.22082683 -0.32089797 -0.17483208
-0.12556595 0.08995692 0.05633657 0.029564783 0.1892804 -0.048874035 -0.4502621 0.16020182
-0.0714049 -0.032573957 -0.06451038 -0.11321527 -0.021877037 -0.056533653 -0.3121948 0.04487088
0.1230742 0.12025189 -0.22519839 -0.43784544 0.04239858 -0.11349419 -0.47228795 -0.23195931
-0.07592003 -0.1571522 0.14699101 0.0802542 -0.015122553 0.3086269 -0.21837325 0.3596843
-0.18792905 0.2771653 0.07923859 -0.20134751 -0.5602179 -0.034086425 0.057859078 -0.24352443
-0.001803101 -0.020294303 0.011163686 -0.0500136 0.021936001 -2.3467817 0.18334879 0.22149117
0.36400154 0.1879283 0.08306272 -0.26907015 0.29725266 0.044311732 0.23482707 -0.28297442
0.2407307 -0.21611187 0.25050825 -0.28927037 -0.05658801 -0.12850732 0.09549674 -0.40194458
-0.77665746 0.3229489 -0.21299851 -0.22702675 -0.27657905 0.2614146 -0.017047947 0.3831758
-0.004784481 -0.32982484 -0.08595137 0.07000888 -0.04812092 -0.22248933 -0.06505359 0.07813091
0.3103493 0.28641215 -0.04639202 0.08894096 0.13077793 0.14011416 0.3525299 0.043512333
0.37344673 0.30220318 0.38301334 0.22668956 -0.29550624 -0.06177238 0.44278738 0.34247035
0.15242924 0.16300842 0.12500055 0.08273063 0.1958185 0.069291264 0.09073592 0.26173392
0.21263869 -0.2370663 0.117042504 0.23446327 -0.27737337 0.09880285 -0.489545 0.35852382
-0.02889253 -0.02301525 -0.092937194 0.4024217 0.14863582 -0.1085911 0.19279788 -0.14253125
-0.11613688 0.0017983781 -0.14860454 -0.33150458 0.046338897 -0.10917792 -0.0075179855 -0.1479652
0.16803397 0.083154075 0.05268082 -0.0179506 0.18119484 -0.08794097 0.14148305 0.43489602
0.011376232 0.037373908 -0.18194154 0.048937943 0.057183817 -0.1949977 0.29014906 0.04241339
0.023063187 -0.02194875 -2.029915 0.25764257 -0.059371073 0.08176217 -0.0036445835 0.053990852
0.100878656 0.072506525 -0.39659682 -0.009786055 -0.34142795 0.260002 0.1144046 0.2778246
0.15992972 -0.05732653 -0.106121466 0.34347594 -0.07484819 0.39368448 -0.113801025 0.30908886
0.20945537 -0.2361314 0.28128225 0.24348286 0.05394524 -0.167863 -0.1360734 0.029017547
-0.30240625 0.25424397 -0.04181118 -0.11493925 -0.19743009 0.12768865 -0.26172626 -0.094753936
-0.04837143 0.17825142 -0.23695229 0.1912224 -0.018471247 0.01061881 0.059959307 0.4305495
-0.302251 0.44664174 0.3524854 0.2805008 0.6519848 0.34179786 0.02758389 -0.05148293
00000000: e135 22c0 1bfd c03e c0c0 d63d 0677 8a3d
00000010: 1df8 393e d2b2 203f c5f3 99bd 56b8 40be
00000020: a636 463d c6d8 883d 3e38 4cbd 64a6 803d
00000030: 9d32 053e 71bc a73d 128b 033e af99 21be
00000040: 7dbc 0a3f f5b5 803d e931 fabc 96a5 553e
00000050: 273e 6dbe 3960 9e3d d24a 55be 481d 74be
00000060: a7a9 63bd 9e08 22be 6001 c83c 46a3 893d
00000070: 2b35 183e ff49 d03d 458d 483e 8397 7bbc
00000080: 00ad ef3e 2712 0f3e ba90 96be 6798 eabe
00000090: 7f94 0ebe d4d0 ff3d 3ae8 45bd 0b0b 79be
000000a0: 82af 343e ba90 143f 8df2 f73c 50c2 75be
000000b0: 9aaa af3e 20e6 b3be 2584 333c 70e5 3b3e
000000c0: e9fd 9dbd 0897 923c ca81 d5bc bf0d 183b
000000d0: 1acb 10be 6e20 62be bd4c a4be 2e07 33be
000000e0: 5c94 00be 553b b83d 2dc1 663d d831 f23c
000000f0: b9d2 413e 2430 48bd c188 e6be f20b 243e
00000100: bb3c 92bd 456c 05bd 051e 84bd 68dd e7bd
00000110: 7937 b3bc d58f 67bd ffd7 9fbe 87ca 373d
00000120: 530e fc3d 9f46 f63d 689a 66be 472d e0be
00000130: 22aa 2d3d a46f e8bd bacf f1be be86 6dbe
00000140: f67b 9bbd 82ec 20be d084 163e 505c a43d
00000150: 96c4 77bc 5804 9e3e 3d9d 5fbe 8a28 b83e
00000160: 7970 40be 9ce8 8d3e d847 a23d 0b2e 4ebe
00000170: 716a 0fbf 359e 0bbd a4fd 6c3d 785e 79be
00000180: 0856 ecba 3d40 a6bc e5e7 363c 10db 4cbd
00000190: 21b3 b33c ac31 16c0 c9bf 3b3e 95ce 623e
000001a0: 695e ba3e 4770 403e ca1c aa3d 90c3 89be
000001b0: 8031 983e 3880 353d 8276 703e 06e2 90be
000001c0: 1c82 763e 6e4c 5dbe 9e42 803e 3f1b 94be
000001d0: d4c8 67bd 6c97 03be cb93 c33d aecb cdbe
000001e0: 06d3 46bf 8f59 a53e 481c 5abe b379 68be
000001f0: c59b 8dbe 22d8 853e 23a8 8bbc 9e2f c43e
00000200: 23c7 9cbb cdde a8be 4607 b0bd d160 8f3d
00000210: 711a 45bd 3ed4 63be d13a 85bd 1903 a03d
00000220: 1ae6 9e3e 9da4 923e 8f05 3ebd ae26 b63d
00000230: a6ea 053e 167a 0f3e cd7e b43e fd39 323d
00000240: 6934 bf3e 60ba 9a3e 531a c43e 4f21 683e
00000250: 984c 97be 0905 7dbd 07b5 e23e 4658 af3e
00000260: 6916 1c3e aeeb 263e 2500 003e ad6e a93d
00000270: a584 483e 94e8 8d3d c1d3 b93d fd01 863e
00000280: f5bd 593e 82c1 72be fbb3 ef3d 2417 703e
00000290: e203 8ebe 2659 ca3d a4a5 fabe 6f90 b73e
000002a0: 07b0 ecbc 7a8a bcbc db55 bebd 380a ce3e
000002b0: fd33 183e 0365 debd cf6c 453e b6f3 11be
000002c0: 2cd9 edbd 8eb7 eb3a ca2b 18be f8ba a9be
000002d0: dbcd 3d3d ac98 dfbd 6f59 f6bb 3084 17be
000002e0: 1911 2c3e af4c aa3d d8c7 573d 230d 93bc
000002f0: 248b 393e 651a b4bd efe0 103e b1aa de3e
00000300: 6063 3a3c 6215 193d e24e 3abe 2773 483d
00000310: 9439 6a3d 7aad 47be 6b8e 943e aab9 2d3d
00000320: 02ef bc3c ddcd b3bc 21ea 01c0 bae9 833e
00000330: 152f 73bd ed72 a73d f7d9 6ebb 8325 5d3d
00000340: 7899 ce3d 4d7e 943d bd0e cbbe b155 20bc
00000350: a5cf aebe fb1e 853e f54c ea3d 073f 8e3e
00000360: 9ec4 233e 39cf 6abd 3656 d9bd 14dc af3e
00000370: 024a 99bd 0391 c93e 8310 e9bd e540 9e3e
00000380: 787b 563e 6ecc 71be 3a04 903e 9253 793e
00000390: aff5 5c3d 47e4 2bbe d356 0bbe 35b6 ed3c
000003a0: fed4 9abe 442c 823e 3342 2bbd 4565 ebbd
000003b0: 1d2b 4abe d0c0 023e fc00 86be 5a0e c2bd
000003c0: 1f21 46bd 8a87 363e 9fa3 72be cecf 433e
000003d0: 0351 97bc 84fa 2d3c e497 753d fc70 dc3e
000003e0: a5c0 9abe 3aae e43e f778 b43e cd9d 8f3e
000003f0: 7ae8 263f 2100 af3e 9cf7 e13c c4df 52bd

weight f4 [100, 200]
0.15203626 -0.28228834 -0.20887603 -1.0786531 -0.10046115 -0.5578128 -0.15833437 0.48238817
-0.49750936 -0.2655073 0.038100496 0.4336922 -0.29966998 -0.044812873 -0.09864899 0.1048953
-0.7810829 0.26772085 -0.4089484 0.40981457 0.41458791 0.7631653 0.6586642 -0.4033913
-0.310283 -0.008718283 -0.19789147 -0.2908145 -0.56073517 0.21375166 -0.082000434 0.44702896
0.8971685 0.8179482 0.827678 -0.21674101 -0.19523272 -0.70299804 -0.60067433 -0.57460696
-0.31368893 -0.6346859 -0.2468242 -0.78073096 0.27982596 -0.014682907 0.20056562 0.24729548
0.141499 -0.07571964 -0.7170415 0.23576964 -0.17138813 -0.37398803 -0.4797054 0.0010773498
0.60029614 0.22811602 0.5030213 0.4402001 -0.046794806 -0.3377447 0.31559986 -0.14035319
0.02530402 0.24434718 -0.00801894 -0.30576447 0.10438818 0.131093 -0.007375168 -0.061100435
-0.6119598 -0.06224797 -0.7196917 -0.32771197 -0.10438216 -0.4072416 -0.90628785 0.8280717
-0.2753839 0.36899298 -0.22152203 0.25428477 -0.32845023 0.7368962 0.13374828 0.16850094
-0.039586976 0.32117245 0.76926094 0.75200444 0.41456285 -0.04975116 0.044014562 0.38619915
0.25146574 0.712849 -0.16501619 -0.047164135 0.35255295 0.033609513 -0.2998659 -0.20571433
0.09124191 -0.0010610259 -0.014905615 0.024780514 -0.3594144 0.11442182 -0.15165195 0.02142796
0.41852286 0.81094915 0.06672553 0.2825944 -0.3217116 -0.1397917 0.30519372 -0.13610898
0.24404815 -0.047831174 -0.3018763 0.2929616 -0.09127366 -0.20964515 0.23457927 -0.36458552
0.286043 0.09223914 0.40460616 0.050396975 0.0668213 -0.36944008 -0.22874099 -0.1832315
0.022359997 0.25574672 -0.03108062 0.36609203 -0.054768212 0.07821196 -0.1657731 0.25121552
-0.12886907 0.85848993 -0.8907352 -0.112904765 -0.27892864 0.048734687 0.5262399 0.53373325
-0.053959887 0.18892257 0.13412528 -0.34458604 -0.117234536 0.10092404 -0.15016454 0.39665133
-0.15106666 -0.41415462 -0.47420698 -0.023546023 0.080312155 0.2921753 0.22052865 0.59611684
-0.26784334 -0.3081639 -0.09519028 -0.26437712 0.18108353 -0.33011314 -0.20535472 0.46385524
-0.4182329 0.3323709 0.10998094 0.039127126 -0.020038823 0.118892066 -0.055244062 -0.0715007
-0.4608004 0.70296484 -0.09163335 0.46904054 0.6425196 0.084913015 0.40723667 0.3672314
-0.12947711 0.09176135 -0.12233396 -0.11276852 -0.0746765 0.28935483 0.36755568 -0.050148163
0.23834501 0.31330734 0.98256636 -0.354832 0.40157264 -0.191501 0.38096017 0.032253046
0.11651795 -0.29091033 0.5566858 0.076019436 0.29951462 0.016217908 -0.5530784 -0.18618964
-0.33156383 -0.15102832 -0.11193571 0.37995565 0.23772946 0.2533435 0.23914641 0.31557107
-0.13061579 -0.105883196 0.55943966 0.014405116 0.49727666 -0.017378297 0.24247977 -0.035087883
0.27056447 0.0012414248 0.25817508 0.50078547 0.6515208 0.083687566 0.3050227 -0.06626398
-0.5596146 -0.07726606 -0.39151937 -0.80050445 -0.04068633 0.012051711 -0.21848845 -0.54617363
-0.31719255 -0.3574659 -0.84049535 -0.49712116 -0.22571029 0.19889575 -0.40543613 0.0920509
00000000: 65af 1b3e 1988 90be 99e3 55be 4e11 8abf
00000010: 93be cdbd d2cc 0ebf 6822 22be 95fb f63e
00000020: 8cb9 febe 93f0 87be 440f 1c3d e70c de3e
00000030: 586e 99be b48d 37bd 7b08 cabd 59d3 d63d
00000040: 0df5 47bf b512 893e af61 d1be 37d3 d13e
00000050: de44 d43e cd5e 433f 389e 283f 4e89 cebe
00000060: 6add 9ebe 21d7 0ebc 10a4 4abe a3e5 94be
00000070: 578c 0fbf b7e1 5a3e d8ef a7bd fbe0 e43e
00000080: d6ac 653f 0e65 513f b5e2 533f 5bf1 5dbe
00000090: 16eb 47be aef7 33bf cbc5 19bf 7119 13bf
000000a0: d69b a0be c67a 22bf 7cbf 7cbe fcdd 47bf
000000b0: 5945 8f3e 9390 70bc 1361 4d3e 073b 7d3e
000000c0: 1de5 103e e612 9bbd 0890 37bf 996d 713e
000000d0: 5f80 2fbe 5c7b bfbe f29b f5be dc35 8d3a
000000e0: 02ad 193f 3f97 693e 01c6 003f e861 e13e
000000f0: e9ab 3fbd e0ec acbe 4e96 a13e bfb8 0fbe
00000100: 604a cf3c 2636 7a3e df61 03bc 298d 9cbe
00000110: 78c9 d53d 3e3d 063e 65ab f1bb 7344 7abd
00000120: 66a9 1cbf baf7 7ebd b73d 38bf ddc9 a7be
00000130: 50c6 d5bd f981 d0be 7b02 68bf 82fc 533f
00000140: 1eff 8cbe a6ec bc3e acd6 62be 9d31 823e
00000150: a12a a8be 3ba5 3c3f 4ff5 083e 838b 2c3e
00000160: f425 22bd b770 a43e 49ee 443f 5d83 403f
00000170: 9541 d43e dfc7 4bbd 9d48 343d e5bb c53e
00000180: 1ec0 803e 467d 363f 01fa 28be 2e2f 41bd
00000190: d281 b43e 21aa 093d 0688 99be c7a6 52be
000001a0: 0add ba3d 1f12 8bba ae36 74bc 8100 cb3c
000001b0: 2a05 b8be fd55 ea3d a64a 1bbe b089 af3c
000001c0: a148 d63e 5d9a 4f3f 65a7 883d 37b0 903e
000001d0: 62b7 a4be 8e25 0fbe 5a42 9c3e 2760 0bbe
000001e0: c2e7 793e 9fea 43bd 888f 9abe 10ff 953e
000001f0: afed babd 38ad 56be 8c35 703e f4aa babe
00000200: 3a74 923e e0e7 bc3d 8a28 cf3e 0f6d 4e3d
00000210: 9bd9 883d 4027 bdbe 143b 6abe 0aa1 3bbe
00000220: 502c b73c 3cf1 823e c99c febc 6a70 bb3e
00000230: a254 60bd 982d a03d 6cc0 29be 529f 803e
00000240: 41f6 03be ffc5 5b3f 3907 64bf 9d3a e7bd
00000250: bccf 8ebe 069e 473d a8b7 063f bea2 083f
00000260: 0b05 5dbd eb74 413e 2358 093e 956d b0be
00000270: a918 f0bd 43b1 ce3d bcc4 19be e215 cb3e
00000280: 38b1 1abe 130c d4be 42cb f2be 97e3 c0bc
00000290: b37a a43d 0098 953e 43d2 613e 1d9b 183f
000002a0: c322 89be a9c7 9dbe 1ff3 c2bd 705c 87be
000002b0: f66d 393e 9704 a9be 8248 52be 6f7e ed3e
000002c0: 9f22 d6be 852c aa3e b03d e13d c443 203d
000002d0: 7528 a4bc af7d f33d 9947 62bd f66e 92bd
000002e0: 08ee ebbe 81f5 333f 44aa bbbd 1526 f03e
000002f0: 2a7c 243f e0e6 ad3d 5381 d03e c105 bc3e
00000300: a695 04be 60ed bb3d 3a8a fabd 2ff3 e6bd
00000310: feef 98bd 5126 943e 4230 bc3e 2968 4dbd
00000320: b710 743e d269 a03e 7889 7b3f 8aac b5be
00000330: ee9a cd3e d718 44be 360d c33e c51b 043d
00000340: f7a0 ee3d 33f2 94be f682 0e3f 14b0 9b3d
00000350: fb59 993e 6bdb 843c 8c96 0dbf 7fa8 3ebe
00000360: bcc2 a9be 2ba7 1abe 8d3e e5bd 8c89 c23e
00000370: 5a6f 733e 3db6 813e cce2 743e 8892 a13e
00000380: 25c0 05be 4ad9 d8bd 7037 0f3f 7003 6c3c
00000390: 0c9b fe3e ee5c 8ebc 9e4c 783e 50b8 0fbd
000003a0: 6d87 8a3e 4eb7 a23a 862f 843e 7a33 003f
000003b0: 11ca 263f 6364 ab3d ef2b 9c3e 69b5 87bd
000003c0: e742 0fbf ab3d 9ebd 3a75 c8be dced 4cbf
000003d0: b6a6 26bd 8a74 453c 70bb 5fbe 09d2 0bbf
000003e0: 1067 a2be c505 b7be b42a 57bf aa86 febe
000003f0: 9920 67be 54ab 4b3e 5395 cfbe 2f85 bc3d

weight f4 [100, 100]
0.05907291 0.09126278 0.066248275 0.081482254 -0.027712524 0.021541966 -0.06365194 0.024045646
-0.009219683 -0.09077791 0.065107405 -0.05526943 -0.07169255 0.035021484 -0.05241673 0.047572877
0.020348871 0.0720245 0.012572837 0.06877253 -0.037435483 0.03249936 0.08248776 -0.008438408
-0.012208784 -0.029266704 0.07372892 -0.09108895 -0.061556842 0.030224884 0.046262957 0.020749582
0.00125103 -0.04800501 -0.041905116 -0.04014478 0.07772081 0.004535079 -0.0024514794 -0.05680275
0.07029277 -0.086316146 -0.03209014 -0.037893593 -0.08271598 -0.018847097 -0.075671725 0.0059238076
0.037040688 -0.094984554 0.028462052 -0.0482029 -0.048700225 0.0114182 0.030016303 -0.05493479
-0.014878905 -0.03189348 -0.057987094 0.037805557 -0.010066128 -0.08027481 -0.047132086 -0.080964044
0.08056893 0.09501133 -0.07012147 0.09062079 -0.025286973 -0.027420474 0.030387903 -0.017270971
0.09626768 -0.045700338 -0.045547117 0.010627592 0.064383924 -0.05448811 0.033940554 -0.058582284
-0.06828529 0.016656136 -0.070357144 -0.07478694 0.09107969 -0.0228526 0.05787256 0.07900015
-0.055509508 0.041255165 0.09453551 0.024822248 0.07448526 -0.04539628 0.012820375 -0.056664
0.061318696 -0.05154878 0.029822493 -0.021731222 0.0036881447 0.011995685 -0.01981528 -0.013976097
-0.081187285 0.049568214 -0.018611718 -0.052261926 0.030268002 0.012739277 -0.045698356 0.002184701
0.075740874 0.043679167 0.06918714 -0.020426048 0.09401833 0.072682776 -0.028693307 0.061572816
-0.07448027 0.06072036 -0.050771963 0.072683334 0.019101715 0.029791176 -0.08001615 -0.053167846
0.048188176 -0.047947943 -0.021108449 0.047731567 -0.05874752 -0.005431545 0.05008335 0.08534254
0.0022593976 0.018265009 0.029993558 -0.023847653 0.004187071 -0.03955978 -0.078496926 0.06180333
0.037147034 -0.011753857 0.03882097 0.08247348 0.07455522 -0.052299704 -0.034023453 -0.08333079
0.07027718 -0.008862746 0.013386488 0.058657635 -0.02899443 -0.054737296 -0.04917338 -0.062135912
-0.003584838 -0.020872295 0.007284367 -0.029523063 0.043127395 0.02994969 0.0075069307 0.0012167096
-0.07254823 0.020154893 -0.023225654 -0.057914294 -0.037745215 -0.027467763 -0.043459605 0.09799379
-0.07138687 0.046002533 0.043541122 -0.037553787 0.045867946 0.0002701521 -0.0052954317 -0.016646171
0.08175065 -0.05669856 -0.011868513 0.035586417 -0.046375275 0.07491262 -0.030140758 -0.09052686
0.07200829 -0.07925254 0.071252465 -0.08954765 0.07194816 0.09278337 -0.065836124 -0.035079658
0.01941893 -0.05752926 -0.05104631 -0.07735951 0.06023866 -0.08177739 -0.072332166 0.076419055
-0.01821046 0.08811953 0.06838115 0.052345216 0.06553867 -0.07093721 -0.09364209 -0.06269188
0.08146959 -0.04664847 0.035009004 0.051597536 -0.03769361 -0.087088756 0.049309265 -0.0021799684
-0.014387679 -0.093078725 0.045219578 -0.051960852 -0.0957212 -0.053463172 0.039736178 -0.011972368
-0.029807711 -0.07536256 -0.039611828 0.044719256 -0.0346161 -0.03901365 -0.014707006 0.07086655
0.06416979 -0.073700026 0.0037097454 -0.030570602 -0.010678244 0.059587684 -0.01267488 -0.04739002
-0.07954051 -0.052402794 0.073325984 -0.0031591177 -0.043740857 0.012875164 -0.08644301 -0.0033852698
00000000: 70f6 713d fbe7 ba3d 2dad 873d 2be0 a63d
00000010: 6005 e3bc c778 b03c f35b 82bd 60fb c43c
00000020: 270e 17bc c5e9 b9bd 0857 853d 3362 62bd
00000030: 8bd3 92bd b072 0f3d edb2 56bd c7db 423d
00000040: adb2 a63c 9581 933d 4dfe 4d3c 9dd8 8c3d
00000050: f355 19bd 0d1e 053d 58ef a83d 4041 0abc
00000060: 5a07 48bc bac0 efbc 30ff 963d d88c babd
00000070: 0723 7cbd 2d9a f73c 3a7e 3d3d 07fb a93c
00000080: 9af9 a33a e7a0 44bd b3a4 2bbd da6e 24bd
00000090: 172c 9f3d 009b 943b 00a9 20bb 00aa 68bd
000000a0: a8f5 8f3d 85c6 b0bd f370 03bd 5036 1bbd
000000b0: ff66 a9bd 3a65 9abc c7f9 9abd 801c c23b
000000c0: fab7 173d 4387 c2bd 4029 e93c 6770 45bd
000000d0: e379 47bd 6713 3b3c c0e4 f53c 4d03 61bd
000000e0: a7c6 73bc bda2 02bd e083 6dbd 00da 1a3d
000000f0: 67ec 24bc 1f67 a4bd 930d 41bd 7ad0 a5bd
00000100: 5301 a53d 4d95 c23d d89b 8fbd 6597 b93d
00000110: a026 cfbc e7a0 e0bc 0df0 f83c da7b 8dbc
00000120: fd27 c53d 4730 3bbd 9d8f 3abd 5a1f 2e3c
00000130: b8db 833d ed2e 5fbd 4005 0b3d faf3 6fbd
00000140: 28d9 8bbd 7372 883c 6817 90bd e529 99bd
00000150: fd87 ba3d 6035 bbbc c70b 6d3d d5ca a13d
00000160: f05d 63bd 2dfb 283d d59b c13d 0758 cb3c
00000170: ba8b 983d 73f1 39bd 8d0c 523c 8318 68bd
00000180: 5029 7b3d d024 53bd 4d4e f43c ad05 b2bc
00000190: cdb4 713b 8d89 443c a753 a2bc 00fc 64bc
000001a0: 8545 a6bd 0a08 4b3d 9a77 98bc 9a10 56bd
000001b0: 9af4 f73c 67b8 503c 332e 3bbd 332d 0f3b
000001c0: 081e 9b3d ede8 323d fdb1 8d3d 8754 a7bc
000001d0: af8c c03d b5da 943d 3a0e ebbc c733 7c3d
000001e0: 1d89 98bd eab5 783d 43f6 4fbd 00db 943d
000001f0: 337b 9c3c a00c f43c 82df a3bd 87c6 59bd
00000200: f760 453d 1065 44bd a0eb acbc 2d82 433d
00000210: 3da1 70bd 1afb b1bb 3324 4d3d 12c8 ae3d
00000220: 6712 143b 80a0 953c 0db5 f53c 275c c3bc
00000230: b333 893b 7009 22bd ffc2 a0bd 7d25 7d3d
00000240: 7d27 183d 4093 40bc bd02 1f3d dbe7 a83d
00000250: 68b0 983d 3738 56bd 2d5c 0bbd 55a9 aabd
00000260: 7bed 8f3d 0d35 11bc 0053 5b3c fd42 703d
00000270: ba85 edbc 3734 60bd 076a 49bd 3a82 7ebd
00000280: 9aef 6abb 60fc aabc b3b1 ee3b 5ada f1bc
00000290: 5aa6 303d 0d59 f53c b3fc f53b 007a 9f3a
000002a0: 2b94 94bd e01b a53c ba43 bebc 8a37 6dbd
000002b0: ba9a 1abd 1304 e1bc b302 32bd f8b0 c83d
000002c0: 4833 92bd 276d 3c3d 2d58 323d 00d2 19bd
000002d0: 07e0 3b3d 33a3 8d39 4d85 adbb 8d5d 88bc
000002e0: e36c a73d c03c 68bd 2774 42bc 10c3 113d
000002f0: 00f4 3dbd ca6b 993d c0e9 f6bc 2566 b9bd
00000300: 1579 933d 284f a2bd d0ec 913d c264 b7bd
00000310: 8f59 933d 3505 be3d 17d5 86bd b0af 0fbd
00000320: 7314 9f3c cda3 6bbd f015 51bd aa6e 9ebd
00000330: d0bc 763d e77a a7bd e322 94bd 9881 9c3d
00000340: 1a2e 95bc 0378 b43d 6b0b 8c3d f067 563d
00000350: 2339 863d 8747 91bd 6dc7 bfbd 9a64 80bd
00000360: 87d9 a63d 7712 3fbd 9a65 0f3d f057 533d
00000370: 9d64 1abd 975b b2bd 83f8 493d cddd 0ebb
00000380: 4dba 6bbc 0fa0 bebd 2a38 393d e7d4 54bd
00000390: 7a09 c4bd 33fc 5abd 67c2 223d c027 44bc
000003a0: 4d2f f4bc b057 9abd 0340 22bd 8a2b 373d
000003b0: 9dc9 0dbd c7cc 1fbd a7f5 70bc 7b22 913d
000003c0: 736b 833d 0af0 96bd 331f 733b 336f fabc
000003d0: cdf3 2ebc 3712 743d 4daa 4fbc 0a1c 42bd
000003e0: 23e6 a2bd 50a4 56bd ef2b 963d 3309 4fbb
000003f0: 9d29 33bd 5af2 523c 0809 b1bd 67db 5dbb

weight f4 [100, 200]
0.01517322 0.063356325 0.00026322395 -0.066199474 0.011820851 -0.050534148 -0.019312993 0.070415765
-0.002347529 -0.022730118 0.025509652 -0.0072392863 0.024672808 0.0323289 0.06685257 -0.016794138
-0.05978594 -0.069979794 0.027988922 0.06754089 0.04230813 0.022217864 -0.02861933 -0.035563767
0.055802252 0.028502785 0.055440336 0.015714461 0.015418574 0.020973908 0.047632962 0.028300801
-0.0052086427 0.027663507 -0.0012519638 -0.007223473 0.022712212 0.021645492 0.012988016 -0.029418552
0.016203517 -0.06608552 -0.016178144 -0.022901224 -0.06655992 -0.047130655 0.024495589 0.017605936
0.04872239 0.051374853 0.0052525173 0.03534524 -0.06683528 0.008209195 -0.018098457 -0.026487762
-0.030401712 -0.05879366 -0.06060228 0.06537764 -0.025557935 -0.043919675 0.04773093 -0.06770392
-0.03540762 0.06402967 0.00031909382 -0.05498629 0.04381675 0.016880058 0.062194776 0.051291317
-0.015738511 -0.014626761 -0.0045388364 0.0026934957 -0.023802096 -0.04725729 -0.044619605 0.008270392
-0.053238653 -0.058799095 0.049061447 -0.022286141 -0.06955165 -0.00944645 -0.016343275 -0.051636744
-0.027563501 0.05487879 -0.040980056 0.06809321 0.01583586 -0.061031934 0.055926755 0.020723818
0.05099129 0.051049225 0.008452736 0.032428797 -0.036031302 -0.0025892917 -0.04917311 -0.002697449
-0.053017627 -0.017296772 -0.05990148 0.019464292 0.006996596 0.017084302 -0.067031816 0.05409148
0.024033424 4.5088702e-05 -0.014524091 0.03016177 0.008233455 0.042363156 0.05303614 -0.053928874
0.029945977 0.0023986278 0.0056467 0.021289092 0.046697464 0.03347231 0.022798648 0.050239224
0.041560538 0.023201505 -0.0016262194 0.06603451 0.06751912 -0.023711776 -0.061485965 -0.010343133
0.067885205 0.067152575 0.06031485 -0.01650887 -0.063969776 0.028510245 -0.057859313 -0.030397413
-0.048350453 -0.03547405 -0.009965598 -0.03967176 -0.022607917 0.013139112 -0.029621903 0.064423434
0.06615777 0.068855405 0.0651592 -0.06093997 -0.0012254028 0.029582892 0.023190368 -0.03390694
0.022862956 0.034664653 -0.04113612 0.024975633 -0.019874347 0.06647672 -0.031120619 0.012928386
0.0613434 0.06786106 -0.04773216 0.037244253 -0.020328725 0.0048364946 -0.04275963 0.070489556
-0.006680908 -0.0045322026 -0.03434483 -0.055307128 -0.04683132 0.00070794066 0.06645459 0.027209729
0.005830351 -0.022322312 0.03348418 -0.008202139 -0.011461465 0.022095023 0.054467496 0.053556744
0.0652288 -0.057096615 -0.05235046 0.054363646 -0.04471158 -0.05794447 0.043039016 0.05440866
-0.0030172847 -0.0015641287 -0.00062246685 0.024033457 -0.030043144 0.02371718 0.011964631 -0.044728607
-0.031536683 0.0007376879 0.059725948 -0.041861936 0.063411 0.02383079 -0.055104982 -0.05323426
0.013005102 -0.06788794 -0.014627941 0.070112966 -0.011246483 0.022078795 -0.009648173 -0.037141137
0.019211292 0.0016113331 0.024310498 0.001588127 0.060391057 0.027924977 0.048556197 0.012332329
0.0059960047 0.052319635 0.044191387 -0.03619869 -0.03170533 0.021313114 -0.044718947 -0.06799505
0.003644573 -0.04077787 -0.018552031 0.023087336 -0.01644126 0.063160926 0.010102364 0.05453903
-0.027629375 -0.068116605 0.022662176 -0.029459056 0.011918944 0.059976157 -0.06862706 0.042813353
00000000: 1999 783c f6c0 813d 5201 8a39 9793 87bd
00000010: 3eac 413c e5fc 4ebd 4836 9ebc 2436 903d
00000020: 00d9 19bb 8334 babc 9ef9 d03c 8937 edbb
00000030: a11e ca3c 4f6b 043d 00ea 883d dc93 89bc
00000040: 1ae2 74bd 9151 8fbd 0649 e53c e152 8a3d
00000050: 4a4b 2d3d 3d02 b63c 1673 eabc 50ab 11bd
00000060: e790 643d ac7e e93c 6815 633d 9dbb 803c
00000070: 309e 7c3c 79d1 ab3c c81a 433d 15d7 e73c
00000080: 43ad aabb 949e e23c ef18 a4ba e2b2 ecbb
00000090: f60e ba3c e351 b13c b0cb 543c 2dff f0bc
000000a0: 3dbd 843c d857 87bd 0788 84bc 599b bbbc
000000b0: 9150 88bd 130c 41bd f9aa c83c 533a 903c
000000c0: 2191 473d 706e 523d 4f1d ac3b 2cc6 103d
000000d0: efe0 88bd dc7f 063c 3743 94bc ddfc d8bc
000000e0: 030d f9bc 9fd1 70bd 193a 78bd b6e4 853d
000000f0: e05e d1bc 1ee5 33bd 8281 433d 5aa8 8abd
00000100: 9507 11bd fd21 833d 0c4c a739 4e39 61bd
00000110: 3179 333d 0c48 8a3c f3bf 7e3d d816 523d
00000120: 0dee 80bc 15a5 6fbc 85ba 94bb 5c85 303b
00000130: 9dfc c2bc dc90 41bd 0cc3 36bd 8a80 073c
00000140: c610 5abd 52d7 70bd a8f4 483d 6d91 b6bc
00000150: 1871 8ebd 48c5 1abc 55e2 85bc 0d81 53bd
00000160: dacc e1bc 95c8 603d b4da 27bd 7474 8b3d
00000170: 35ba 813c 9ffc 79bd 7413 653d ffc4 a93c
00000180: 3edc 503d fe18 513d 587d 0a3c 0fd4 043d
00000190: 8f95 13bd 1bb1 29bb be69 49bd afc7 30bb
000001a0: 0329 59bd f6b1 8dbc 415b 75bd 9473 9f3c
000001b0: b443 e53b 61f4 8b3c fa47 89bd 078f 5d3d
000001c0: bee1 c43c a01d 3d38 74f6 6dbc d115 f73c
000001d0: 9de5 063c fd84 2d3d 6c3c 593d 86e4 5cbd
000001e0: 4451 f53c 4c32 1d3b f407 b93b 7666 ae3c
000001f0: d745 3f3d 431a 093d 3bc4 ba3c a5c7 4d3d
00000200: 623b 2a3d 1511 be3c de26 d5ba 1a3d 873d
00000210: 7747 8a3d 333f c2bc b5d8 7bbd 3e76 29bc
00000220: 6607 8b3d 4a87 893d b40c 773d 9c3d 87bc
00000230: 9602 83bd 518e e93c e3fd 6cbd ff03 f9bc
00000240: 200b 46bd 3d4d 11bd bf46 23bc db7e 22bd
00000250: 3d34 b9bc 6e45 573c a2a9 f2bc 6ff0 833d
00000260: ba7d 873d 1004 8d3d 3072 853d 319c 79bd
00000270: b29d a0ba d257 f23c baf9 bd3c 01e2 0abd
00000280: 184b bb3c 86fc 0d3d 597e 28bd b399 cc3c
00000290: 87cf a2bc f224 883d abf0 febc 95d1 533c
000002a0: 3843 7b3d bdfa 8a3d cc82 43bd 6e8d 183d
000002b0: 6d88 a6bc 757b 9e3b b924 2fbd d45c 903d
000002c0: 85eb dabb df82 94bb 2aad 0cbd ba89 62bd
000002d0: 33d2 3fbd 1895 393a 5819 883d f0e6 de3c
000002e0: 870c bf3b 48dd b6bc b526 093d 4462 06bc
000002f0: dec8 3bbc 9f00 b53c 4f19 5f3d 515e 5b3d
00000300: ad96 853d 24de 69bd 706d 56bd 6aac 5e3d
00000310: 7d23 37bd 2e57 6dbd ae49 303d 9ddb 5e3d
00000320: a3bd 45bb 7303 cdba 0b2d 23ba d0e1 c43c
00000330: 0a1d f6bc 884a c23c 4d07 443c 5835 37bd
00000340: 9c2c 01bd 6661 413a 32a3 743d 6c77 2bbd
00000350: a0dd 813d ca38 c33c c3b5 61bd 2b0c 5abd
00000360: 5a13 553c d508 8bbd 08aa 6fbc 6397 8f3d
00000370: 2b43 38bc 97de b43c 5f13 1ebc 4e21 18bd
00000380: 0061 9d3c 5e33 d33a cf26 c73c b328 d03a
00000390: 9d5c 773d ecc2 e43c dde2 463d 890d 4a3c
000003a0: 227a c43b 1d4d 563d 0702 353d 1445 14bd
000003b0: 73dd 01bd d798 ae3c 372b 37bd fd40 8bbd
000003c0: cad9 6e3b b206 27bd 6efa 97bc a721 bd3c
000003d0: d2af 86bc 845a 813d 6384 253c 5164 5f3d
000003e0: 0057 e2bc b880 8bbd 07a6 b93c 1e54 f1bc
000003f0: ad47 433c 8fa9 753d 588c 8cbd 0e5d 2f3d
