model/verify/Amazon_Musical_Instruments/recommendation_hit_recommendation_drop_best.model (torch, 245327 bytes, 6 tensors)

weight f4 [2, 100]
0	0x3e776d7c	0.24162859
1	0x3ec08b9c	0.37606514
2	0xbe295941	-0.16537954
3	0xbe8c2e56	-0.27379102
4	0xbec1f2dc	-0.378806
5	0x3eba5129	0.36390045
6	0x3ea2a4fa	0.31766492
7	0x3eb3961f	0.3507547
8	0x3e6e878a	0.23293892
9	0xbea11fe2	-0.31469637
10	0x3ea1179d	0.31463328
11	0x3ea0b56a	0.31388408
12	0xbee38e4e	-0.44444507
13	0x3dd93be6	0.10607128
14	0x3e829ab0	0.25508642
15	0x3e2ebda7	0.17064534
16	0x3d3f1a17	0.04665574
17	0xbc972ba2	-0.018453423
18	0x3ec7c939	0.39020708
19	0x3e0eefc2	0.13958648
20	0x3d8691fd	0.06570814
21	0xbe84079f	-0.25787064
22	0xbdbeb4a3	-0.093117975
23	0x3e171add	0.14756341
24	0x3ec9a21c	0.39381492
25	0xbcd4543c	-0.025919072
26	0x3e912869	0.28351143
27	0xbec57e46	-0.385729
28	0x3ece6d5c	0.4031781
29	0xbae78e4e	-0.0017666311
30	0xbcfd1b40	-0.030896783
31	0x3f2fd598	0.68685293
32	0xbea383f1	-0.319366
33	0x3d6d8b05	0.057993907
34	0xbe41b67d	-0.1891727
35	0x3e9b2bf3	0.30306968
36	0xbea1dee1	-0.31615356
37	0x3ee99a66	0.4562561
38	0x3ea92e7f	0.33043286
39	0xbe3a20f6	-0.18176636
40	0x3ece337d	0.40273657
41	0x3d0767fa	0.033058144
42	0xbf0a3afc	-0.53996253
43	0xbeb0e2eb	-0.34548125
44	0x3e8a1388	0.26968026
45	0xbdcda322	-0.10040881
46	0x3e1d737e	0.15376088
47	0x3e507876	0.20358452
48	0x3b99f5ce	0.0046984917
49	0xbf18ef84	-0.5974047
50	0x3e98417f	0.2973747
51	0xbedf369b	-0.43596348
52	0xbe377c52	-0.17918518
53	0x3f2025e8	0.6255784
54	0x3e443adf	0.19163083
55	0xbd7bfb93	-0.061519217
56	0x3e603a9b	0.21897356
57	0xbdbb249d	-0.09137843
58	0xbe4578fc	-0.19284433
59	0xbe69a549	-0.22816958
60	0xbebd9de2	-0.37034518
61	0x3e808b10	0.25106096
62	0x3e60bd1e	0.21947142
63	0x3e191117	0.14947926
64	0xbeb0f230	-0.34559774
65	0xbdf9b74e	-0.12193166
66	0x3d412c04	0.047161117
67	0x3ed491e1	0.41517547
68	0x3eab6fe1	0.33483794
69	0x3f0c536b	0.54814786
70	0xbe49c5f4	-0.1970442
71	0xbeb82775	-0.35967603
72	0x3d3d354c	0.046193406
73	0xbe8c37c6	-0.27386302
74	0xbe77ab83	-0.2418652
75	0xbebd75ae	-0.37003845
76	0x3ea28ce3	0.31748113
77	0xbeb4fd09	-0.353493
78	0x3e202a3a	0.15641108
79	0x3ec16b82	0.37777334
80	0xbe1048ae	-0.14090225
81	0xbeb3890d	-0.350655
82	0x3ead3ba7	0.33834574
83	0xbe960504	-0.29300702
84	0xbddcae42	-0.107754245
85	0x3e4efa96	0.20212778
86	0xbe38d812	-0.18051174
87	0x3ee66ae8	0.45003438
88	0x3cfc93b8	0.030832157
89	0x3ea2df8b	0.31811175
90	0xbe1d7b5a	-0.15379086
91	0xbea9cdd0	-0.33164835
92	0xbed3fa29	-0.41401795
93	0x3ca69aaa	0.020337421
94	0x3e174653	0.1477292
95	0xbebd62d6	-0.36989468
96	0xbd6c3a8e	-0.05767303
97	0x3a441de4	0.00074812607
98	0x3cce797c	0.025204413
99	0xbe207425	-0.15669306
100	0xbeb00d23	-0.34385023
101	0xbe9b766e	-0.30363792
102	0x3e217a35	0.15769275
103	0x3e805070	0.2506137
104	0x3ed74485	0.42044464
105	0xbeb9056e	-0.36136955
106	0xbea084fc	-0.3135146
107	0xbed3d760	-0.41375256
108	0xbea357c7	-0.31902906
109	0x3ea7130c	0.3263172
110	0xbee1f81f	-0.44134614
111	0xbea958cd	-0.33075562
112	0x3ee6e86f	0.45099208
113	0xbe4bbd30	-0.19896388
114	0xbdc3ad5a	-0.095545486
115	0xbe4f6127	-0.20251904
116	0x3db4dc2f	0.08831059
117	0xbd4f7779	-0.050651047
118	0xbe93d89e	-0.28876203
119	0xbd9f23a1	-0.077704675
120	0xbe666d70	-0.22502685
121	0x3e6f1ce2	0.23350862
122	0x3e304058	0.17212045
123	0xbe21e599	-0.15810241
124	0xbe9d8a3f	-0.30769536
125	0xbc761164	-0.015018795
126	0xbe8d8bfc	-0.27645862
127	0x3ec9a557	0.39383957
128	0xbed73551	-0.42032865
129	0xbd8b04bc	-0.067880124
130	0xbdf28f1e	-0.11843704
131	0xbf216db8	-0.6305804
132	0x3e946b9e	0.28988355
133	0x3be5ef65	0.0070170634
134	0x3ea1a917	0.31574318
135	0xbe87102a	-0.2637952
136	0x3e6a8367	0.22901689
137	0xbee55f48	-0.44799256
138	0xbe7638e3	-0.24045138
139	0x3e4ee326	0.20203838
140	0xbeb47989	-0.35248974
141	0x3d668a73	0.05628438
142	0x3ee086f2	0.43852955
143	0x3e9324e0	0.2873907
144	0xbee744bc	-0.45169628
145	0x3e866d6f	0.26255366
146	0xbeaf17fc	-0.34197986
147	0xbe0e8c0d	-0.13920613
148	0x3e1febe1	0.15617324
149	0x3edd1c3a	0.43185598
150	0xbe9630c2	-0.29334074
151	0x3ef8623d	0.4851245
152	0x3e8633c1	0.2621136
153	0xbf07bf95	-0.53026706
154	0xbdaa3d5a	-0.08312483
155	0xbda3e618	-0.08002871
156	0xbe5b66f9	-0.21426
157	0xbc992fc6	-0.018699538
158	0x3e983023	0.29724225
159	0x3eca7d29	0.39548615
160	0x3ee1cfcb	0.44103846
161	0xbe7ee673	-0.24892597
162	0xbeb36d3e	-0.35044283
163	0xbe393fd8	-0.1809076
164	0x3e9e926d	0.3097109
165	0x3e949178	0.29017234
166	0x3c84767e	0.016169783
167	0xbed3e747	-0.41387388
168	0xbed4d14d	-0.41565934
169	0xbefaf5af	-0.49015567
170	0x3e96782f	0.29388568
171	0x3e66c756	0.22536978
172	0xbdb50e68	-0.088406384
173	0x3ea7bb86	0.32760257
174	0x3e21d27d	0.15802951
175	0x3e8eb9ec	0.27876222
176	0xbeaf2f3b	-0.3421572
177	0x3eb91a88	0.36153054
178	0xbe2aca58	-0.1667875
179	0xbebb0095	-0.36523882
180	0x3e2e9a2c	0.17051
181	0x3ea46590	0.32108736
182	0xbe2d76a8	-0.16939795
183	0x3ed8083a	0.42193776
184	0x3e5b5703	0.21419911
185	0xbe616448	-0.2201091
186	0x3e973009	0.29528835
187	0xbf0d4505	-0.5518344
188	0xbde0469b	-0.10950967
189	0xbe9da2cb	-0.30788264
190	0x3de457ab	0.11149534
191	0x3e5bcf10	0.21465707
192	0x3ee84488	0.45364785
193	0x3d488bce	0.048961453
194	0xbddd9f77	-0.10821431
195	0x3e843f7c	0.25829685
196	0xbc8158b1	-0.015789362
197	0x3bd89cca	0.0066104876
198	0xbd106f9b	-0.035262685
199	0x3e26a4c7	0.16273795

bias f4 [2]
0	0xbe4bb6f1	-0.19894005
1	0x3e12a76f	0.14321683

weight f4 [100, 100]
0	0xc023ec10	-2.561283
1	0x3e9b1cf1	0.30295518
2	0x3e97c1e1	0.29640105
3	0x3dec97ce	0.11552392
4	0x3dc64ba8	0.09682399
5	0x3ec9d0f6	0.39417237
6	0xbe0e2034	-0.13879472
7	0x3ca1cfa8	0.019752339
8	0x3e3b430f	0.182873
9	0x3e6b7ee7	0.22997628
10	0xbe434c58	-0.19072092
11	0xbdf9b4ed	-0.12192712
12	0x3e2453d4	0.16047603
13	0x3d66aca2	0.05631698
14	0x3dec06f5	0.115247644
15	0x3c888d39	0.016668903
16	0x3ef65b38	0.4811647
17	0x3e1b9a76	0.15195641
18	0x3d74864f	0.0596984
19	0x3e469eb8	0.19396484
20	0xbe06be8e	-0.13158628
21	0x3e24aa30	0.16080546
22	0xbe6d0745	-0.23147304
23	0xbe6e1ac5	-0.232524
24	0xbd1e37f8	-0.038627595
25	0xbe15d991	-0.14633776
26	0xbe15a399	-0.14613189
27	0x3da130f0	0.07870662
28	0x3cdce473	0.026964402
29	0x3e5e73fa	0.21723929
30	0x3d029fb8	0.0318906
31	0x3e18a93f	0.14908312
32	0x3dbece60	0.09316707
33	0x3d9a4299	0.07532234
34	0xbf02041a	-0.5078751
35	0xbe372fd8	-0.17889345
36	0xbe82c923	-0.2554408
37	0x3e02b412	0.12764004
38	0x3ce81672	0.028331015
39	0xbd87e1ab	-0.066348396
40	0x3d6b2d08	0.057415992
41	0x3ea2e3fd	0.31814566
42	0x3d400766	0.046882056
43	0xbe837455	-0.25674692
44	0xbe1d71fb	-0.15375511
45	0xbe3d9e0e	-0.18517324
46	0x3e839ea6	0.25706977
47	0x3e9b6ff2	0.30358845
48	0xbe3dc04d	-0.18530388
49	0x3e4a0208	0.19727337
50	0x3dc9c219	0.09851474
51	0xbe7cb535	-0.246785
52	0xbd8fb118	-0.070162
53	0xbe6d2025	-0.23156793
54	0xbeb6dadb	-0.35713848
55	0x3da61b3d	0.08110664
56	0xbea8308f	-0.32849547
57	0x3e7fdbc8	0.24986184
58	0xbd0e5aa2	-0.034754403
59	0xbe2d5ece	-0.16930696
60	0x3e027ba1	0.12742473
61	0x3d9057ea	0.07048018
62	0xbe826c63	-0.25473318
63	0xbd9fbb80	-0.07799435
64	0xbe0d1ba2	-0.13780072
65	0xbe9b2a76	-0.30305833
66	0xbdc17c60	-0.09447551
67	0xbb247b0b	-0.0025097753
68	0x3e04e77c	0.1297893
69	0x3db7efbb	0.08981272
70	0xbd13790f	-0.036004122
71	0x3dba6dd9	0.09102983
72	0xbb913a0a	-0.0044319676
73	0x3e090a81	0.13382913
74	0x3d067919	0.03283033
75	0xbef80092	-0.48437935
76	0xbe43fb71	-0.19138886
77	0x3d1adf22	0.037810452
78	0xbf0159e2	-0.50527775
79	0xbe738189	-0.23779882
80	0xbe85c553	-0.2612711
81	0xbe6ad8ef	-0.22934316
82	0x3ea402bd	0.3203334
83	0x3d44f266	0.04808273
84	0xbe74f75b	-0.23922484
85	0x3ed4dd71	0.41575196
86	0xbda684e7	-0.08130818
87	0x3ccc8cdc	0.02496951
88	0xbe8cb315	-0.2748038
89	0x3e6266d9	0.22109546
90	0x3d8bd9e1	0.068286665
91	0xbe313426	-0.1730505
92	0xbef479dd	-0.47749224
93	0xbc8fe3aa	-0.017564613
94	0x3ea32ce9	0.318702
95	0xbe8f7e8c	-0.28026235
96	0x3cf2f353	0.029657042
97	0xbdcb0903	-0.09913828
98	0x3dc94388	0.09827334
99	0x3c433548	0.011914559
100	0xbe437716	-0.19088396
101	0xc01394dc	-2.3059607
102	0x3dab11b1	0.08352984
103	0x3e1293eb	0.14314239
104	0x3e19e6ad	0.15029402
105	0x3e3321d8	0.17493379
106	0x3e7d196f	0.24716733
107	0xbe8cbed5	-0.27489343
108	0x3e916274	0.28395426
109	0x3d9cc73e	0.0765519
110	0x3da3659a	0.07978363
111	0xbd9d6c4f	-0.07686674
112	0x3e568935	0.20950778
113	0xbe8ec007	-0.2788088
114	0x3ea7bc58	0.32760882
115	0xbdb90c57	-0.09035557
116	0x3e800849	0.2500632
117	0xbc9c87e6	-0.01910777
118	0x3e0d1ff0	0.13781714
119	0xbeaab1b6	-0.33338708
120	0xbf129d41	-0.572712
121	0x3eaff469	0.34366158
122	0xbe8bccf5	-0.27304807
123	0xbd67b3d1	-0.05656797
124	0x3d4be89a	0.049782373
125	0x3eae26ab	0.34013876
126	0xbbc5e87d	-0.0060396777
127	0x3e5b53ba	0.21418658
128	0x3ddbbc99	0.107293315
129	0xbeb88d81	-0.3604546
130	0x3d8e52e4	0.06949404
131	0x3e2712c2	0.1631575
132	0xbdb68b1d	-0.089132525
133	0xbc6bca00	-0.014391422
134	0xbd9223b8	-0.07135719
135	0x3da710e4	0.081575185
136	0x3e65275f	0.223783
137	0x3e3d1709	0.18465818
138	0xbe2a560c	-0.16634387
139	0x3df0bbb8	0.117545545
140	0xbd176288	-0.0369592
141	0xbdb57760	-0.088606596
142	0x3d96eef8	0.073697984
143	0x3e2936ba	0.16524783
144	0x3e8950da	0.26819497
145	0x3e751ccd	0.23936768
146	0x3eb4380e	0.35199016
147	0x3d237e08	0.039915115
148	0xbe9097c0	-0.28240776
149	0x3e271742	0.16317466
150	0x3ee393a3	0.44448575
151	0x3f0e7bf3	0.5565788
152	0x3e2a604f	0.16638301
153	0x3e970bd1	0.29501203
154	0x3e7c05b1	0.24611546
155	0x3e9036ae	0.28166717
156	0xbd4b2382	-0.04959441
157	0x3e1e070a	0.15432373
158	0x3dd46422	0.10370661
159	0x3ec03a94	0.37544692
160	0x3e1c8eb3	0.1528881
161	0x3c925633	0.017863369
162	0x3df75540	0.12076807
163	0x3e1a3bbc	0.1506185
164	0xbdaf7cf4	-0.08568755
165	0x3dfa41f2	0.12219609
166	0xbe9562f4	-0.29177058
167	0x3e04b8e4	0.12961155
168	0xbded33db	-0.11582156
169	0x3e3dfb88	0.18552983
170	0xbd88e3ab	-0.06684049
171	0x3e96440b	0.29348788
172	0xbd94027e	-0.07227038
173	0x3bb55ab3	0.005534494
174	0x3e1218c4	0.1426726
175	0xbdc20a09	-0.0947457
176	0x3e37c113	0.17944746
177	0x3eb13bb2	0.34615856
178	0x3cee8ed4	0.02912084
179	0xbe9150b7	-0.28381893
180	0x3d44b3ce	0.048023038
181	0xbe3f2e94	-0.18670112
182	0xbe5be38a	-0.21473518
183	0xbe04599e	-0.12924811
184	0x3dd89e7f	0.10577106
185	0x3e04e123	0.12976508
186	0xbe6daa61	-0.23209526
187	0x3e4bf446	0.19917402
188	0x3d14179f	0.03615534
189	0x3c85f3ed	0.016351664
190	0xbdebf766	-0.11521797
191	0x3ebb28a0	0.36554432
192	0xbdbefc08	-0.09325415
193	0xbe126ceb	-0.14299361
194	0xbc207100	-0.009792566
195	0xbe0ac70c	-0.13552493
196	0x3e401b3e	0.18760392
197	0xbe761f89	-0.24035467
198	0x3ebc3b09	0.3676379
199	0x3e57b974	0.21066839
200	0xbde5ec22	-0.112266794
201	0xbdcae271	-0.099064715
202	0xc000b145	-2.0108197
203	0x3e885d98	0.26633906
204	0xbdb510cf	-0.088410966
205	0x3bd65263	0.006540583
206	0xbe549b80	-0.20762444
207	0x3d83521a	0.06412144
208	0x3d840dbc	0.06447932
209	0x3e4fb6a9	0.20284523
210	0xbef1dc94	-0.472386
211	0x3e888bb1	0.26669076
212	0xbe3c7db9	-0.18407334
213	0x3e85e4c1	0.26151088
214	0x3e41b112	0.18915203
215	0x3e5dda32	0.21665266
216	0x3eb91122	0.36145884
217	0xbd7179e7	-0.058954146
218	0x3d9e625c	0.07733604
219	0x3e8351a2	0.25648218
220	0x3da8fd4c	0.082514375
221	0x3ee254c0	0.44205284
222	0xbc74d5e4	-0.014943574
223	0x3c29c71c	0.010362413
224	0x3e23ca31	0.15995099
225	0xbeba1aab	-0.3634847
226	0x3e750e33	0.23931198
227	0x3ec73db8	0.38914275
228	0x3de9ad0b	0.114099585
229	0xbbc904a8	-0.0061345883
230	0x3e8090cf	0.2511048
231	0x3e08a949	0.13345827
232	0xbedc33cc	-0.43008268
233	0x3d557e26	0.052122258
234	0xbe9979dd	-0.29975787
235	0xbcc85530	-0.024454683
236	0xbd7e23ae	-0.062045746
237	0x3e84db39	0.25948504
238	0xbda0f2ca	-0.07858808
239	0xbe25ba5a	-0.16184369
240	0xbe4e37ce	-0.20138475
241	0x3d13933c	0.036029086
242	0xbdd176c5	-0.102277316
243	0x3eb29c95	0.34885088
244	0x3df531dc	0.119724005
245	0x3cc54fa0	0.02408582
246	0x3e16fde3	0.14745288
247	0x3ee6b052	0.45056397
248	0xbe5b6a07	-0.21427165
249	0x3f127f6d	0.57225686
250	0x3e86c573	0.26322517
251	0x3e5f4bc6	0.21806249
252	0x3f0464bc	0.5171621
253	0x3eacf23f	0.3377857
254	0x3e21cc46	0.1580058
255	0xbe91d154	-0.28480017

weight f4 [100, 200]
0	0xbebb9ec6	-0.36644572
1	0x3d95bf93	0.073119305
2	0xbf04caac	-0.5187175
3	0x3f4b8e07	0.7951359
4	0x3f5e1877	0.8675608
5	0xbf96bfdb	-1.17773
6	0xbea6949b	-0.32535252
7	0x3ef282c8	0.47365403
8	0xbe9c5bd0	-0.30538797
9	0xbe41d78c	-0.18929881
10	0x3d2a30f1	0.04155058
11	0xbf67aca7	-0.9049782
12	0x3f89e959	1.0774337
13	0xbdbd3789	-0.09239108
14	0xbf929b2d	-1.1453606
15	0xbf4408e1	-0.7657605
16	0xbead6840	-0.338686
17	0x3f37b0f8	0.7175441
18	0xbf564d1b	-0.83711404
19	0x3f1f6142	0.6225778
20	0x3f16f290	0.5896387
21	0xbf87d180	-1.0610809
22	0xbeae2891	-0.34015325
23	0xbf553ca3	-0.8329565
24	0x3df5ea9c	0.12007639
25	0x3eb81c03	0.3595887
26	0x3e7500db	0.23926108
27	0xbf060f29	-0.5236688
28	0x3ee5ecf7	0.44907352
29	0x3f03f523	0.51545924
30	0x3e99b38f	0.30019805
31	0x3d79f95d	0.061028827
32	0x3e15bdc4	0.14623171
33	0xbf6c7765	-0.9236968
34	0x3f5a3c38	0.85248137
35	0x3f89bb42	1.0760272
36	0x3f41bb71	0.7567664
37	0xbf251da9	-0.6449838
38	0xbe3d97ab	-0.18514888
39	0xbf6fa388	-0.93608904
40	0x3f15905b	0.58423394
41	0xbfdf8dc3	-1.7465137
42	0xbf324bf4	-0.69647145
43	0xbe2d6dfe	-0.1693649
44	0x3f3594fd	0.70930463
45	0x3ef20875	0.47272077
46	0xbf4db850	-0.80359364
47	0x3fbd8b8f	1.4808215
48	0x3d85478f	0.06507789
49	0xbf8e9d0b	-1.1141676
50	0x3dff6913	0.12471213
51	0xbf323724	-0.6961539
52	0x3e8406bb	0.25786385
53	0xbe6f0518	-0.23341787
54	0xbe983181	-0.29725268
55	0xbe31eb7b	-0.17374985
56	0xbeb38984	-0.35065854
57	0x3db7d068	0.08975297
58	0x3ea28cc7	0.3174803
59	0x3c0389a6	0.008028423
60	0xbee48a96	-0.44636983
61	0x3f03225c	0.51224303
62	0x3fc1dc9f	1.5145453
63	0x3f07eec7	0.5309872
64	0x3ad0e239	0.001593656
65	0x3f263fae	0.6494092
66	0x3ed3344c	0.41250837
67	0xbfc4e96f	-1.5383738
68	0xbecba40a	-0.3977359
69	0xbe157280	-0.1459446
70	0x3f15f641	0.5857888
71	0xbf7c8e3e	-0.98654544
72	0x3d21879f	0.03943598
73	0x3f1327e4	0.57482743
74	0xbf64d9b1	-0.8939467
75	0x3f7a7466	0.9783386
76	0x3efc8dae	0.49326843
77	0x3f45e34e	0.77299964
78	0x3eb6d711	0.35710958
79	0x3f50b1ef	0.81521505
80	0xbed08163	-0.40723714
81	0xbe04be59	-0.12963237
82	0xbf3f5306	-0.7473606
83	0xbfaf26cb	-1.3683714
84	0xbf7c9553	-0.9866535
85	0x3ec01743	0.37517747
86	0xbdfad083	-0.12246802
87	0xbee13d24	-0.4399196
88	0x3f862ea7	1.0482987
89	0xc009767a	-2.1478562
90	0xbd88d030	-0.066803336
91	0xbfacc5b5	-1.3497835
92	0xbf21a2cc	-0.63139033
93	0x3eb52805	0.35382095
94	0x3f1b8739	0.6075321
95	0xbf264942	-0.6495553
96	0x3fbce8ed	1.4758583
97	0x3f301fa9	0.6879831
98	0x3f7e91b5	0.9944108
99	0xbee48b61	-0.44637588
100	0xbd23ba43	-0.039972555
101	0x3ea5cb3f	0.32381627
102	0x3df83dcb	0.12121161
103	0xbe891903	-0.26776895
104	0xbeefbe19	-0.4682472
105	0x3e4eeb35	0.20206912
106	0x3e10b65a	0.14132062
107	0xbda543a8	-0.08069545
108	0xbde3c660	-0.111218214
109	0x3dc8e0b7	0.09808486
110	0x3c00a73b	0.007852371
111	0x3e1061d0	0.14099813
112	0xbe51614e	-0.20447275
113	0xbe458525	-0.19289072
114	0x3e143a96	0.14475474
115	0xbeb02af8	-0.34407783
116	0x3e1f7a36	0.15573964
117	0x3bd2aee1	0.0064295386
118	0x3ea106ee	0.314506
119	0xbe59ab10	-0.21256661
120	0xbdc9a015	-0.09844986
121	0x3eba8e3b	0.36436638
122	0xbc884346	-0.016633641
123	0x3b9de776	0.004818852
124	0x3dc08bd8	0.09401673
125	0xbd78717f	-0.060655113
126	0xbe4862e1	-0.1956897
127	0x3c0b51c4	0.008503381
128	0xbefd6ffb	-0.49499497
129	0xbe191908	-0.14950955
130	0x3e1adb97	0.1512283
131	0x3e90dd2f	0.2829375
132	0x3e82c9d8	0.2554462
133	0xbd76f986	-0.060296558
134	0xbe0a156d	-0.13484736
135	0xbeffd29f	-0.4996538
136	0x3d2f6cd8	0.04282841
137	0x3d4be8a2	0.049782403
138	0x3e2b3e19	0.16722907
139	0x3e73da2b	0.23813693
140	0xbe4690e2	-0.19391206
141	0x3cb2aa0a	0.021809597
142	0x3e6fb4c0	0.23408794
143	0xbe890a9b	-0.26765904
144	0x3ea0f213	0.31434688
145	0xbe3b0085	-0.18261917
146	0x3e1d4f8e	0.15362379
147	0x3de1f2aa	0.110326126
148	0x3cbbb98e	0.022915628
149	0x3f0d681d	0.5523699
150	0xbee72e72	-0.45152622
151	0x3ec143e5	0.37747112
152	0x3dbfdfd0	0.09368861
153	0x3c8e8bfc	0.017400734
154	0xbe8f4759	-0.2798412
155	0x3dfba1b0	0.12286699
156	0x3ebd3911	0.369576
157	0x3e48a09a	0.19592515
158	0x3d46eee4	0.048567668
159	0xbdca4f77	-0.09878438
160	0xbdc32582	-0.095286384
161	0xbe826592	-0.25468117
162	0xbda796dd	-0.08183072
163	0xbf0b45bb	-0.54403275
164	0x3ebb8586	0.36625308
165	0xbc81e074	-0.015854098
166	0xbe6e9057	-0.23297249
167	0x3eafa097	0.34302208
168	0xbd4b1bb9	-0.049586985
169	0x3cee1c11	0.029066117
170	0xbebda45e	-0.37039465
171	0x3f4492f1	0.76786715
172	0x3da1995b	0.07890578
173	0x3e558341	0.2085085
174	0x3e900c70	0.2813449
175	0xbe980dbc	-0.29697978
176	0xbf24806d	-0.6425846
177	0x3ce3575e	0.02775162
178	0x3ec59a84	0.3859445
179	0xbeda6a9f	-0.4265947
180	0x3d25e446	0.0405009
181	0x3d61115e	0.054948203
182	0x3ce64aa6	0.028111767
183	0xbe9f7321	-0.31142524
184	0xbcb1bcbc	-0.02169644
185	0x3ecd694b	0.40119395
186	0x3ef4d436	0.47818154
187	0x3e8e1bf5	0.27755705
188	0xbe17fdee	-0.1484296
189	0x3eb9e45a	0.3630703
190	0x3d337598	0.043813318
191	0x3e608e09	0.21929182
192	0x3ec228c2	0.3792172
193	0x3e030b68	0.1279732
194	0xbeccd2cc	-0.40004575
195	0x3e75e8e7	0.24014626
196	0xbdb30c58	-0.08742589
197	0xbdfc0c2b	-0.12307008
198	0xbf22bea3	-0.6357214
199	0xbd3b5226	-0.04573264
200	0xbf858f1c	-1.0434299
201	0xbfc93fa3	-1.5722545
202	0xbf18c42e	-0.59674346
203	0x3e85912d	0.26087323
204	0xbdb5c3c7	-0.08875232
205	0x3db3f5a1	0.08787084
206	0xbf987327	-1.1910142
207	0x3eea8c35	0.45810094
208	0xbeedf5ed	-0.4647669
209	0xbfffdf8c	-1.9990096
210	0x3f00a180	0.5024643
211	0xbf42eb11	-0.7613993
212	0xbf6280ec	-0.8847797
213	0xbf173f01	-0.5908051
214	0xbfe7b562	-1.8102229
215	0x3e7ae327	0.24500714
216	0xbf3e3e28	-0.7431359
217	0x3f8f91f2	1.1216414
218	0xbf90ba06	-1.130677
219	0xbeb9df11	-0.36303
220	0x401255c5	2.286485
221	0xbf5a1d5c	-0.8520105
222	0x3daa516d	0.08316312
223	0xbf136c56	-0.5758718
224	0x3efd8480	0.49515152
225	0x3fa0281b	1.2512239
226	0xbea425ef	-0.3206019
227	0xbdd555d4	-0.10416761
228	0xbf808641	-1.0040971
229	0x3f7dd696	0.9915556
230	0x3ee78781	0.4522057
231	0x3fdc3882	1.7204745
232	0x3fd155fd	1.6354367
233	0x3eadef3a	0.33971578
234	0x3ff5bcf3	1.9198288
235	0x3f66a361	0.90093046
236	0x3e11a2f4	0.14222318
237	0xc0147f24	-2.32026
238	0x3ed1272b	0.40850195
239	0xbfafa8e4	-1.3723416
240	0x3e217208	0.15766156
241	0xbfd9afdb	-1.7006792
242	0xbf80d8d8	-1.0066175
243	0xbfa69720	-1.301487
244	0x3f10b4f0	0.5652609
245	0x3f19c3d7	0.6006445
246	0xbeddd64c	-0.43327558
247	0x3fbc2ea6	1.4701736
248	0xbf84ff27	-1.0390366
249	0x3f022f94	0.5085385
250	0xbfd47bd3	-1.6600288
251	0xbf0e2300	-0.55522156
252	0xbf089286	-0.5334858
253	0x3ecdfb87	0.40230963
254	0x3ead8a05	0.33894363
255	0x3f4d9c40	0.80316544

weight f4 [100, 100]
0	0x3dc9ad85	0.09847549
1	0x3ce628ad	0.028095568
2	0x3d3a861a	0.045538045
3	0x3d659707	0.056052234
4	0xbc5f4c5a	-0.0136290435
5	0xbd0e417d	-0.034730423
6	0x3d903525	0.070413865
7	0x3d6b76b0	0.057486236
8	0xbcccebfa	-0.025014866
9	0xbdc264c3	-0.09491875
10	0x3c921cc7	0.017835988
11	0x3d725757	0.059165325
12	0xbc8ecf60	-0.017432868
13	0xbd352b73	-0.04423089
14	0x3d876483	0.06610968
15	0xbd8bbc27	-0.068229966
16	0xbd0ac5e0	-0.033880115
17	0x3d395740	0.045249224
18	0x3ccdc2ad	0.025117243
19	0x3b9dcb1a	0.0048154714
20	0xbd49c7ba	-0.04926274
21	0xbd81fbca	-0.06346853
22	0x3d80d937	0.062914304
23	0x3d60a2d0	0.05484277
24	0x3d9de808	0.07710272
25	0x3b45aa33	0.003016126
26	0xbdbbb66f	-0.09165656
27	0x3db42260	0.08795619
28	0xbd0baec7	-0.034102228
29	0x3d1cad1a	0.03825102
30	0x3d5784d7	0.05261692
31	0x3d677aad	0.056513477
32	0x3a2ff0cd	0.00067116023
33	0x3cbfcd93	0.023413455
34	0xbc4a7c8d	-0.012358797
35	0x3db2e86f	0.087357394
36	0x3d94f1a3	0.07272651
37	0x3db312d0	0.087438226
38	0x3daccee8	0.08437902
39	0x3b304e33	0.002690208
40	0x3d8e9018	0.069610775
41	0x3c5e2127	0.013557709
42	0xbc86905a	-0.016426254
43	0xbd9fedeb	-0.07809051
44	0xbc2d099a	-0.010561371
45	0xbae2ee00	-0.0017313361
46	0x3d7d1873	0.061790895
47	0xbd129cc7	-0.035794046
48	0xbda28793	-0.07936015
49	0xbc17b480	-0.009259343
50	0xbcc170c7	-0.023613347
51	0xbcdefa93	-0.027219092
52	0x3d6d6960	0.05796182
53	0xbba3da4d	-0.0050003887
54	0x3d9ded80	0.07711315
55	0x3dc8d8c5	0.098069705
56	0x3b8244e7	0.003975499
57	0xbc14a20d	-0.009071839
58	0xbd26f9ed	-0.04076569
59	0xbb627d00	-0.003455937
60	0x3d5b24aa	0.053501762
61	0xbcbc088d	-0.022953296
62	0x3d0aec50	0.03391677
63	0xbc8cc327	-0.0171829
64	0xbd9ccd20	-0.07656312
65	0xbd42986d	-0.047508646
66	0xbdba25df	-0.090892546
67	0xbdbe6180	-0.092959404
68	0x3cfe9973	0.03107903
69	0x3d0b72ea	0.034045137
70	0x3cd0f7b3	0.025508737
71	0x3d630500	0.05542469
72	0xbd7ae247	-0.06125095
73	0xbb820e1a	-0.003968966
74	0x3bea27b3	0.007145846
75	0xbda3cbbd	-0.07997844
76	0x3d518e60	0.05116117
77	0xbc04d8da	-0.008108342
78	0xbd918ad7	-0.0710656
79	0xbd0042aa	-0.031313576
80	0xbd406083	-0.04696704
81	0xbdbc7f4f	-0.0920397
82	0xbd607590	-0.054799616
83	0xbd457257	-0.048204746
84	0x3dab935b	0.08377715
85	0x3c1cd34d	0.009571862
86	0xbc044267	-0.008072472
87	0xbdca8528	-0.09888679
88	0x3c36b033	0.011150408
89	0xbd502333	-0.05081482
90	0x3db92ce7	0.090417676
91	0x3cf3f613	0.029780423
92	0x3dbc24cf	0.09186708
93	0xbdc04037	-0.09387248
94	0xbd8fcd9b	-0.07021638
95	0xbd3e7b5a	-0.046504356
96	0x3d11320d	0.035448123
97	0xbd8f1815	-0.06987015
98	0xbc79605a	-0.015220726
99	0x3dc0fd4b	0.09423312
100	0x3d2aab70	0.0416674
101	0xbd365a47	-0.04451969
102	0x3bc73580	0.0060793757
103	0x3c757727	0.014982021
104	0xbb81ba00	-0.0039589405
105	0x3dc23eb3	0.09484615
106	0x3c8bc6c7	0.017062558
107	0x3d221703	0.039572727
108	0xbd5b9957	-0.053613033
109	0xbcc71840	-0.024303555
110	0xbc1b4727	-0.009477413
111	0x3d8ad802	0.067794815
112	0xbc5215da	-0.012822593
113	0xbda068a2	-0.07832457
114	0xbd09c5a3	-0.033635747
115	0x3d58a1f7	0.052888837
116	0xbd74fa13	-0.0598088
117	0xbd6cf233	-0.057848167
118	0x3dbac232	0.09119071
119	0xbd3e0c9a	-0.046398737
120	0xbdc297db	-0.095016204
121	0x3d983fca	0.07434042
122	0x3daac7b0	0.083388686
123	0xbd9d8518	-0.07691401
124	0x3d6e93f7	0.05824658
125	0x3d414d20	0.047192693
126	0xbd21ae43	-0.03947283
127	0x3d971d25	0.07378606
128	0xbd8bb2af	-0.068211906
129	0xbdbbbada	-0.091664985
130	0xbd579b47	-0.05263832
131	0xbdb5e4d2	-0.08881535
132	0x3c391ca7	0.011298335
133	0xbd1c9403	-0.038227092
134	0x3d02a69d	0.031897176
135	0xbdaccf0f	-0.08437931
136	0xbdc51a32	-0.09624137
137	0xbc657c1a	-0.014006639
138	0x3dc74705	0.09730343
139	0xbd8efd02	-0.06981851
140	0xbd8cabaa	-0.0686868
141	0xbdacfeaf	-0.084470145
142	0x3dc109c2	0.09425689
143	0xbc10d7e7	-0.008840538
144	0x3c1ba840	0.009500563
145	0xbd0dfa0a	-0.034662284
146	0xbd46382d	-0.048393417
147	0x3ce4f4b3	0.027948713
148	0x3d0b017a	0.033936955
149	0x3d9d22a7	0.07672625
150	0x3da8ecf7	0.082483225
151	0x3d1077b3	0.035270404
152	0x3d83592a	0.06413491
153	0x3c20ed5a	0.009822214
154	0xbdc87240	-0.097874165
155	0xbd85a842	-0.06526233
156	0xbd70a1ad	-0.058747936
157	0x3cd4b4ad	0.02596506
158	0xbd70b22d	-0.05876367
159	0xbd59e8ad	-0.053200413
160	0xbd73dad0	-0.059534848
161	0x3cf1ed4d	0.0295321
162	0x3d94063b	0.07227751
163	0x3bab921a	0.0052359225
164	0x3d577527	0.05260196
165	0x3d7e16c3	0.062033426
166	0x3dacff2d	0.084471084
167	0xbba76500	-0.0051084757
168	0x3d9eb010	0.07748425
169	0x3d137aa0	0.036005616
170	0xbdca759a	-0.09885712
171	0x3d23db07	0.040003803
172	0xbcfc268d	-0.030780101
173	0xbd6615ca	-0.056173123
174	0xbd09e14d	-0.03366213
175	0x3c064b0d	0.008196604
176	0x3d5f8d07	0.054577854
177	0xbd8781f3	-0.06616583
178	0xbd5e900d	-0.054336596
179	0xbd989887	-0.07450967
180	0xbd7eb8dd	-0.062188018
181	0x3d618443	0.055057775
182	0xbd75d0e7	-0.060013678
183	0xbc2cca4d	-0.010546279
184	0x3da6c962	0.081438795
185	0x3cdadccd	0.026716614
186	0xbd275d7a	-0.04086063
187	0xbc57954d	-0.013158155
188	0x3d5de81d	0.05417644
189	0xbdc79310	-0.09744847
190	0xbd2d6dea	-0.04234115
191	0x3d8bf418	0.068336666
192	0x3d85fd37	0.065424375
193	0xbc15ab33	-0.009135055
194	0xbd6dddb3	-0.058072757
195	0xbbc262b3	-0.005932176
196	0x3dcba292	0.09943117
197	0x3d30c2ba	0.043154456
198	0xbcc265c7	-0.023730172
199	0xbdcc0e73	-0.099636935
200	0x3d56bf53	0.052428555
201	0xbda923f5	-0.082588114
202	0x3daf441d	0.085579135
203	0xbc3a085a	-0.01135453
204	0x3dbc80bf	0.09204244
205	0x3ca3b900	0.019985676
206	0x3d20702d	0.03916948
207	0x3cbf642d	0.023363197
208	0xbbb75633	-0.0055949925
209	0xbdb3f243	-0.08786442
210	0xbd0f8843	-0.03504206
211	0x3da13b5d	0.07872651
212	0x3cb9c3ba	0.022676338
213	0xbd8ed88f	-0.06974899
214	0x3ce2b7a7	0.027675463
215	0xbd024ea0	-0.031813264
216	0x3b6b0bcd	0.0035865188
217	0xbdc5a602	-0.09650804
218	0x3d0c5b43	0.03426672
219	0x3d8175e7	0.06321316
220	0xbdc3125f	-0.095249884
221	0x3cf33347	0.029687537
222	0x3db557bb	0.08854624
223	0x3d2c8e60	0.042127967
224	0x3c5b320d	0.013378632
225	0x3c392c80	0.0113021135
226	0x3d33845a	0.043827392
227	0xbd3e5903	-0.046471607
228	0xbd0327c3	-0.03202034
229	0xbd13252d	-0.035924125
230	0x3d556837	0.05210134
231	0xbd6ebda3	-0.05828632
232	0xbc957aad	-0.018246973
233	0x3d7afb3a	0.061274745
234	0xbc51f7c0	-0.012815416
235	0x3c8e99a7	0.017407252
236	0xbdc83b35	-0.09776918
237	0xbd9a1a7f	-0.07524585
238	0xbd8d65e2	-0.06904198
239	0x3d246b7a	0.04014156
240	0xbcfe26fa	-0.031024445
241	0xbca9c48d	-0.020723606
242	0xbdc353ab	-0.09537443
243	0x3d0487cd	0.032356072
244	0x3daa0e57	0.08303516
245	0x3b43a7cd	0.0029854656
246	0x3b7f3e67	0.0038947107
247	0x3d0f5397	0.034991827
248	0x3cbcd1d3	0.02304927
249	0xbdbba273	-0.09161844
250	0x3d293b50	0.04131633
251	0xbce8ac13	-0.028402364
252	0xbd793187	-0.06083825
253	0xbdcbe21a	-0.09955235
254	0xbd6a8387	-0.05725434
255	0xbd828b33	-0.063742064

weight f4 [100, 200]
0	0x3d68ea25	0.056863923
1	0xbd4838e6	-0.048882388
2	0x3d7bd005	0.06147768
3	0x3d0e5459	0.03474841
4	0xbd8df001	-0.06930543
5	0x3d84727b	0.06467148
6	0xbd901c90	-0.07036698
7	0x3d0474d4	0.03233798
8	0xbc6fc240	-0.014633715
9	0x3d5689ad	0.05237739
10	0xbd039efc	-0.03213404
11	0x3d6c6d39	0.05772135
12	0x3d59c014	0.053161696
13	0xbd49f8d8	-0.04930958
14	0x3d5b0db5	0.05347987
15	0xbc6d89ea	-0.014498213
16	0xbd529cf5	-0.051419217
17	0x3ca78c49	0.020452635
18	0xbd574801	-0.052558903
19	0xbc0e1675	-0.008672346
20	0xbd1ba8df	-0.038002845
21	0xbd7ec715	-0.06220158
22	0x3d86da01	0.0658455
23	0xbcf7abdd	-0.030233318
24	0xbd80d0fa	-0.06289859
25	0x3d0b351b	0.033986192
26	0x3cddefd7	0.027091904
27	0x3ca2f032	0.019889925
28	0xbcfd8eda	-0.030951906
29	0xbd83a809	-0.064285345
30	0x3d853d94	0.06505886
31	0x3d3465e6	0.04404249
32	0xbcb630db	-0.022240093
33	0x3ce0a531	0.02742252
34	0xbcc8c007	-0.024505628
35	0x3c0abd9f	0.008468061
36	0x3d8678ba	0.065659955
37	0xbc18a487	-0.00931657
38	0x3c82bc25	0.015958855
39	0xbcd64762	-0.026157085
40	0x3ca29d21	0.019850316
41	0xbcc04a88	-0.02347304
42	0x3d4ffa3c	0.05077575
43	0x3c2a720b	0.0104031665
44	0xbcf5ed6a	-0.030020434
45	0xbd878dc3	-0.06618836
46	0x3d332ca6	0.043743752
47	0x3c7dd3b0	0.015492365
48	0x3b06b947	0.0020557211
49	0x3b40310f	0.0029326116
50	0x3d86636d	0.06561933
51	0xbd7e1b7e	-0.062037937
52	0x3c107f20	0.008819371
53	0xbcd142e4	-0.025544591
54	0xbc903423	-0.017602986
55	0xbd12f1ef	-0.035875257
56	0x3d28289a	0.041054346
57	0x3c03929c	0.00803056
58	0xbc7dfd44	-0.015502278
59	0x3c8da1d2	0.017289076
60	0xbd5cd78a	-0.05391649
61	0xba542bfc	-0.00080937124
62	0xbcd5137e	-0.026010271
63	0xbc8e6a2e	-0.017384615
64	0xbd116055	-0.03549226
65	0x3d6d137e	0.057879917
66	0xbd60bb06	-0.05486586
67	0xbd15baff	-0.036555286
68	0x3d05127f	0.032488342
69	0x3d5f2b1f	0.054484483
70	0x3cd9117e	0.026497599
71	0x3c59034c	0.013245415
72	0x3d0c34c9	0.034230027
73	0x3cfcf4f7	0.030878527
74	0xbd65d93b	-0.05611537
75	0x3c46d91d	0.012136725
76	0x3c25ef3b	0.010127838
77	0x3b0dafc0	0.0021619648
78	0x3d809926	0.06279211
79	0xbd7910d9	-0.060807083
80	0xbd1d59f7	-0.038415875
81	0x3d816388	0.06317812
82	0x3d90391b	0.07042142
83	0xbd6cd6eb	-0.05782215
84	0x3d5a3487	0.05327275
85	0xbc8a3e58	-0.016875431
86	0xbcd3b011	-0.025840791
87	0x3c8ebd8c	0.017424367
88	0xbae6ad9a	-0.0017599345
89	0xbd46b8f5	-0.048516233
90	0x3d529399	0.05141029
91	0xbd7640e1	-0.060120467
92	0xbcdad239	-0.02671157
93	0x3d4dbcc8	0.050228864
94	0xbd26dfee	-0.0407409
95	0x3d74f147	0.059800413
96	0xbd810cf1	-0.063012965
97	0x3d667944	0.05626799
98	0x3ae41a4b	0.0017402855
99	0xbcde98e8	-0.02717252
100	0xbcac32d8	-0.021020338
101	0x3d5dabf0	0.05411905
102	0x3d00e3ae	0.031467132
103	0x3c81b7e9	0.015834766
104	0xbc5afbe3	-0.013365719
105	0x3d00feba	0.031492926
106	0xbba36b20	-0.0049871355
107	0xbd0b7d54	-0.03405507
108	0xbce97854	-0.02849976
109	0x3d49c1f9	0.049257252
110	0x3bf8cfc2	0.007593126
111	0x3bd7f513	0.0065904944
112	0x3d8eec70	0.069786906
113	0xbd6cafa1	-0.05778468
114	0x3d621fe4	0.055206195
115	0xbd8341a9	-0.06409008
116	0xbc0bc532	-0.008530902
117	0xbcc0af59	-0.023521112
118	0x3d1f2afa	0.038859345
119	0xbd767e20	-0.060178876
120	0xbd0e62b1	-0.03476209
121	0x3d8a54df	0.06754469
122	0x3d31d820	0.043419003
123	0xbd843a51	-0.064564355
124	0x3d47847e	0.04871034
125	0x3c003880	0.007825971
126	0xbc015e5f	-0.007896035
127	0x3cb13209	0.021630304
128	0x3d06d800	0.032920837
129	0x3d8308be	0.06398152
130	0xbbd88cd2	-0.006608584
131	0x3cbe30eb	0.023216685
132	0xbd87ebfe	-0.06636809
133	0x3d56f784	0.052482143
134	0xbcb60a24	-0.022221632
135	0x3a8b56fe	0.0010630784
136	0x3bc7a554	0.0060927067
137	0xbd5968df	-0.05307853
138	0x3c196c5b	0.009364213
139	0xbd02d947	-0.031945493
140	0x3d1e61ce	0.038667493
141	0x3cfc3705	0.030787954
142	0xbd10242d	-0.03519075
143	0xbd130434	-0.03589268
144	0x3cad9f40	0.0211941
145	0xbd27c8a6	-0.040962838
146	0x3bcefa0f	0.0063164304
147	0x3d6e0863	0.058113467
148	0xbcc474fd	-0.023981566
149	0xbd84d50e	-0.064859495
150	0x3d83239d	0.06403277
151	0xbd627da5	-0.055295605
152	0x3c441cf9	0.011969798
153	0x3d87f892	0.06639208
154	0x3cf0c923	0.029392784
155	0xbc8d3d4a	-0.017241139
156	0x3c02a9d4	0.0079750605
157	0xbb991789	-0.004671995
158	0x3d3041f6	0.043031655
159	0x3cd7a46e	0.026323523
160	0x3d187424	0.037220135
161	0x3c9943d2	0.018709097
162	0x3d451cfb	0.04812334
163	0xbd0e73e5	-0.034778494
164	0xbd019af7	-0.031641927
165	0x3cb04f75	0.021522263
166	0xbcdb443e	-0.026765939
167	0x3d6292c1	0.055315737
168	0x3d353468	0.04423943
169	0x3c94dd30	0.018171877
170	0x3c459a99	0.012060785
171	0xbcd1b551	-0.025599154
172	0xbcf5913a	-0.029976476
173	0xbca4242d	-0.020036781
174	0xbd52d2a9	-0.051470432
175	0xbc0c4faf	-0.00856392
176	0xbd130fbd	-0.03590368
177	0xbd8a6632	-0.067577735
178	0xbd0e283e	-0.034706347
179	0x3c1188c9	0.00888271
180	0x3d0ae58c	0.03391032
181	0x3c64d15d	0.013965932
182	0x3c985742	0.018596295
183	0xbb588e06	-0.0033043637
184	0xbcf832b1	-0.030297609
185	0x3d23399a	0.039849855
186	0xbd7e2daf	-0.062055286
187	0xbd5219aa	-0.051294006
188	0x3d742185	0.05960228
189	0xbd105ccc	-0.035244748
190	0xbceeca9b	-0.029149344
191	0xbd3478de	-0.04406058
192	0xbcaaca97	-0.020848555
193	0x3bc98a31	0.006150507
194	0x3c89874f	0.016788153
195	0x3cb7fd6e	0.022459712
196	0x3ca21aef	0.019788234
197	0x3c6d1ab8	0.014471702
198	0x3d266ee8	0.040633112
199	0xbcaac5d1	-0.02084628
200	0x3d68f79e	0.05687677
201	0xbca0ffdc	-0.019653253
202	0x3d880816	0.06642167
203	0xbd3cd734	-0.04610367
204	0xbc157b11	-0.00912358
205	0x3c06e42a	0.0082331095
206	0x3abd8ec3	0.0014462102
207	0xbd8bc6e5	-0.068250455
208	0xbcdc76a6	-0.026912045
209	0xbd3ac78d	-0.045600463
210	0xbd419eea	-0.047270693
211	0x3d846761	0.064650305
212	0xbd155854	-0.03646119
213	0xbd175cf5	-0.036953885
214	0x3cbd67b1	0.023120733
215	0x3c17f25f	0.009274094
216	0x3d73d97c	0.05953358
217	0x3d1b17d6	0.03786453
218	0x3d3c3946	0.045953058
219	0xbd5e82f1	-0.054324094
220	0xbd89b524	-0.06724003
221	0x3d272b90	0.04081303
222	0x3c82971c	0.015941195
223	0xbbc95d5c	-0.0061451625
224	0x3d05d31d	0.032672036
225	0xbb1aa89c	-0.0023599034
226	0x3d45eb5a	0.048320152
227	0x3d22c391	0.039737288
228	0x3d349890	0.044090807
229	0x3ba31eb0	0.0049780235
230	0x3d5ff75c	0.05467926
231	0xbd124f1f	-0.035719987
232	0xbc74e542	-0.014947237
233	0xbd85d35a	-0.06534453
234	0x3c9a0975	0.018803338
235	0x3cbc5ff6	0.022994976
236	0xbcf52126	-0.029923033
237	0xbd1404cb	-0.036137383
238	0x3d293167	0.04130688
239	0x3d4cd8df	0.050011512
240	0x3d8ca00d	0.06866465
241	0xbd2cd4f0	-0.04219526
242	0x3b4d1916	0.003129547
243	0xbce2de3c	-0.02769386
244	0xbd238d1d	-0.039929498
245	0xbc9e0d77	-0.01929353
246	0x3d341f64	0.04397525
247	0x3cca605f	0.024704156
248	0x3d5f3b8b	0.054500144
249	0xbae92579	-0.0017787657
250	0xbbcd665f	-0.006268307
251	0xbce5a6e9	-0.02803369
252	0xbcfcddbd	-0.030867452
253	0xbd80a411	-0.06281293
254	0x3d8446f4	0.06458846
255	0xbb7bd60a	-0.0038427138
